{"format": "layers-model", "generatedBy": "keras v2.10.0", "convertedBy": "TensorFlow.js Converter v4.0.0", "modelTopology": {"keras_version": "2.10.0", "backend": "tensorflow", "model_config": {"class_name": "Functional", "config": {"name": "model_3", "layers": [{"class_name": "InputLayer", "config": {"batch_input_shape": [null, 300, 300, 3], "dtype": "float32", "sparse": false, "ragged": false, "name": "input_4"}, "name": "input_4", "inbound_nodes": []}, {"class_name": "Conv2D", "config": {"name": "conv2d_282", "trainable": false, "dtype": "float32", "filters": 32, "kernel_size": [3, 3], "strides": [2, 2], "padding": "valid", "data_format": "channels_last", "dilation_rate": [1, 1], "groups": 1, "activation": "linear", "use_bias": false, "kernel_initializer": {"class_name": "GlorotUniform", "config": {"seed": null}}, "bias_initializer": {"class_name": "Zeros", "config": {}}, "kernel_regularizer": null, "bias_regularizer": null, "activity_regularizer": null, "kernel_constraint": null, "bias_constraint": null}, "name": "conv2d_282", "inbound_nodes": [[["input_4", 0, 0, {}]]]}, {"class_name": "BatchNormalization", "config": {"name": "batch_normalization_282", "trainable": false, "dtype": "float32", "axis": [3], "momentum": 0.99, "epsilon": 0.001, "center": true, "scale": false, "beta_initializer": {"class_name": "Zeros", "config": {}}, "gamma_initializer": {"class_name": "Ones", "config": {}}, "moving_mean_initializer": {"class_name": "Zeros", "config": {}}, "moving_variance_initializer": {"class_name": "Ones", "config": {}}, "beta_regularizer": null, "gamma_regularizer": null, "beta_constraint": null, "gamma_constraint": null}, "name": "batch_normalization_282", "inbound_nodes": [[["conv2d_282", 0, 0, {}]]]}, {"class_name": "Activation", "config": {"name": "activation_282", "trainable": false, "dtype": "float32", "activation": "relu"}, "name": "activation_282", "inbound_nodes": [[["batch_normalization_282", 0, 0, {}]]]}, {"class_name": "Conv2D", "config": {"name": "conv2d_283", "trainable": false, "dtype": "float32", "filters": 32, "kernel_size": [3, 3], "strides": [1, 1], "padding": "valid", "data_format": "channels_last", "dilation_rate": [1, 1], "groups": 1, "activation": "linear", "use_bias": false, "kernel_initializer": {"class_name": "GlorotUniform", "config": {"seed": null}}, "bias_initializer": {"class_name": "Zeros", "config": {}}, "kernel_regularizer": null, "bias_regularizer": null, "activity_regularizer": null, "kernel_constraint": null, "bias_constraint": null}, "name": "conv2d_283", "inbound_nodes": [[["activation_282", 0, 0, {}]]]}, {"class_name": "BatchNormalization", "config": {"name": "batch_normalization_283", "trainable": false, "dtype": "float32", "axis": [3], "momentum": 0.99, "epsilon": 0.001, "center": true, "scale": false, "beta_initializer": {"class_name": "Zeros", "config": {}}, "gamma_initializer": {"class_name": "Ones", "config": {}}, "moving_mean_initializer": {"class_name": "Zeros", "config": {}}, "moving_variance_initializer": {"class_name": "Ones", "config": {}}, "beta_regularizer": null, "gamma_regularizer": null, "beta_constraint": null, "gamma_constraint": null}, "name": "batch_normalization_283", "inbound_nodes": [[["conv2d_283", 0, 0, {}]]]}, {"class_name": "Activation", "config": {"name": "activation_283", "trainable": false, "dtype": "float32", "activation": "relu"}, "name": "activation_283", "inbound_nodes": [[["batch_normalization_283", 0, 0, {}]]]}, {"class_name": "Conv2D", "config": {"name": "conv2d_284", "trainable": false, "dtype": "float32", "filters": 64, "kernel_size": [3, 3], "strides": [1, 1], "padding": "same", "data_format": "channels_last", "dilation_rate": [1, 1], "groups": 1, "activation": "linear", "use_bias": false, "kernel_initializer": {"class_name": "GlorotUniform", "config": {"seed": null}}, "bias_initializer": {"class_name": "Zeros", "config": {}}, "kernel_regularizer": null, "bias_regularizer": null, "activity_regularizer": null, "kernel_constraint": null, "bias_constraint": null}, "name": "conv2d_284", "inbound_nodes": [[["activation_283", 0, 0, {}]]]}, {"class_name": "BatchNormalization", "config": {"name": "batch_normalization_284", "trainable": false, "dtype": "float32", "axis": [3], "momentum": 0.99, "epsilon": 0.001, "center": true, "scale": false, "beta_initializer": {"class_name": "Zeros", "config": {}}, "gamma_initializer": {"class_name": "Ones", "config": {}}, "moving_mean_initializer": {"class_name": "Zeros", "config": {}}, "moving_variance_initializer": {"class_name": "Ones", "config": {}}, "beta_regularizer": null, "gamma_regularizer": null, "beta_constraint": null, "gamma_constraint": null}, "name": "batch_normalization_284", "inbound_nodes": [[["conv2d_284", 0, 0, {}]]]}, {"class_name": "Activation", "config": {"name": "activation_284", "trainable": false, "dtype": "float32", "activation": "relu"}, "name": "activation_284", "inbound_nodes": [[["batch_normalization_284", 0, 0, {}]]]}, {"class_name": "MaxPooling2D", "config": {"name": "max_pooling2d_12", "trainable": false, "dtype": "float32", "pool_size": [3, 3], "padding": "valid", "strides": [2, 2], "data_format": "channels_last"}, "name": "max_pooling2d_12", "inbound_nodes": [[["activation_284", 0, 0, {}]]]}, {"class_name": "Conv2D", "config": {"name": "conv2d_285", "trainable": false, "dtype": "float32", "filters": 80, "kernel_size": [1, 1], "strides": [1, 1], "padding": "valid", "data_format": "channels_last", "dilation_rate": [1, 1], "groups": 1, "activation": "linear", "use_bias": false, "kernel_initializer": {"class_name": "GlorotUniform", "config": {"seed": null}}, "bias_initializer": {"class_name": "Zeros", "config": {}}, "kernel_regularizer": null, "bias_regularizer": null, "activity_regularizer": null, "kernel_constraint": null, "bias_constraint": null}, "name": "conv2d_285", "inbound_nodes": [[["max_pooling2d_12", 0, 0, {}]]]}, {"class_name": "BatchNormalization", "config": {"name": "batch_normalization_285", "trainable": false, "dtype": "float32", "axis": [3], "momentum": 0.99, "epsilon": 0.001, "center": true, "scale": false, "beta_initializer": {"class_name": "Zeros", "config": {}}, "gamma_initializer": {"class_name": "Ones", "config": {}}, "moving_mean_initializer": {"class_name": "Zeros", "config": {}}, "moving_variance_initializer": {"class_name": "Ones", "config": {}}, "beta_regularizer": null, "gamma_regularizer": null, "beta_constraint": null, "gamma_constraint": null}, "name": "batch_normalization_285", "inbound_nodes": [[["conv2d_285", 0, 0, {}]]]}, {"class_name": "Activation", "config": {"name": "activation_285", "trainable": false, "dtype": "float32", "activation": "relu"}, "name": "activation_285", "inbound_nodes": [[["batch_normalization_285", 0, 0, {}]]]}, {"class_name": "Conv2D", "config": {"name": "conv2d_286", "trainable": false, "dtype": "float32", "filters": 192, "kernel_size": [3, 3], "strides": [1, 1], "padding": "valid", "data_format": "channels_last", "dilation_rate": [1, 1], "groups": 1, "activation": "linear", "use_bias": false, "kernel_initializer": {"class_name": "GlorotUniform", "config": {"seed": null}}, "bias_initializer": {"class_name": "Zeros", "config": {}}, "kernel_regularizer": null, "bias_regularizer": null, "activity_regularizer": null, "kernel_constraint": null, "bias_constraint": null}, "name": "conv2d_286", "inbound_nodes": [[["activation_285", 0, 0, {}]]]}, {"class_name": "BatchNormalization", "config": {"name": "batch_normalization_286", "trainable": false, "dtype": "float32", "axis": [3], "momentum": 0.99, "epsilon": 0.001, "center": true, "scale": false, "beta_initializer": {"class_name": "Zeros", "config": {}}, "gamma_initializer": {"class_name": "Ones", "config": {}}, "moving_mean_initializer": {"class_name": "Zeros", "config": {}}, "moving_variance_initializer": {"class_name": "Ones", "config": {}}, "beta_regularizer": null, "gamma_regularizer": null, "beta_constraint": null, "gamma_constraint": null}, "name": "batch_normalization_286", "inbound_nodes": [[["conv2d_286", 0, 0, {}]]]}, {"class_name": "Activation", "config": {"name": "activation_286", "trainable": false, "dtype": "float32", "activation": "relu"}, "name": "activation_286", "inbound_nodes": [[["batch_normalization_286", 0, 0, {}]]]}, {"class_name": "MaxPooling2D", "config": {"name": "max_pooling2d_13", "trainable": false, "dtype": "float32", "pool_size": [3, 3], "padding": "valid", "strides": [2, 2], "data_format": "channels_last"}, "name": "max_pooling2d_13", "inbound_nodes": [[["activation_286", 0, 0, {}]]]}, {"class_name": "Conv2D", "config": {"name": "conv2d_290", "trainable": false, "dtype": "float32", "filters": 64, "kernel_size": [1, 1], "strides": [1, 1], "padding": "same", "data_format": "channels_last", "dilation_rate": [1, 1], "groups": 1, "activation": "linear", "use_bias": false, "kernel_initializer": {"class_name": "GlorotUniform", "config": {"seed": null}}, "bias_initializer": {"class_name": "Zeros", "config": {}}, "kernel_regularizer": null, "bias_regularizer": null, "activity_regularizer": null, "kernel_constraint": null, "bias_constraint": null}, "name": "conv2d_290", "inbound_nodes": [[["max_pooling2d_13", 0, 0, {}]]]}, {"class_name": "BatchNormalization", "config": {"name": "batch_normalization_290", "trainable": false, "dtype": "float32", "axis": [3], "momentum": 0.99, "epsilon": 0.001, "center": true, "scale": false, "beta_initializer": {"class_name": "Zeros", "config": {}}, "gamma_initializer": {"class_name": "Ones", "config": {}}, "moving_mean_initializer": {"class_name": "Zeros", "config": {}}, "moving_variance_initializer": {"class_name": "Ones", "config": {}}, "beta_regularizer": null, "gamma_regularizer": null, "beta_constraint": null, "gamma_constraint": null}, "name": "batch_normalization_290", "inbound_nodes": [[["conv2d_290", 0, 0, {}]]]}, {"class_name": "Activation", "config": {"name": "activation_290", "trainable": false, "dtype": "float32", "activation": "relu"}, "name": "activation_290", "inbound_nodes": [[["batch_normalization_290", 0, 0, {}]]]}, {"class_name": "Conv2D", "config": {"name": "conv2d_288", "trainable": false, "dtype": "float32", "filters": 48, "kernel_size": [1, 1], "strides": [1, 1], "padding": "same", "data_format": "channels_last", "dilation_rate": [1, 1], "groups": 1, "activation": "linear", "use_bias": false, "kernel_initializer": {"class_name": "GlorotUniform", "config": {"seed": null}}, "bias_initializer": {"class_name": "Zeros", "config": {}}, "kernel_regularizer": null, "bias_regularizer": null, "activity_regularizer": null, "kernel_constraint": null, "bias_constraint": null}, "name": "conv2d_288", "inbound_nodes": [[["max_pooling2d_13", 0, 0, {}]]]}, {"class_name": "Conv2D", "config": {"name": "conv2d_291", "trainable": false, "dtype": "float32", "filters": 96, "kernel_size": [3, 3], "strides": [1, 1], "padding": "same", "data_format": "channels_last", "dilation_rate": [1, 1], "groups": 1, "activation": "linear", "use_bias": false, "kernel_initializer": {"class_name": "GlorotUniform", "config": {"seed": null}}, "bias_initializer": {"class_name": "Zeros", "config": {}}, "kernel_regularizer": null, "bias_regularizer": null, "activity_regularizer": null, "kernel_constraint": null, "bias_constraint": null}, "name": "conv2d_291", "inbound_nodes": [[["activation_290", 0, 0, {}]]]}, {"class_name": "BatchNormalization", "config": {"name": "batch_normalization_288", "trainable": false, "dtype": "float32", "axis": [3], "momentum": 0.99, "epsilon": 0.001, "center": true, "scale": false, "beta_initializer": {"class_name": "Zeros", "config": {}}, "gamma_initializer": {"class_name": "Ones", "config": {}}, "moving_mean_initializer": {"class_name": "Zeros", "config": {}}, "moving_variance_initializer": {"class_name": "Ones", "config": {}}, "beta_regularizer": null, "gamma_regularizer": null, "beta_constraint": null, "gamma_constraint": null}, "name": "batch_normalization_288", "inbound_nodes": [[["conv2d_288", 0, 0, {}]]]}, {"class_name": "BatchNormalization", "config": {"name": "batch_normalization_291", "trainable": false, "dtype": "float32", "axis": [3], "momentum": 0.99, "epsilon": 0.001, "center": true, "scale": false, "beta_initializer": {"class_name": "Zeros", "config": {}}, "gamma_initializer": {"class_name": "Ones", "config": {}}, "moving_mean_initializer": {"class_name": "Zeros", "config": {}}, "moving_variance_initializer": {"class_name": "Ones", "config": {}}, "beta_regularizer": null, "gamma_regularizer": null, "beta_constraint": null, "gamma_constraint": null}, "name": "batch_normalization_291", "inbound_nodes": [[["conv2d_291", 0, 0, {}]]]}, {"class_name": "Activation", "config": {"name": "activation_288", "trainable": false, "dtype": "float32", "activation": "relu"}, "name": "activation_288", "inbound_nodes": [[["batch_normalization_288", 0, 0, {}]]]}, {"class_name": "Activation", "config": {"name": "activation_291", "trainable": false, "dtype": "float32", "activation": "relu"}, "name": "activation_291", "inbound_nodes": [[["batch_normalization_291", 0, 0, {}]]]}, {"class_name": "AveragePooling2D", "config": {"name": "average_pooling2d_27", "trainable": false, "dtype": "float32", "pool_size": [3, 3], "padding": "same", "strides": [1, 1], "data_format": "channels_last"}, "name": "average_pooling2d_27", "inbound_nodes": [[["max_pooling2d_13", 0, 0, {}]]]}, {"class_name": "Conv2D", "config": {"name": "conv2d_287", "trainable": false, "dtype": "float32", "filters": 64, "kernel_size": [1, 1], "strides": [1, 1], "padding": "same", "data_format": "channels_last", "dilation_rate": [1, 1], "groups": 1, "activation": "linear", "use_bias": false, "kernel_initializer": {"class_name": "GlorotUniform", "config": {"seed": null}}, "bias_initializer": {"class_name": "Zeros", "config": {}}, "kernel_regularizer": null, "bias_regularizer": null, "activity_regularizer": null, "kernel_constraint": null, "bias_constraint": null}, "name": "conv2d_287", "inbound_nodes": [[["max_pooling2d_13", 0, 0, {}]]]}, {"class_name": "Conv2D", "config": {"name": "conv2d_289", "trainable": false, "dtype": "float32", "filters": 64, "kernel_size": [5, 5], "strides": [1, 1], "padding": "same", "data_format": "channels_last", "dilation_rate": [1, 1], "groups": 1, "activation": "linear", "use_bias": false, "kernel_initializer": {"class_name": "GlorotUniform", "config": {"seed": null}}, "bias_initializer": {"class_name": "Zeros", "config": {}}, "kernel_regularizer": null, "bias_regularizer": null, "activity_regularizer": null, "kernel_constraint": null, "bias_constraint": null}, "name": "conv2d_289", "inbound_nodes": [[["activation_288", 0, 0, {}]]]}, {"class_name": "Conv2D", "config": {"name": "conv2d_292", "trainable": false, "dtype": "float32", "filters": 96, "kernel_size": [3, 3], "strides": [1, 1], "padding": "same", "data_format": "channels_last", "dilation_rate": [1, 1], "groups": 1, "activation": "linear", "use_bias": false, "kernel_initializer": {"class_name": "GlorotUniform", "config": {"seed": null}}, "bias_initializer": {"class_name": "Zeros", "config": {}}, "kernel_regularizer": null, "bias_regularizer": null, "activity_regularizer": null, "kernel_constraint": null, "bias_constraint": null}, "name": "conv2d_292", "inbound_nodes": [[["activation_291", 0, 0, {}]]]}, {"class_name": "Conv2D", "config": {"name": "conv2d_293", "trainable": false, "dtype": "float32", "filters": 32, "kernel_size": [1, 1], "strides": [1, 1], "padding": "same", "data_format": "channels_last", "dilation_rate": [1, 1], "groups": 1, "activation": "linear", "use_bias": false, "kernel_initializer": {"class_name": "GlorotUniform", "config": {"seed": null}}, "bias_initializer": {"class_name": "Zeros", "config": {}}, "kernel_regularizer": null, "bias_regularizer": null, "activity_regularizer": null, "kernel_constraint": null, "bias_constraint": null}, "name": "conv2d_293", "inbound_nodes": [[["average_pooling2d_27", 0, 0, {}]]]}, {"class_name": "BatchNormalization", "config": {"name": "batch_normalization_287", "trainable": false, "dtype": "float32", "axis": [3], "momentum": 0.99, "epsilon": 0.001, "center": true, "scale": false, "beta_initializer": {"class_name": "Zeros", "config": {}}, "gamma_initializer": {"class_name": "Ones", "config": {}}, "moving_mean_initializer": {"class_name": "Zeros", "config": {}}, "moving_variance_initializer": {"class_name": "Ones", "config": {}}, "beta_regularizer": null, "gamma_regularizer": null, "beta_constraint": null, "gamma_constraint": null}, "name": "batch_normalization_287", "inbound_nodes": [[["conv2d_287", 0, 0, {}]]]}, {"class_name": "BatchNormalization", "config": {"name": "batch_normalization_289", "trainable": false, "dtype": "float32", "axis": [3], "momentum": 0.99, "epsilon": 0.001, "center": true, "scale": false, "beta_initializer": {"class_name": "Zeros", "config": {}}, "gamma_initializer": {"class_name": "Ones", "config": {}}, "moving_mean_initializer": {"class_name": "Zeros", "config": {}}, "moving_variance_initializer": {"class_name": "Ones", "config": {}}, "beta_regularizer": null, "gamma_regularizer": null, "beta_constraint": null, "gamma_constraint": null}, "name": "batch_normalization_289", "inbound_nodes": [[["conv2d_289", 0, 0, {}]]]}, {"class_name": "BatchNormalization", "config": {"name": "batch_normalization_292", "trainable": false, "dtype": "float32", "axis": [3], "momentum": 0.99, "epsilon": 0.001, "center": true, "scale": false, "beta_initializer": {"class_name": "Zeros", "config": {}}, "gamma_initializer": {"class_name": "Ones", "config": {}}, "moving_mean_initializer": {"class_name": "Zeros", "config": {}}, "moving_variance_initializer": {"class_name": "Ones", "config": {}}, "beta_regularizer": null, "gamma_regularizer": null, "beta_constraint": null, "gamma_constraint": null}, "name": "batch_normalization_292", "inbound_nodes": [[["conv2d_292", 0, 0, {}]]]}, {"class_name": "BatchNormalization", "config": {"name": "batch_normalization_293", "trainable": false, "dtype": "float32", "axis": [3], "momentum": 0.99, "epsilon": 0.001, "center": true, "scale": false, "beta_initializer": {"class_name": "Zeros", "config": {}}, "gamma_initializer": {"class_name": "Ones", "config": {}}, "moving_mean_initializer": {"class_name": "Zeros", "config": {}}, "moving_variance_initializer": {"class_name": "Ones", "config": {}}, "beta_regularizer": null, "gamma_regularizer": null, "beta_constraint": null, "gamma_constraint": null}, "name": "batch_normalization_293", "inbound_nodes": [[["conv2d_293", 0, 0, {}]]]}, {"class_name": "Activation", "config": {"name": "activation_287", "trainable": false, "dtype": "float32", "activation": "relu"}, "name": "activation_287", "inbound_nodes": [[["batch_normalization_287", 0, 0, {}]]]}, {"class_name": "Activation", "config": {"name": "activation_289", "trainable": false, "dtype": "float32", "activation": "relu"}, "name": "activation_289", "inbound_nodes": [[["batch_normalization_289", 0, 0, {}]]]}, {"class_name": "Activation", "config": {"name": "activation_292", "trainable": false, "dtype": "float32", "activation": "relu"}, "name": "activation_292", "inbound_nodes": [[["batch_normalization_292", 0, 0, {}]]]}, {"class_name": "Activation", "config": {"name": "activation_293", "trainable": false, "dtype": "float32", "activation": "relu"}, "name": "activation_293", "inbound_nodes": [[["batch_normalization_293", 0, 0, {}]]]}, {"class_name": "Concatenate", "config": {"name": "mixed0", "trainable": false, "dtype": "float32", "axis": 3}, "name": "mixed0", "inbound_nodes": [[["activation_287", 0, 0, {}], ["activation_289", 0, 0, {}], ["activation_292", 0, 0, {}], ["activation_293", 0, 0, {}]]]}, {"class_name": "Conv2D", "config": {"name": "conv2d_297", "trainable": false, "dtype": "float32", "filters": 64, "kernel_size": [1, 1], "strides": [1, 1], "padding": "same", "data_format": "channels_last", "dilation_rate": [1, 1], "groups": 1, "activation": "linear", "use_bias": false, "kernel_initializer": {"class_name": "GlorotUniform", "config": {"seed": null}}, "bias_initializer": {"class_name": "Zeros", "config": {}}, "kernel_regularizer": null, "bias_regularizer": null, "activity_regularizer": null, "kernel_constraint": null, "bias_constraint": null}, "name": "conv2d_297", "inbound_nodes": [[["mixed0", 0, 0, {}]]]}, {"class_name": "BatchNormalization", "config": {"name": "batch_normalization_297", "trainable": false, "dtype": "float32", "axis": [3], "momentum": 0.99, "epsilon": 0.001, "center": true, "scale": false, "beta_initializer": {"class_name": "Zeros", "config": {}}, "gamma_initializer": {"class_name": "Ones", "config": {}}, "moving_mean_initializer": {"class_name": "Zeros", "config": {}}, "moving_variance_initializer": {"class_name": "Ones", "config": {}}, "beta_regularizer": null, "gamma_regularizer": null, "beta_constraint": null, "gamma_constraint": null}, "name": "batch_normalization_297", "inbound_nodes": [[["conv2d_297", 0, 0, {}]]]}, {"class_name": "Activation", "config": {"name": "activation_297", "trainable": false, "dtype": "float32", "activation": "relu"}, "name": "activation_297", "inbound_nodes": [[["batch_normalization_297", 0, 0, {}]]]}, {"class_name": "Conv2D", "config": {"name": "conv2d_295", "trainable": false, "dtype": "float32", "filters": 48, "kernel_size": [1, 1], "strides": [1, 1], "padding": "same", "data_format": "channels_last", "dilation_rate": [1, 1], "groups": 1, "activation": "linear", "use_bias": false, "kernel_initializer": {"class_name": "GlorotUniform", "config": {"seed": null}}, "bias_initializer": {"class_name": "Zeros", "config": {}}, "kernel_regularizer": null, "bias_regularizer": null, "activity_regularizer": null, "kernel_constraint": null, "bias_constraint": null}, "name": "conv2d_295", "inbound_nodes": [[["mixed0", 0, 0, {}]]]}, {"class_name": "Conv2D", "config": {"name": "conv2d_298", "trainable": false, "dtype": "float32", "filters": 96, "kernel_size": [3, 3], "strides": [1, 1], "padding": "same", "data_format": "channels_last", "dilation_rate": [1, 1], "groups": 1, "activation": "linear", "use_bias": false, "kernel_initializer": {"class_name": "GlorotUniform", "config": {"seed": null}}, "bias_initializer": {"class_name": "Zeros", "config": {}}, "kernel_regularizer": null, "bias_regularizer": null, "activity_regularizer": null, "kernel_constraint": null, "bias_constraint": null}, "name": "conv2d_298", "inbound_nodes": [[["activation_297", 0, 0, {}]]]}, {"class_name": "BatchNormalization", "config": {"name": "batch_normalization_295", "trainable": false, "dtype": "float32", "axis": [3], "momentum": 0.99, "epsilon": 0.001, "center": true, "scale": false, "beta_initializer": {"class_name": "Zeros", "config": {}}, "gamma_initializer": {"class_name": "Ones", "config": {}}, "moving_mean_initializer": {"class_name": "Zeros", "config": {}}, "moving_variance_initializer": {"class_name": "Ones", "config": {}}, "beta_regularizer": null, "gamma_regularizer": null, "beta_constraint": null, "gamma_constraint": null}, "name": "batch_normalization_295", "inbound_nodes": [[["conv2d_295", 0, 0, {}]]]}, {"class_name": "BatchNormalization", "config": {"name": "batch_normalization_298", "trainable": false, "dtype": "float32", "axis": [3], "momentum": 0.99, "epsilon": 0.001, "center": true, "scale": false, "beta_initializer": {"class_name": "Zeros", "config": {}}, "gamma_initializer": {"class_name": "Ones", "config": {}}, "moving_mean_initializer": {"class_name": "Zeros", "config": {}}, "moving_variance_initializer": {"class_name": "Ones", "config": {}}, "beta_regularizer": null, "gamma_regularizer": null, "beta_constraint": null, "gamma_constraint": null}, "name": "batch_normalization_298", "inbound_nodes": [[["conv2d_298", 0, 0, {}]]]}, {"class_name": "Activation", "config": {"name": "activation_295", "trainable": false, "dtype": "float32", "activation": "relu"}, "name": "activation_295", "inbound_nodes": [[["batch_normalization_295", 0, 0, {}]]]}, {"class_name": "Activation", "config": {"name": "activation_298", "trainable": false, "dtype": "float32", "activation": "relu"}, "name": "activation_298", "inbound_nodes": [[["batch_normalization_298", 0, 0, {}]]]}, {"class_name": "AveragePooling2D", "config": {"name": "average_pooling2d_28", "trainable": false, "dtype": "float32", "pool_size": [3, 3], "padding": "same", "strides": [1, 1], "data_format": "channels_last"}, "name": "average_pooling2d_28", "inbound_nodes": [[["mixed0", 0, 0, {}]]]}, {"class_name": "Conv2D", "config": {"name": "conv2d_294", "trainable": false, "dtype": "float32", "filters": 64, "kernel_size": [1, 1], "strides": [1, 1], "padding": "same", "data_format": "channels_last", "dilation_rate": [1, 1], "groups": 1, "activation": "linear", "use_bias": false, "kernel_initializer": {"class_name": "GlorotUniform", "config": {"seed": null}}, "bias_initializer": {"class_name": "Zeros", "config": {}}, "kernel_regularizer": null, "bias_regularizer": null, "activity_regularizer": null, "kernel_constraint": null, "bias_constraint": null}, "name": "conv2d_294", "inbound_nodes": [[["mixed0", 0, 0, {}]]]}, {"class_name": "Conv2D", "config": {"name": "conv2d_296", "trainable": false, "dtype": "float32", "filters": 64, "kernel_size": [5, 5], "strides": [1, 1], "padding": "same", "data_format": "channels_last", "dilation_rate": [1, 1], "groups": 1, "activation": "linear", "use_bias": false, "kernel_initializer": {"class_name": "GlorotUniform", "config": {"seed": null}}, "bias_initializer": {"class_name": "Zeros", "config": {}}, "kernel_regularizer": null, "bias_regularizer": null, "activity_regularizer": null, "kernel_constraint": null, "bias_constraint": null}, "name": "conv2d_296", "inbound_nodes": [[["activation_295", 0, 0, {}]]]}, {"class_name": "Conv2D", "config": {"name": "conv2d_299", "trainable": false, "dtype": "float32", "filters": 96, "kernel_size": [3, 3], "strides": [1, 1], "padding": "same", "data_format": "channels_last", "dilation_rate": [1, 1], "groups": 1, "activation": "linear", "use_bias": false, "kernel_initializer": {"class_name": "GlorotUniform", "config": {"seed": null}}, "bias_initializer": {"class_name": "Zeros", "config": {}}, "kernel_regularizer": null, "bias_regularizer": null, "activity_regularizer": null, "kernel_constraint": null, "bias_constraint": null}, "name": "conv2d_299", "inbound_nodes": [[["activation_298", 0, 0, {}]]]}, {"class_name": "Conv2D", "config": {"name": "conv2d_300", "trainable": false, "dtype": "float32", "filters": 64, "kernel_size": [1, 1], "strides": [1, 1], "padding": "same", "data_format": "channels_last", "dilation_rate": [1, 1], "groups": 1, "activation": "linear", "use_bias": false, "kernel_initializer": {"class_name": "GlorotUniform", "config": {"seed": null}}, "bias_initializer": {"class_name": "Zeros", "config": {}}, "kernel_regularizer": null, "bias_regularizer": null, "activity_regularizer": null, "kernel_constraint": null, "bias_constraint": null}, "name": "conv2d_300", "inbound_nodes": [[["average_pooling2d_28", 0, 0, {}]]]}, {"class_name": "BatchNormalization", "config": {"name": "batch_normalization_294", "trainable": false, "dtype": "float32", "axis": [3], "momentum": 0.99, "epsilon": 0.001, "center": true, "scale": false, "beta_initializer": {"class_name": "Zeros", "config": {}}, "gamma_initializer": {"class_name": "Ones", "config": {}}, "moving_mean_initializer": {"class_name": "Zeros", "config": {}}, "moving_variance_initializer": {"class_name": "Ones", "config": {}}, "beta_regularizer": null, "gamma_regularizer": null, "beta_constraint": null, "gamma_constraint": null}, "name": "batch_normalization_294", "inbound_nodes": [[["conv2d_294", 0, 0, {}]]]}, {"class_name": "BatchNormalization", "config": {"name": "batch_normalization_296", "trainable": false, "dtype": "float32", "axis": [3], "momentum": 0.99, "epsilon": 0.001, "center": true, "scale": false, "beta_initializer": {"class_name": "Zeros", "config": {}}, "gamma_initializer": {"class_name": "Ones", "config": {}}, "moving_mean_initializer": {"class_name": "Zeros", "config": {}}, "moving_variance_initializer": {"class_name": "Ones", "config": {}}, "beta_regularizer": null, "gamma_regularizer": null, "beta_constraint": null, "gamma_constraint": null}, "name": "batch_normalization_296", "inbound_nodes": [[["conv2d_296", 0, 0, {}]]]}, {"class_name": "BatchNormalization", "config": {"name": "batch_normalization_299", "trainable": false, "dtype": "float32", "axis": [3], "momentum": 0.99, "epsilon": 0.001, "center": true, "scale": false, "beta_initializer": {"class_name": "Zeros", "config": {}}, "gamma_initializer": {"class_name": "Ones", "config": {}}, "moving_mean_initializer": {"class_name": "Zeros", "config": {}}, "moving_variance_initializer": {"class_name": "Ones", "config": {}}, "beta_regularizer": null, "gamma_regularizer": null, "beta_constraint": null, "gamma_constraint": null}, "name": "batch_normalization_299", "inbound_nodes": [[["conv2d_299", 0, 0, {}]]]}, {"class_name": "BatchNormalization", "config": {"name": "batch_normalization_300", "trainable": false, "dtype": "float32", "axis": [3], "momentum": 0.99, "epsilon": 0.001, "center": true, "scale": false, "beta_initializer": {"class_name": "Zeros", "config": {}}, "gamma_initializer": {"class_name": "Ones", "config": {}}, "moving_mean_initializer": {"class_name": "Zeros", "config": {}}, "moving_variance_initializer": {"class_name": "Ones", "config": {}}, "beta_regularizer": null, "gamma_regularizer": null, "beta_constraint": null, "gamma_constraint": null}, "name": "batch_normalization_300", "inbound_nodes": [[["conv2d_300", 0, 0, {}]]]}, {"class_name": "Activation", "config": {"name": "activation_294", "trainable": false, "dtype": "float32", "activation": "relu"}, "name": "activation_294", "inbound_nodes": [[["batch_normalization_294", 0, 0, {}]]]}, {"class_name": "Activation", "config": {"name": "activation_296", "trainable": false, "dtype": "float32", "activation": "relu"}, "name": "activation_296", "inbound_nodes": [[["batch_normalization_296", 0, 0, {}]]]}, {"class_name": "Activation", "config": {"name": "activation_299", "trainable": false, "dtype": "float32", "activation": "relu"}, "name": "activation_299", "inbound_nodes": [[["batch_normalization_299", 0, 0, {}]]]}, {"class_name": "Activation", "config": {"name": "activation_300", "trainable": false, "dtype": "float32", "activation": "relu"}, "name": "activation_300", "inbound_nodes": [[["batch_normalization_300", 0, 0, {}]]]}, {"class_name": "Concatenate", "config": {"name": "mixed1", "trainable": false, "dtype": "float32", "axis": 3}, "name": "mixed1", "inbound_nodes": [[["activation_294", 0, 0, {}], ["activation_296", 0, 0, {}], ["activation_299", 0, 0, {}], ["activation_300", 0, 0, {}]]]}, {"class_name": "Conv2D", "config": {"name": "conv2d_304", "trainable": false, "dtype": "float32", "filters": 64, "kernel_size": [1, 1], "strides": [1, 1], "padding": "same", "data_format": "channels_last", "dilation_rate": [1, 1], "groups": 1, "activation": "linear", "use_bias": false, "kernel_initializer": {"class_name": "GlorotUniform", "config": {"seed": null}}, "bias_initializer": {"class_name": "Zeros", "config": {}}, "kernel_regularizer": null, "bias_regularizer": null, "activity_regularizer": null, "kernel_constraint": null, "bias_constraint": null}, "name": "conv2d_304", "inbound_nodes": [[["mixed1", 0, 0, {}]]]}, {"class_name": "BatchNormalization", "config": {"name": "batch_normalization_304", "trainable": false, "dtype": "float32", "axis": [3], "momentum": 0.99, "epsilon": 0.001, "center": true, "scale": false, "beta_initializer": {"class_name": "Zeros", "config": {}}, "gamma_initializer": {"class_name": "Ones", "config": {}}, "moving_mean_initializer": {"class_name": "Zeros", "config": {}}, "moving_variance_initializer": {"class_name": "Ones", "config": {}}, "beta_regularizer": null, "gamma_regularizer": null, "beta_constraint": null, "gamma_constraint": null}, "name": "batch_normalization_304", "inbound_nodes": [[["conv2d_304", 0, 0, {}]]]}, {"class_name": "Activation", "config": {"name": "activation_304", "trainable": false, "dtype": "float32", "activation": "relu"}, "name": "activation_304", "inbound_nodes": [[["batch_normalization_304", 0, 0, {}]]]}, {"class_name": "Conv2D", "config": {"name": "conv2d_302", "trainable": false, "dtype": "float32", "filters": 48, "kernel_size": [1, 1], "strides": [1, 1], "padding": "same", "data_format": "channels_last", "dilation_rate": [1, 1], "groups": 1, "activation": "linear", "use_bias": false, "kernel_initializer": {"class_name": "GlorotUniform", "config": {"seed": null}}, "bias_initializer": {"class_name": "Zeros", "config": {}}, "kernel_regularizer": null, "bias_regularizer": null, "activity_regularizer": null, "kernel_constraint": null, "bias_constraint": null}, "name": "conv2d_302", "inbound_nodes": [[["mixed1", 0, 0, {}]]]}, {"class_name": "Conv2D", "config": {"name": "conv2d_305", "trainable": false, "dtype": "float32", "filters": 96, "kernel_size": [3, 3], "strides": [1, 1], "padding": "same", "data_format": "channels_last", "dilation_rate": [1, 1], "groups": 1, "activation": "linear", "use_bias": false, "kernel_initializer": {"class_name": "GlorotUniform", "config": {"seed": null}}, "bias_initializer": {"class_name": "Zeros", "config": {}}, "kernel_regularizer": null, "bias_regularizer": null, "activity_regularizer": null, "kernel_constraint": null, "bias_constraint": null}, "name": "conv2d_305", "inbound_nodes": [[["activation_304", 0, 0, {}]]]}, {"class_name": "BatchNormalization", "config": {"name": "batch_normalization_302", "trainable": false, "dtype": "float32", "axis": [3], "momentum": 0.99, "epsilon": 0.001, "center": true, "scale": false, "beta_initializer": {"class_name": "Zeros", "config": {}}, "gamma_initializer": {"class_name": "Ones", "config": {}}, "moving_mean_initializer": {"class_name": "Zeros", "config": {}}, "moving_variance_initializer": {"class_name": "Ones", "config": {}}, "beta_regularizer": null, "gamma_regularizer": null, "beta_constraint": null, "gamma_constraint": null}, "name": "batch_normalization_302", "inbound_nodes": [[["conv2d_302", 0, 0, {}]]]}, {"class_name": "BatchNormalization", "config": {"name": "batch_normalization_305", "trainable": false, "dtype": "float32", "axis": [3], "momentum": 0.99, "epsilon": 0.001, "center": true, "scale": false, "beta_initializer": {"class_name": "Zeros", "config": {}}, "gamma_initializer": {"class_name": "Ones", "config": {}}, "moving_mean_initializer": {"class_name": "Zeros", "config": {}}, "moving_variance_initializer": {"class_name": "Ones", "config": {}}, "beta_regularizer": null, "gamma_regularizer": null, "beta_constraint": null, "gamma_constraint": null}, "name": "batch_normalization_305", "inbound_nodes": [[["conv2d_305", 0, 0, {}]]]}, {"class_name": "Activation", "config": {"name": "activation_302", "trainable": false, "dtype": "float32", "activation": "relu"}, "name": "activation_302", "inbound_nodes": [[["batch_normalization_302", 0, 0, {}]]]}, {"class_name": "Activation", "config": {"name": "activation_305", "trainable": false, "dtype": "float32", "activation": "relu"}, "name": "activation_305", "inbound_nodes": [[["batch_normalization_305", 0, 0, {}]]]}, {"class_name": "AveragePooling2D", "config": {"name": "average_pooling2d_29", "trainable": false, "dtype": "float32", "pool_size": [3, 3], "padding": "same", "strides": [1, 1], "data_format": "channels_last"}, "name": "average_pooling2d_29", "inbound_nodes": [[["mixed1", 0, 0, {}]]]}, {"class_name": "Conv2D", "config": {"name": "conv2d_301", "trainable": false, "dtype": "float32", "filters": 64, "kernel_size": [1, 1], "strides": [1, 1], "padding": "same", "data_format": "channels_last", "dilation_rate": [1, 1], "groups": 1, "activation": "linear", "use_bias": false, "kernel_initializer": {"class_name": "GlorotUniform", "config": {"seed": null}}, "bias_initializer": {"class_name": "Zeros", "config": {}}, "kernel_regularizer": null, "bias_regularizer": null, "activity_regularizer": null, "kernel_constraint": null, "bias_constraint": null}, "name": "conv2d_301", "inbound_nodes": [[["mixed1", 0, 0, {}]]]}, {"class_name": "Conv2D", "config": {"name": "conv2d_303", "trainable": false, "dtype": "float32", "filters": 64, "kernel_size": [5, 5], "strides": [1, 1], "padding": "same", "data_format": "channels_last", "dilation_rate": [1, 1], "groups": 1, "activation": "linear", "use_bias": false, "kernel_initializer": {"class_name": "GlorotUniform", "config": {"seed": null}}, "bias_initializer": {"class_name": "Zeros", "config": {}}, "kernel_regularizer": null, "bias_regularizer": null, "activity_regularizer": null, "kernel_constraint": null, "bias_constraint": null}, "name": "conv2d_303", "inbound_nodes": [[["activation_302", 0, 0, {}]]]}, {"class_name": "Conv2D", "config": {"name": "conv2d_306", "trainable": false, "dtype": "float32", "filters": 96, "kernel_size": [3, 3], "strides": [1, 1], "padding": "same", "data_format": "channels_last", "dilation_rate": [1, 1], "groups": 1, "activation": "linear", "use_bias": false, "kernel_initializer": {"class_name": "GlorotUniform", "config": {"seed": null}}, "bias_initializer": {"class_name": "Zeros", "config": {}}, "kernel_regularizer": null, "bias_regularizer": null, "activity_regularizer": null, "kernel_constraint": null, "bias_constraint": null}, "name": "conv2d_306", "inbound_nodes": [[["activation_305", 0, 0, {}]]]}, {"class_name": "Conv2D", "config": {"name": "conv2d_307", "trainable": false, "dtype": "float32", "filters": 64, "kernel_size": [1, 1], "strides": [1, 1], "padding": "same", "data_format": "channels_last", "dilation_rate": [1, 1], "groups": 1, "activation": "linear", "use_bias": false, "kernel_initializer": {"class_name": "GlorotUniform", "config": {"seed": null}}, "bias_initializer": {"class_name": "Zeros", "config": {}}, "kernel_regularizer": null, "bias_regularizer": null, "activity_regularizer": null, "kernel_constraint": null, "bias_constraint": null}, "name": "conv2d_307", "inbound_nodes": [[["average_pooling2d_29", 0, 0, {}]]]}, {"class_name": "BatchNormalization", "config": {"name": "batch_normalization_301", "trainable": false, "dtype": "float32", "axis": [3], "momentum": 0.99, "epsilon": 0.001, "center": true, "scale": false, "beta_initializer": {"class_name": "Zeros", "config": {}}, "gamma_initializer": {"class_name": "Ones", "config": {}}, "moving_mean_initializer": {"class_name": "Zeros", "config": {}}, "moving_variance_initializer": {"class_name": "Ones", "config": {}}, "beta_regularizer": null, "gamma_regularizer": null, "beta_constraint": null, "gamma_constraint": null}, "name": "batch_normalization_301", "inbound_nodes": [[["conv2d_301", 0, 0, {}]]]}, {"class_name": "BatchNormalization", "config": {"name": "batch_normalization_303", "trainable": false, "dtype": "float32", "axis": [3], "momentum": 0.99, "epsilon": 0.001, "center": true, "scale": false, "beta_initializer": {"class_name": "Zeros", "config": {}}, "gamma_initializer": {"class_name": "Ones", "config": {}}, "moving_mean_initializer": {"class_name": "Zeros", "config": {}}, "moving_variance_initializer": {"class_name": "Ones", "config": {}}, "beta_regularizer": null, "gamma_regularizer": null, "beta_constraint": null, "gamma_constraint": null}, "name": "batch_normalization_303", "inbound_nodes": [[["conv2d_303", 0, 0, {}]]]}, {"class_name": "BatchNormalization", "config": {"name": "batch_normalization_306", "trainable": false, "dtype": "float32", "axis": [3], "momentum": 0.99, "epsilon": 0.001, "center": true, "scale": false, "beta_initializer": {"class_name": "Zeros", "config": {}}, "gamma_initializer": {"class_name": "Ones", "config": {}}, "moving_mean_initializer": {"class_name": "Zeros", "config": {}}, "moving_variance_initializer": {"class_name": "Ones", "config": {}}, "beta_regularizer": null, "gamma_regularizer": null, "beta_constraint": null, "gamma_constraint": null}, "name": "batch_normalization_306", "inbound_nodes": [[["conv2d_306", 0, 0, {}]]]}, {"class_name": "BatchNormalization", "config": {"name": "batch_normalization_307", "trainable": false, "dtype": "float32", "axis": [3], "momentum": 0.99, "epsilon": 0.001, "center": true, "scale": false, "beta_initializer": {"class_name": "Zeros", "config": {}}, "gamma_initializer": {"class_name": "Ones", "config": {}}, "moving_mean_initializer": {"class_name": "Zeros", "config": {}}, "moving_variance_initializer": {"class_name": "Ones", "config": {}}, "beta_regularizer": null, "gamma_regularizer": null, "beta_constraint": null, "gamma_constraint": null}, "name": "batch_normalization_307", "inbound_nodes": [[["conv2d_307", 0, 0, {}]]]}, {"class_name": "Activation", "config": {"name": "activation_301", "trainable": false, "dtype": "float32", "activation": "relu"}, "name": "activation_301", "inbound_nodes": [[["batch_normalization_301", 0, 0, {}]]]}, {"class_name": "Activation", "config": {"name": "activation_303", "trainable": false, "dtype": "float32", "activation": "relu"}, "name": "activation_303", "inbound_nodes": [[["batch_normalization_303", 0, 0, {}]]]}, {"class_name": "Activation", "config": {"name": "activation_306", "trainable": false, "dtype": "float32", "activation": "relu"}, "name": "activation_306", "inbound_nodes": [[["batch_normalization_306", 0, 0, {}]]]}, {"class_name": "Activation", "config": {"name": "activation_307", "trainable": false, "dtype": "float32", "activation": "relu"}, "name": "activation_307", "inbound_nodes": [[["batch_normalization_307", 0, 0, {}]]]}, {"class_name": "Concatenate", "config": {"name": "mixed2", "trainable": false, "dtype": "float32", "axis": 3}, "name": "mixed2", "inbound_nodes": [[["activation_301", 0, 0, {}], ["activation_303", 0, 0, {}], ["activation_306", 0, 0, {}], ["activation_307", 0, 0, {}]]]}, {"class_name": "Conv2D", "config": {"name": "conv2d_309", "trainable": false, "dtype": "float32", "filters": 64, "kernel_size": [1, 1], "strides": [1, 1], "padding": "same", "data_format": "channels_last", "dilation_rate": [1, 1], "groups": 1, "activation": "linear", "use_bias": false, "kernel_initializer": {"class_name": "GlorotUniform", "config": {"seed": null}}, "bias_initializer": {"class_name": "Zeros", "config": {}}, "kernel_regularizer": null, "bias_regularizer": null, "activity_regularizer": null, "kernel_constraint": null, "bias_constraint": null}, "name": "conv2d_309", "inbound_nodes": [[["mixed2", 0, 0, {}]]]}, {"class_name": "BatchNormalization", "config": {"name": "batch_normalization_309", "trainable": false, "dtype": "float32", "axis": [3], "momentum": 0.99, "epsilon": 0.001, "center": true, "scale": false, "beta_initializer": {"class_name": "Zeros", "config": {}}, "gamma_initializer": {"class_name": "Ones", "config": {}}, "moving_mean_initializer": {"class_name": "Zeros", "config": {}}, "moving_variance_initializer": {"class_name": "Ones", "config": {}}, "beta_regularizer": null, "gamma_regularizer": null, "beta_constraint": null, "gamma_constraint": null}, "name": "batch_normalization_309", "inbound_nodes": [[["conv2d_309", 0, 0, {}]]]}, {"class_name": "Activation", "config": {"name": "activation_309", "trainable": false, "dtype": "float32", "activation": "relu"}, "name": "activation_309", "inbound_nodes": [[["batch_normalization_309", 0, 0, {}]]]}, {"class_name": "Conv2D", "config": {"name": "conv2d_310", "trainable": false, "dtype": "float32", "filters": 96, "kernel_size": [3, 3], "strides": [1, 1], "padding": "same", "data_format": "channels_last", "dilation_rate": [1, 1], "groups": 1, "activation": "linear", "use_bias": false, "kernel_initializer": {"class_name": "GlorotUniform", "config": {"seed": null}}, "bias_initializer": {"class_name": "Zeros", "config": {}}, "kernel_regularizer": null, "bias_regularizer": null, "activity_regularizer": null, "kernel_constraint": null, "bias_constraint": null}, "name": "conv2d_310", "inbound_nodes": [[["activation_309", 0, 0, {}]]]}, {"class_name": "BatchNormalization", "config": {"name": "batch_normalization_310", "trainable": false, "dtype": "float32", "axis": [3], "momentum": 0.99, "epsilon": 0.001, "center": true, "scale": false, "beta_initializer": {"class_name": "Zeros", "config": {}}, "gamma_initializer": {"class_name": "Ones", "config": {}}, "moving_mean_initializer": {"class_name": "Zeros", "config": {}}, "moving_variance_initializer": {"class_name": "Ones", "config": {}}, "beta_regularizer": null, "gamma_regularizer": null, "beta_constraint": null, "gamma_constraint": null}, "name": "batch_normalization_310", "inbound_nodes": [[["conv2d_310", 0, 0, {}]]]}, {"class_name": "Activation", "config": {"name": "activation_310", "trainable": false, "dtype": "float32", "activation": "relu"}, "name": "activation_310", "inbound_nodes": [[["batch_normalization_310", 0, 0, {}]]]}, {"class_name": "Conv2D", "config": {"name": "conv2d_308", "trainable": false, "dtype": "float32", "filters": 384, "kernel_size": [3, 3], "strides": [2, 2], "padding": "valid", "data_format": "channels_last", "dilation_rate": [1, 1], "groups": 1, "activation": "linear", "use_bias": false, "kernel_initializer": {"class_name": "GlorotUniform", "config": {"seed": null}}, "bias_initializer": {"class_name": "Zeros", "config": {}}, "kernel_regularizer": null, "bias_regularizer": null, "activity_regularizer": null, "kernel_constraint": null, "bias_constraint": null}, "name": "conv2d_308", "inbound_nodes": [[["mixed2", 0, 0, {}]]]}, {"class_name": "Conv2D", "config": {"name": "conv2d_311", "trainable": false, "dtype": "float32", "filters": 96, "kernel_size": [3, 3], "strides": [2, 2], "padding": "valid", "data_format": "channels_last", "dilation_rate": [1, 1], "groups": 1, "activation": "linear", "use_bias": false, "kernel_initializer": {"class_name": "GlorotUniform", "config": {"seed": null}}, "bias_initializer": {"class_name": "Zeros", "config": {}}, "kernel_regularizer": null, "bias_regularizer": null, "activity_regularizer": null, "kernel_constraint": null, "bias_constraint": null}, "name": "conv2d_311", "inbound_nodes": [[["activation_310", 0, 0, {}]]]}, {"class_name": "BatchNormalization", "config": {"name": "batch_normalization_308", "trainable": false, "dtype": "float32", "axis": [3], "momentum": 0.99, "epsilon": 0.001, "center": true, "scale": false, "beta_initializer": {"class_name": "Zeros", "config": {}}, "gamma_initializer": {"class_name": "Ones", "config": {}}, "moving_mean_initializer": {"class_name": "Zeros", "config": {}}, "moving_variance_initializer": {"class_name": "Ones", "config": {}}, "beta_regularizer": null, "gamma_regularizer": null, "beta_constraint": null, "gamma_constraint": null}, "name": "batch_normalization_308", "inbound_nodes": [[["conv2d_308", 0, 0, {}]]]}, {"class_name": "BatchNormalization", "config": {"name": "batch_normalization_311", "trainable": false, "dtype": "float32", "axis": [3], "momentum": 0.99, "epsilon": 0.001, "center": true, "scale": false, "beta_initializer": {"class_name": "Zeros", "config": {}}, "gamma_initializer": {"class_name": "Ones", "config": {}}, "moving_mean_initializer": {"class_name": "Zeros", "config": {}}, "moving_variance_initializer": {"class_name": "Ones", "config": {}}, "beta_regularizer": null, "gamma_regularizer": null, "beta_constraint": null, "gamma_constraint": null}, "name": "batch_normalization_311", "inbound_nodes": [[["conv2d_311", 0, 0, {}]]]}, {"class_name": "Activation", "config": {"name": "activation_308", "trainable": false, "dtype": "float32", "activation": "relu"}, "name": "activation_308", "inbound_nodes": [[["batch_normalization_308", 0, 0, {}]]]}, {"class_name": "Activation", "config": {"name": "activation_311", "trainable": false, "dtype": "float32", "activation": "relu"}, "name": "activation_311", "inbound_nodes": [[["batch_normalization_311", 0, 0, {}]]]}, {"class_name": "MaxPooling2D", "config": {"name": "max_pooling2d_14", "trainable": false, "dtype": "float32", "pool_size": [3, 3], "padding": "valid", "strides": [2, 2], "data_format": "channels_last"}, "name": "max_pooling2d_14", "inbound_nodes": [[["mixed2", 0, 0, {}]]]}, {"class_name": "Concatenate", "config": {"name": "mixed3", "trainable": false, "dtype": "float32", "axis": 3}, "name": "mixed3", "inbound_nodes": [[["activation_308", 0, 0, {}], ["activation_311", 0, 0, {}], ["max_pooling2d_14", 0, 0, {}]]]}, {"class_name": "Conv2D", "config": {"name": "conv2d_316", "trainable": false, "dtype": "float32", "filters": 128, "kernel_size": [1, 1], "strides": [1, 1], "padding": "same", "data_format": "channels_last", "dilation_rate": [1, 1], "groups": 1, "activation": "linear", "use_bias": false, "kernel_initializer": {"class_name": "GlorotUniform", "config": {"seed": null}}, "bias_initializer": {"class_name": "Zeros", "config": {}}, "kernel_regularizer": null, "bias_regularizer": null, "activity_regularizer": null, "kernel_constraint": null, "bias_constraint": null}, "name": "conv2d_316", "inbound_nodes": [[["mixed3", 0, 0, {}]]]}, {"class_name": "BatchNormalization", "config": {"name": "batch_normalization_316", "trainable": false, "dtype": "float32", "axis": [3], "momentum": 0.99, "epsilon": 0.001, "center": true, "scale": false, "beta_initializer": {"class_name": "Zeros", "config": {}}, "gamma_initializer": {"class_name": "Ones", "config": {}}, "moving_mean_initializer": {"class_name": "Zeros", "config": {}}, "moving_variance_initializer": {"class_name": "Ones", "config": {}}, "beta_regularizer": null, "gamma_regularizer": null, "beta_constraint": null, "gamma_constraint": null}, "name": "batch_normalization_316", "inbound_nodes": [[["conv2d_316", 0, 0, {}]]]}, {"class_name": "Activation", "config": {"name": "activation_316", "trainable": false, "dtype": "float32", "activation": "relu"}, "name": "activation_316", "inbound_nodes": [[["batch_normalization_316", 0, 0, {}]]]}, {"class_name": "Conv2D", "config": {"name": "conv2d_317", "trainable": false, "dtype": "float32", "filters": 128, "kernel_size": [7, 1], "strides": [1, 1], "padding": "same", "data_format": "channels_last", "dilation_rate": [1, 1], "groups": 1, "activation": "linear", "use_bias": false, "kernel_initializer": {"class_name": "GlorotUniform", "config": {"seed": null}}, "bias_initializer": {"class_name": "Zeros", "config": {}}, "kernel_regularizer": null, "bias_regularizer": null, "activity_regularizer": null, "kernel_constraint": null, "bias_constraint": null}, "name": "conv2d_317", "inbound_nodes": [[["activation_316", 0, 0, {}]]]}, {"class_name": "BatchNormalization", "config": {"name": "batch_normalization_317", "trainable": false, "dtype": "float32", "axis": [3], "momentum": 0.99, "epsilon": 0.001, "center": true, "scale": false, "beta_initializer": {"class_name": "Zeros", "config": {}}, "gamma_initializer": {"class_name": "Ones", "config": {}}, "moving_mean_initializer": {"class_name": "Zeros", "config": {}}, "moving_variance_initializer": {"class_name": "Ones", "config": {}}, "beta_regularizer": null, "gamma_regularizer": null, "beta_constraint": null, "gamma_constraint": null}, "name": "batch_normalization_317", "inbound_nodes": [[["conv2d_317", 0, 0, {}]]]}, {"class_name": "Activation", "config": {"name": "activation_317", "trainable": false, "dtype": "float32", "activation": "relu"}, "name": "activation_317", "inbound_nodes": [[["batch_normalization_317", 0, 0, {}]]]}, {"class_name": "Conv2D", "config": {"name": "conv2d_313", "trainable": false, "dtype": "float32", "filters": 128, "kernel_size": [1, 1], "strides": [1, 1], "padding": "same", "data_format": "channels_last", "dilation_rate": [1, 1], "groups": 1, "activation": "linear", "use_bias": false, "kernel_initializer": {"class_name": "GlorotUniform", "config": {"seed": null}}, "bias_initializer": {"class_name": "Zeros", "config": {}}, "kernel_regularizer": null, "bias_regularizer": null, "activity_regularizer": null, "kernel_constraint": null, "bias_constraint": null}, "name": "conv2d_313", "inbound_nodes": [[["mixed3", 0, 0, {}]]]}, {"class_name": "Conv2D", "config": {"name": "conv2d_318", "trainable": false, "dtype": "float32", "filters": 128, "kernel_size": [1, 7], "strides": [1, 1], "padding": "same", "data_format": "channels_last", "dilation_rate": [1, 1], "groups": 1, "activation": "linear", "use_bias": false, "kernel_initializer": {"class_name": "GlorotUniform", "config": {"seed": null}}, "bias_initializer": {"class_name": "Zeros", "config": {}}, "kernel_regularizer": null, "bias_regularizer": null, "activity_regularizer": null, "kernel_constraint": null, "bias_constraint": null}, "name": "conv2d_318", "inbound_nodes": [[["activation_317", 0, 0, {}]]]}, {"class_name": "BatchNormalization", "config": {"name": "batch_normalization_313", "trainable": false, "dtype": "float32", "axis": [3], "momentum": 0.99, "epsilon": 0.001, "center": true, "scale": false, "beta_initializer": {"class_name": "Zeros", "config": {}}, "gamma_initializer": {"class_name": "Ones", "config": {}}, "moving_mean_initializer": {"class_name": "Zeros", "config": {}}, "moving_variance_initializer": {"class_name": "Ones", "config": {}}, "beta_regularizer": null, "gamma_regularizer": null, "beta_constraint": null, "gamma_constraint": null}, "name": "batch_normalization_313", "inbound_nodes": [[["conv2d_313", 0, 0, {}]]]}, {"class_name": "BatchNormalization", "config": {"name": "batch_normalization_318", "trainable": false, "dtype": "float32", "axis": [3], "momentum": 0.99, "epsilon": 0.001, "center": true, "scale": false, "beta_initializer": {"class_name": "Zeros", "config": {}}, "gamma_initializer": {"class_name": "Ones", "config": {}}, "moving_mean_initializer": {"class_name": "Zeros", "config": {}}, "moving_variance_initializer": {"class_name": "Ones", "config": {}}, "beta_regularizer": null, "gamma_regularizer": null, "beta_constraint": null, "gamma_constraint": null}, "name": "batch_normalization_318", "inbound_nodes": [[["conv2d_318", 0, 0, {}]]]}, {"class_name": "Activation", "config": {"name": "activation_313", "trainable": false, "dtype": "float32", "activation": "relu"}, "name": "activation_313", "inbound_nodes": [[["batch_normalization_313", 0, 0, {}]]]}, {"class_name": "Activation", "config": {"name": "activation_318", "trainable": false, "dtype": "float32", "activation": "relu"}, "name": "activation_318", "inbound_nodes": [[["batch_normalization_318", 0, 0, {}]]]}, {"class_name": "Conv2D", "config": {"name": "conv2d_314", "trainable": false, "dtype": "float32", "filters": 128, "kernel_size": [1, 7], "strides": [1, 1], "padding": "same", "data_format": "channels_last", "dilation_rate": [1, 1], "groups": 1, "activation": "linear", "use_bias": false, "kernel_initializer": {"class_name": "GlorotUniform", "config": {"seed": null}}, "bias_initializer": {"class_name": "Zeros", "config": {}}, "kernel_regularizer": null, "bias_regularizer": null, "activity_regularizer": null, "kernel_constraint": null, "bias_constraint": null}, "name": "conv2d_314", "inbound_nodes": [[["activation_313", 0, 0, {}]]]}, {"class_name": "Conv2D", "config": {"name": "conv2d_319", "trainable": false, "dtype": "float32", "filters": 128, "kernel_size": [7, 1], "strides": [1, 1], "padding": "same", "data_format": "channels_last", "dilation_rate": [1, 1], "groups": 1, "activation": "linear", "use_bias": false, "kernel_initializer": {"class_name": "GlorotUniform", "config": {"seed": null}}, "bias_initializer": {"class_name": "Zeros", "config": {}}, "kernel_regularizer": null, "bias_regularizer": null, "activity_regularizer": null, "kernel_constraint": null, "bias_constraint": null}, "name": "conv2d_319", "inbound_nodes": [[["activation_318", 0, 0, {}]]]}, {"class_name": "BatchNormalization", "config": {"name": "batch_normalization_314", "trainable": false, "dtype": "float32", "axis": [3], "momentum": 0.99, "epsilon": 0.001, "center": true, "scale": false, "beta_initializer": {"class_name": "Zeros", "config": {}}, "gamma_initializer": {"class_name": "Ones", "config": {}}, "moving_mean_initializer": {"class_name": "Zeros", "config": {}}, "moving_variance_initializer": {"class_name": "Ones", "config": {}}, "beta_regularizer": null, "gamma_regularizer": null, "beta_constraint": null, "gamma_constraint": null}, "name": "batch_normalization_314", "inbound_nodes": [[["conv2d_314", 0, 0, {}]]]}, {"class_name": "BatchNormalization", "config": {"name": "batch_normalization_319", "trainable": false, "dtype": "float32", "axis": [3], "momentum": 0.99, "epsilon": 0.001, "center": true, "scale": false, "beta_initializer": {"class_name": "Zeros", "config": {}}, "gamma_initializer": {"class_name": "Ones", "config": {}}, "moving_mean_initializer": {"class_name": "Zeros", "config": {}}, "moving_variance_initializer": {"class_name": "Ones", "config": {}}, "beta_regularizer": null, "gamma_regularizer": null, "beta_constraint": null, "gamma_constraint": null}, "name": "batch_normalization_319", "inbound_nodes": [[["conv2d_319", 0, 0, {}]]]}, {"class_name": "Activation", "config": {"name": "activation_314", "trainable": false, "dtype": "float32", "activation": "relu"}, "name": "activation_314", "inbound_nodes": [[["batch_normalization_314", 0, 0, {}]]]}, {"class_name": "Activation", "config": {"name": "activation_319", "trainable": false, "dtype": "float32", "activation": "relu"}, "name": "activation_319", "inbound_nodes": [[["batch_normalization_319", 0, 0, {}]]]}, {"class_name": "AveragePooling2D", "config": {"name": "average_pooling2d_30", "trainable": false, "dtype": "float32", "pool_size": [3, 3], "padding": "same", "strides": [1, 1], "data_format": "channels_last"}, "name": "average_pooling2d_30", "inbound_nodes": [[["mixed3", 0, 0, {}]]]}, {"class_name": "Conv2D", "config": {"name": "conv2d_312", "trainable": false, "dtype": "float32", "filters": 192, "kernel_size": [1, 1], "strides": [1, 1], "padding": "same", "data_format": "channels_last", "dilation_rate": [1, 1], "groups": 1, "activation": "linear", "use_bias": false, "kernel_initializer": {"class_name": "GlorotUniform", "config": {"seed": null}}, "bias_initializer": {"class_name": "Zeros", "config": {}}, "kernel_regularizer": null, "bias_regularizer": null, "activity_regularizer": null, "kernel_constraint": null, "bias_constraint": null}, "name": "conv2d_312", "inbound_nodes": [[["mixed3", 0, 0, {}]]]}, {"class_name": "Conv2D", "config": {"name": "conv2d_315", "trainable": false, "dtype": "float32", "filters": 192, "kernel_size": [7, 1], "strides": [1, 1], "padding": "same", "data_format": "channels_last", "dilation_rate": [1, 1], "groups": 1, "activation": "linear", "use_bias": false, "kernel_initializer": {"class_name": "GlorotUniform", "config": {"seed": null}}, "bias_initializer": {"class_name": "Zeros", "config": {}}, "kernel_regularizer": null, "bias_regularizer": null, "activity_regularizer": null, "kernel_constraint": null, "bias_constraint": null}, "name": "conv2d_315", "inbound_nodes": [[["activation_314", 0, 0, {}]]]}, {"class_name": "Conv2D", "config": {"name": "conv2d_320", "trainable": false, "dtype": "float32", "filters": 192, "kernel_size": [1, 7], "strides": [1, 1], "padding": "same", "data_format": "channels_last", "dilation_rate": [1, 1], "groups": 1, "activation": "linear", "use_bias": false, "kernel_initializer": {"class_name": "GlorotUniform", "config": {"seed": null}}, "bias_initializer": {"class_name": "Zeros", "config": {}}, "kernel_regularizer": null, "bias_regularizer": null, "activity_regularizer": null, "kernel_constraint": null, "bias_constraint": null}, "name": "conv2d_320", "inbound_nodes": [[["activation_319", 0, 0, {}]]]}, {"class_name": "Conv2D", "config": {"name": "conv2d_321", "trainable": false, "dtype": "float32", "filters": 192, "kernel_size": [1, 1], "strides": [1, 1], "padding": "same", "data_format": "channels_last", "dilation_rate": [1, 1], "groups": 1, "activation": "linear", "use_bias": false, "kernel_initializer": {"class_name": "GlorotUniform", "config": {"seed": null}}, "bias_initializer": {"class_name": "Zeros", "config": {}}, "kernel_regularizer": null, "bias_regularizer": null, "activity_regularizer": null, "kernel_constraint": null, "bias_constraint": null}, "name": "conv2d_321", "inbound_nodes": [[["average_pooling2d_30", 0, 0, {}]]]}, {"class_name": "BatchNormalization", "config": {"name": "batch_normalization_312", "trainable": false, "dtype": "float32", "axis": [3], "momentum": 0.99, "epsilon": 0.001, "center": true, "scale": false, "beta_initializer": {"class_name": "Zeros", "config": {}}, "gamma_initializer": {"class_name": "Ones", "config": {}}, "moving_mean_initializer": {"class_name": "Zeros", "config": {}}, "moving_variance_initializer": {"class_name": "Ones", "config": {}}, "beta_regularizer": null, "gamma_regularizer": null, "beta_constraint": null, "gamma_constraint": null}, "name": "batch_normalization_312", "inbound_nodes": [[["conv2d_312", 0, 0, {}]]]}, {"class_name": "BatchNormalization", "config": {"name": "batch_normalization_315", "trainable": false, "dtype": "float32", "axis": [3], "momentum": 0.99, "epsilon": 0.001, "center": true, "scale": false, "beta_initializer": {"class_name": "Zeros", "config": {}}, "gamma_initializer": {"class_name": "Ones", "config": {}}, "moving_mean_initializer": {"class_name": "Zeros", "config": {}}, "moving_variance_initializer": {"class_name": "Ones", "config": {}}, "beta_regularizer": null, "gamma_regularizer": null, "beta_constraint": null, "gamma_constraint": null}, "name": "batch_normalization_315", "inbound_nodes": [[["conv2d_315", 0, 0, {}]]]}, {"class_name": "BatchNormalization", "config": {"name": "batch_normalization_320", "trainable": false, "dtype": "float32", "axis": [3], "momentum": 0.99, "epsilon": 0.001, "center": true, "scale": false, "beta_initializer": {"class_name": "Zeros", "config": {}}, "gamma_initializer": {"class_name": "Ones", "config": {}}, "moving_mean_initializer": {"class_name": "Zeros", "config": {}}, "moving_variance_initializer": {"class_name": "Ones", "config": {}}, "beta_regularizer": null, "gamma_regularizer": null, "beta_constraint": null, "gamma_constraint": null}, "name": "batch_normalization_320", "inbound_nodes": [[["conv2d_320", 0, 0, {}]]]}, {"class_name": "BatchNormalization", "config": {"name": "batch_normalization_321", "trainable": false, "dtype": "float32", "axis": [3], "momentum": 0.99, "epsilon": 0.001, "center": true, "scale": false, "beta_initializer": {"class_name": "Zeros", "config": {}}, "gamma_initializer": {"class_name": "Ones", "config": {}}, "moving_mean_initializer": {"class_name": "Zeros", "config": {}}, "moving_variance_initializer": {"class_name": "Ones", "config": {}}, "beta_regularizer": null, "gamma_regularizer": null, "beta_constraint": null, "gamma_constraint": null}, "name": "batch_normalization_321", "inbound_nodes": [[["conv2d_321", 0, 0, {}]]]}, {"class_name": "Activation", "config": {"name": "activation_312", "trainable": false, "dtype": "float32", "activation": "relu"}, "name": "activation_312", "inbound_nodes": [[["batch_normalization_312", 0, 0, {}]]]}, {"class_name": "Activation", "config": {"name": "activation_315", "trainable": false, "dtype": "float32", "activation": "relu"}, "name": "activation_315", "inbound_nodes": [[["batch_normalization_315", 0, 0, {}]]]}, {"class_name": "Activation", "config": {"name": "activation_320", "trainable": false, "dtype": "float32", "activation": "relu"}, "name": "activation_320", "inbound_nodes": [[["batch_normalization_320", 0, 0, {}]]]}, {"class_name": "Activation", "config": {"name": "activation_321", "trainable": false, "dtype": "float32", "activation": "relu"}, "name": "activation_321", "inbound_nodes": [[["batch_normalization_321", 0, 0, {}]]]}, {"class_name": "Concatenate", "config": {"name": "mixed4", "trainable": false, "dtype": "float32", "axis": 3}, "name": "mixed4", "inbound_nodes": [[["activation_312", 0, 0, {}], ["activation_315", 0, 0, {}], ["activation_320", 0, 0, {}], ["activation_321", 0, 0, {}]]]}, {"class_name": "Conv2D", "config": {"name": "conv2d_326", "trainable": false, "dtype": "float32", "filters": 160, "kernel_size": [1, 1], "strides": [1, 1], "padding": "same", "data_format": "channels_last", "dilation_rate": [1, 1], "groups": 1, "activation": "linear", "use_bias": false, "kernel_initializer": {"class_name": "GlorotUniform", "config": {"seed": null}}, "bias_initializer": {"class_name": "Zeros", "config": {}}, "kernel_regularizer": null, "bias_regularizer": null, "activity_regularizer": null, "kernel_constraint": null, "bias_constraint": null}, "name": "conv2d_326", "inbound_nodes": [[["mixed4", 0, 0, {}]]]}, {"class_name": "BatchNormalization", "config": {"name": "batch_normalization_326", "trainable": false, "dtype": "float32", "axis": [3], "momentum": 0.99, "epsilon": 0.001, "center": true, "scale": false, "beta_initializer": {"class_name": "Zeros", "config": {}}, "gamma_initializer": {"class_name": "Ones", "config": {}}, "moving_mean_initializer": {"class_name": "Zeros", "config": {}}, "moving_variance_initializer": {"class_name": "Ones", "config": {}}, "beta_regularizer": null, "gamma_regularizer": null, "beta_constraint": null, "gamma_constraint": null}, "name": "batch_normalization_326", "inbound_nodes": [[["conv2d_326", 0, 0, {}]]]}, {"class_name": "Activation", "config": {"name": "activation_326", "trainable": false, "dtype": "float32", "activation": "relu"}, "name": "activation_326", "inbound_nodes": [[["batch_normalization_326", 0, 0, {}]]]}, {"class_name": "Conv2D", "config": {"name": "conv2d_327", "trainable": false, "dtype": "float32", "filters": 160, "kernel_size": [7, 1], "strides": [1, 1], "padding": "same", "data_format": "channels_last", "dilation_rate": [1, 1], "groups": 1, "activation": "linear", "use_bias": false, "kernel_initializer": {"class_name": "GlorotUniform", "config": {"seed": null}}, "bias_initializer": {"class_name": "Zeros", "config": {}}, "kernel_regularizer": null, "bias_regularizer": null, "activity_regularizer": null, "kernel_constraint": null, "bias_constraint": null}, "name": "conv2d_327", "inbound_nodes": [[["activation_326", 0, 0, {}]]]}, {"class_name": "BatchNormalization", "config": {"name": "batch_normalization_327", "trainable": false, "dtype": "float32", "axis": [3], "momentum": 0.99, "epsilon": 0.001, "center": true, "scale": false, "beta_initializer": {"class_name": "Zeros", "config": {}}, "gamma_initializer": {"class_name": "Ones", "config": {}}, "moving_mean_initializer": {"class_name": "Zeros", "config": {}}, "moving_variance_initializer": {"class_name": "Ones", "config": {}}, "beta_regularizer": null, "gamma_regularizer": null, "beta_constraint": null, "gamma_constraint": null}, "name": "batch_normalization_327", "inbound_nodes": [[["conv2d_327", 0, 0, {}]]]}, {"class_name": "Activation", "config": {"name": "activation_327", "trainable": false, "dtype": "float32", "activation": "relu"}, "name": "activation_327", "inbound_nodes": [[["batch_normalization_327", 0, 0, {}]]]}, {"class_name": "Conv2D", "config": {"name": "conv2d_323", "trainable": false, "dtype": "float32", "filters": 160, "kernel_size": [1, 1], "strides": [1, 1], "padding": "same", "data_format": "channels_last", "dilation_rate": [1, 1], "groups": 1, "activation": "linear", "use_bias": false, "kernel_initializer": {"class_name": "GlorotUniform", "config": {"seed": null}}, "bias_initializer": {"class_name": "Zeros", "config": {}}, "kernel_regularizer": null, "bias_regularizer": null, "activity_regularizer": null, "kernel_constraint": null, "bias_constraint": null}, "name": "conv2d_323", "inbound_nodes": [[["mixed4", 0, 0, {}]]]}, {"class_name": "Conv2D", "config": {"name": "conv2d_328", "trainable": false, "dtype": "float32", "filters": 160, "kernel_size": [1, 7], "strides": [1, 1], "padding": "same", "data_format": "channels_last", "dilation_rate": [1, 1], "groups": 1, "activation": "linear", "use_bias": false, "kernel_initializer": {"class_name": "GlorotUniform", "config": {"seed": null}}, "bias_initializer": {"class_name": "Zeros", "config": {}}, "kernel_regularizer": null, "bias_regularizer": null, "activity_regularizer": null, "kernel_constraint": null, "bias_constraint": null}, "name": "conv2d_328", "inbound_nodes": [[["activation_327", 0, 0, {}]]]}, {"class_name": "BatchNormalization", "config": {"name": "batch_normalization_323", "trainable": false, "dtype": "float32", "axis": [3], "momentum": 0.99, "epsilon": 0.001, "center": true, "scale": false, "beta_initializer": {"class_name": "Zeros", "config": {}}, "gamma_initializer": {"class_name": "Ones", "config": {}}, "moving_mean_initializer": {"class_name": "Zeros", "config": {}}, "moving_variance_initializer": {"class_name": "Ones", "config": {}}, "beta_regularizer": null, "gamma_regularizer": null, "beta_constraint": null, "gamma_constraint": null}, "name": "batch_normalization_323", "inbound_nodes": [[["conv2d_323", 0, 0, {}]]]}, {"class_name": "BatchNormalization", "config": {"name": "batch_normalization_328", "trainable": false, "dtype": "float32", "axis": [3], "momentum": 0.99, "epsilon": 0.001, "center": true, "scale": false, "beta_initializer": {"class_name": "Zeros", "config": {}}, "gamma_initializer": {"class_name": "Ones", "config": {}}, "moving_mean_initializer": {"class_name": "Zeros", "config": {}}, "moving_variance_initializer": {"class_name": "Ones", "config": {}}, "beta_regularizer": null, "gamma_regularizer": null, "beta_constraint": null, "gamma_constraint": null}, "name": "batch_normalization_328", "inbound_nodes": [[["conv2d_328", 0, 0, {}]]]}, {"class_name": "Activation", "config": {"name": "activation_323", "trainable": false, "dtype": "float32", "activation": "relu"}, "name": "activation_323", "inbound_nodes": [[["batch_normalization_323", 0, 0, {}]]]}, {"class_name": "Activation", "config": {"name": "activation_328", "trainable": false, "dtype": "float32", "activation": "relu"}, "name": "activation_328", "inbound_nodes": [[["batch_normalization_328", 0, 0, {}]]]}, {"class_name": "Conv2D", "config": {"name": "conv2d_324", "trainable": false, "dtype": "float32", "filters": 160, "kernel_size": [1, 7], "strides": [1, 1], "padding": "same", "data_format": "channels_last", "dilation_rate": [1, 1], "groups": 1, "activation": "linear", "use_bias": false, "kernel_initializer": {"class_name": "GlorotUniform", "config": {"seed": null}}, "bias_initializer": {"class_name": "Zeros", "config": {}}, "kernel_regularizer": null, "bias_regularizer": null, "activity_regularizer": null, "kernel_constraint": null, "bias_constraint": null}, "name": "conv2d_324", "inbound_nodes": [[["activation_323", 0, 0, {}]]]}, {"class_name": "Conv2D", "config": {"name": "conv2d_329", "trainable": false, "dtype": "float32", "filters": 160, "kernel_size": [7, 1], "strides": [1, 1], "padding": "same", "data_format": "channels_last", "dilation_rate": [1, 1], "groups": 1, "activation": "linear", "use_bias": false, "kernel_initializer": {"class_name": "GlorotUniform", "config": {"seed": null}}, "bias_initializer": {"class_name": "Zeros", "config": {}}, "kernel_regularizer": null, "bias_regularizer": null, "activity_regularizer": null, "kernel_constraint": null, "bias_constraint": null}, "name": "conv2d_329", "inbound_nodes": [[["activation_328", 0, 0, {}]]]}, {"class_name": "BatchNormalization", "config": {"name": "batch_normalization_324", "trainable": false, "dtype": "float32", "axis": [3], "momentum": 0.99, "epsilon": 0.001, "center": true, "scale": false, "beta_initializer": {"class_name": "Zeros", "config": {}}, "gamma_initializer": {"class_name": "Ones", "config": {}}, "moving_mean_initializer": {"class_name": "Zeros", "config": {}}, "moving_variance_initializer": {"class_name": "Ones", "config": {}}, "beta_regularizer": null, "gamma_regularizer": null, "beta_constraint": null, "gamma_constraint": null}, "name": "batch_normalization_324", "inbound_nodes": [[["conv2d_324", 0, 0, {}]]]}, {"class_name": "BatchNormalization", "config": {"name": "batch_normalization_329", "trainable": false, "dtype": "float32", "axis": [3], "momentum": 0.99, "epsilon": 0.001, "center": true, "scale": false, "beta_initializer": {"class_name": "Zeros", "config": {}}, "gamma_initializer": {"class_name": "Ones", "config": {}}, "moving_mean_initializer": {"class_name": "Zeros", "config": {}}, "moving_variance_initializer": {"class_name": "Ones", "config": {}}, "beta_regularizer": null, "gamma_regularizer": null, "beta_constraint": null, "gamma_constraint": null}, "name": "batch_normalization_329", "inbound_nodes": [[["conv2d_329", 0, 0, {}]]]}, {"class_name": "Activation", "config": {"name": "activation_324", "trainable": false, "dtype": "float32", "activation": "relu"}, "name": "activation_324", "inbound_nodes": [[["batch_normalization_324", 0, 0, {}]]]}, {"class_name": "Activation", "config": {"name": "activation_329", "trainable": false, "dtype": "float32", "activation": "relu"}, "name": "activation_329", "inbound_nodes": [[["batch_normalization_329", 0, 0, {}]]]}, {"class_name": "AveragePooling2D", "config": {"name": "average_pooling2d_31", "trainable": false, "dtype": "float32", "pool_size": [3, 3], "padding": "same", "strides": [1, 1], "data_format": "channels_last"}, "name": "average_pooling2d_31", "inbound_nodes": [[["mixed4", 0, 0, {}]]]}, {"class_name": "Conv2D", "config": {"name": "conv2d_322", "trainable": false, "dtype": "float32", "filters": 192, "kernel_size": [1, 1], "strides": [1, 1], "padding": "same", "data_format": "channels_last", "dilation_rate": [1, 1], "groups": 1, "activation": "linear", "use_bias": false, "kernel_initializer": {"class_name": "GlorotUniform", "config": {"seed": null}}, "bias_initializer": {"class_name": "Zeros", "config": {}}, "kernel_regularizer": null, "bias_regularizer": null, "activity_regularizer": null, "kernel_constraint": null, "bias_constraint": null}, "name": "conv2d_322", "inbound_nodes": [[["mixed4", 0, 0, {}]]]}, {"class_name": "Conv2D", "config": {"name": "conv2d_325", "trainable": false, "dtype": "float32", "filters": 192, "kernel_size": [7, 1], "strides": [1, 1], "padding": "same", "data_format": "channels_last", "dilation_rate": [1, 1], "groups": 1, "activation": "linear", "use_bias": false, "kernel_initializer": {"class_name": "GlorotUniform", "config": {"seed": null}}, "bias_initializer": {"class_name": "Zeros", "config": {}}, "kernel_regularizer": null, "bias_regularizer": null, "activity_regularizer": null, "kernel_constraint": null, "bias_constraint": null}, "name": "conv2d_325", "inbound_nodes": [[["activation_324", 0, 0, {}]]]}, {"class_name": "Conv2D", "config": {"name": "conv2d_330", "trainable": false, "dtype": "float32", "filters": 192, "kernel_size": [1, 7], "strides": [1, 1], "padding": "same", "data_format": "channels_last", "dilation_rate": [1, 1], "groups": 1, "activation": "linear", "use_bias": false, "kernel_initializer": {"class_name": "GlorotUniform", "config": {"seed": null}}, "bias_initializer": {"class_name": "Zeros", "config": {}}, "kernel_regularizer": null, "bias_regularizer": null, "activity_regularizer": null, "kernel_constraint": null, "bias_constraint": null}, "name": "conv2d_330", "inbound_nodes": [[["activation_329", 0, 0, {}]]]}, {"class_name": "Conv2D", "config": {"name": "conv2d_331", "trainable": false, "dtype": "float32", "filters": 192, "kernel_size": [1, 1], "strides": [1, 1], "padding": "same", "data_format": "channels_last", "dilation_rate": [1, 1], "groups": 1, "activation": "linear", "use_bias": false, "kernel_initializer": {"class_name": "GlorotUniform", "config": {"seed": null}}, "bias_initializer": {"class_name": "Zeros", "config": {}}, "kernel_regularizer": null, "bias_regularizer": null, "activity_regularizer": null, "kernel_constraint": null, "bias_constraint": null}, "name": "conv2d_331", "inbound_nodes": [[["average_pooling2d_31", 0, 0, {}]]]}, {"class_name": "BatchNormalization", "config": {"name": "batch_normalization_322", "trainable": false, "dtype": "float32", "axis": [3], "momentum": 0.99, "epsilon": 0.001, "center": true, "scale": false, "beta_initializer": {"class_name": "Zeros", "config": {}}, "gamma_initializer": {"class_name": "Ones", "config": {}}, "moving_mean_initializer": {"class_name": "Zeros", "config": {}}, "moving_variance_initializer": {"class_name": "Ones", "config": {}}, "beta_regularizer": null, "gamma_regularizer": null, "beta_constraint": null, "gamma_constraint": null}, "name": "batch_normalization_322", "inbound_nodes": [[["conv2d_322", 0, 0, {}]]]}, {"class_name": "BatchNormalization", "config": {"name": "batch_normalization_325", "trainable": false, "dtype": "float32", "axis": [3], "momentum": 0.99, "epsilon": 0.001, "center": true, "scale": false, "beta_initializer": {"class_name": "Zeros", "config": {}}, "gamma_initializer": {"class_name": "Ones", "config": {}}, "moving_mean_initializer": {"class_name": "Zeros", "config": {}}, "moving_variance_initializer": {"class_name": "Ones", "config": {}}, "beta_regularizer": null, "gamma_regularizer": null, "beta_constraint": null, "gamma_constraint": null}, "name": "batch_normalization_325", "inbound_nodes": [[["conv2d_325", 0, 0, {}]]]}, {"class_name": "BatchNormalization", "config": {"name": "batch_normalization_330", "trainable": false, "dtype": "float32", "axis": [3], "momentum": 0.99, "epsilon": 0.001, "center": true, "scale": false, "beta_initializer": {"class_name": "Zeros", "config": {}}, "gamma_initializer": {"class_name": "Ones", "config": {}}, "moving_mean_initializer": {"class_name": "Zeros", "config": {}}, "moving_variance_initializer": {"class_name": "Ones", "config": {}}, "beta_regularizer": null, "gamma_regularizer": null, "beta_constraint": null, "gamma_constraint": null}, "name": "batch_normalization_330", "inbound_nodes": [[["conv2d_330", 0, 0, {}]]]}, {"class_name": "BatchNormalization", "config": {"name": "batch_normalization_331", "trainable": false, "dtype": "float32", "axis": [3], "momentum": 0.99, "epsilon": 0.001, "center": true, "scale": false, "beta_initializer": {"class_name": "Zeros", "config": {}}, "gamma_initializer": {"class_name": "Ones", "config": {}}, "moving_mean_initializer": {"class_name": "Zeros", "config": {}}, "moving_variance_initializer": {"class_name": "Ones", "config": {}}, "beta_regularizer": null, "gamma_regularizer": null, "beta_constraint": null, "gamma_constraint": null}, "name": "batch_normalization_331", "inbound_nodes": [[["conv2d_331", 0, 0, {}]]]}, {"class_name": "Activation", "config": {"name": "activation_322", "trainable": false, "dtype": "float32", "activation": "relu"}, "name": "activation_322", "inbound_nodes": [[["batch_normalization_322", 0, 0, {}]]]}, {"class_name": "Activation", "config": {"name": "activation_325", "trainable": false, "dtype": "float32", "activation": "relu"}, "name": "activation_325", "inbound_nodes": [[["batch_normalization_325", 0, 0, {}]]]}, {"class_name": "Activation", "config": {"name": "activation_330", "trainable": false, "dtype": "float32", "activation": "relu"}, "name": "activation_330", "inbound_nodes": [[["batch_normalization_330", 0, 0, {}]]]}, {"class_name": "Activation", "config": {"name": "activation_331", "trainable": false, "dtype": "float32", "activation": "relu"}, "name": "activation_331", "inbound_nodes": [[["batch_normalization_331", 0, 0, {}]]]}, {"class_name": "Concatenate", "config": {"name": "mixed5", "trainable": false, "dtype": "float32", "axis": 3}, "name": "mixed5", "inbound_nodes": [[["activation_322", 0, 0, {}], ["activation_325", 0, 0, {}], ["activation_330", 0, 0, {}], ["activation_331", 0, 0, {}]]]}, {"class_name": "Conv2D", "config": {"name": "conv2d_336", "trainable": false, "dtype": "float32", "filters": 160, "kernel_size": [1, 1], "strides": [1, 1], "padding": "same", "data_format": "channels_last", "dilation_rate": [1, 1], "groups": 1, "activation": "linear", "use_bias": false, "kernel_initializer": {"class_name": "GlorotUniform", "config": {"seed": null}}, "bias_initializer": {"class_name": "Zeros", "config": {}}, "kernel_regularizer": null, "bias_regularizer": null, "activity_regularizer": null, "kernel_constraint": null, "bias_constraint": null}, "name": "conv2d_336", "inbound_nodes": [[["mixed5", 0, 0, {}]]]}, {"class_name": "BatchNormalization", "config": {"name": "batch_normalization_336", "trainable": false, "dtype": "float32", "axis": [3], "momentum": 0.99, "epsilon": 0.001, "center": true, "scale": false, "beta_initializer": {"class_name": "Zeros", "config": {}}, "gamma_initializer": {"class_name": "Ones", "config": {}}, "moving_mean_initializer": {"class_name": "Zeros", "config": {}}, "moving_variance_initializer": {"class_name": "Ones", "config": {}}, "beta_regularizer": null, "gamma_regularizer": null, "beta_constraint": null, "gamma_constraint": null}, "name": "batch_normalization_336", "inbound_nodes": [[["conv2d_336", 0, 0, {}]]]}, {"class_name": "Activation", "config": {"name": "activation_336", "trainable": false, "dtype": "float32", "activation": "relu"}, "name": "activation_336", "inbound_nodes": [[["batch_normalization_336", 0, 0, {}]]]}, {"class_name": "Conv2D", "config": {"name": "conv2d_337", "trainable": false, "dtype": "float32", "filters": 160, "kernel_size": [7, 1], "strides": [1, 1], "padding": "same", "data_format": "channels_last", "dilation_rate": [1, 1], "groups": 1, "activation": "linear", "use_bias": false, "kernel_initializer": {"class_name": "GlorotUniform", "config": {"seed": null}}, "bias_initializer": {"class_name": "Zeros", "config": {}}, "kernel_regularizer": null, "bias_regularizer": null, "activity_regularizer": null, "kernel_constraint": null, "bias_constraint": null}, "name": "conv2d_337", "inbound_nodes": [[["activation_336", 0, 0, {}]]]}, {"class_name": "BatchNormalization", "config": {"name": "batch_normalization_337", "trainable": false, "dtype": "float32", "axis": [3], "momentum": 0.99, "epsilon": 0.001, "center": true, "scale": false, "beta_initializer": {"class_name": "Zeros", "config": {}}, "gamma_initializer": {"class_name": "Ones", "config": {}}, "moving_mean_initializer": {"class_name": "Zeros", "config": {}}, "moving_variance_initializer": {"class_name": "Ones", "config": {}}, "beta_regularizer": null, "gamma_regularizer": null, "beta_constraint": null, "gamma_constraint": null}, "name": "batch_normalization_337", "inbound_nodes": [[["conv2d_337", 0, 0, {}]]]}, {"class_name": "Activation", "config": {"name": "activation_337", "trainable": false, "dtype": "float32", "activation": "relu"}, "name": "activation_337", "inbound_nodes": [[["batch_normalization_337", 0, 0, {}]]]}, {"class_name": "Conv2D", "config": {"name": "conv2d_333", "trainable": false, "dtype": "float32", "filters": 160, "kernel_size": [1, 1], "strides": [1, 1], "padding": "same", "data_format": "channels_last", "dilation_rate": [1, 1], "groups": 1, "activation": "linear", "use_bias": false, "kernel_initializer": {"class_name": "GlorotUniform", "config": {"seed": null}}, "bias_initializer": {"class_name": "Zeros", "config": {}}, "kernel_regularizer": null, "bias_regularizer": null, "activity_regularizer": null, "kernel_constraint": null, "bias_constraint": null}, "name": "conv2d_333", "inbound_nodes": [[["mixed5", 0, 0, {}]]]}, {"class_name": "Conv2D", "config": {"name": "conv2d_338", "trainable": false, "dtype": "float32", "filters": 160, "kernel_size": [1, 7], "strides": [1, 1], "padding": "same", "data_format": "channels_last", "dilation_rate": [1, 1], "groups": 1, "activation": "linear", "use_bias": false, "kernel_initializer": {"class_name": "GlorotUniform", "config": {"seed": null}}, "bias_initializer": {"class_name": "Zeros", "config": {}}, "kernel_regularizer": null, "bias_regularizer": null, "activity_regularizer": null, "kernel_constraint": null, "bias_constraint": null}, "name": "conv2d_338", "inbound_nodes": [[["activation_337", 0, 0, {}]]]}, {"class_name": "BatchNormalization", "config": {"name": "batch_normalization_333", "trainable": false, "dtype": "float32", "axis": [3], "momentum": 0.99, "epsilon": 0.001, "center": true, "scale": false, "beta_initializer": {"class_name": "Zeros", "config": {}}, "gamma_initializer": {"class_name": "Ones", "config": {}}, "moving_mean_initializer": {"class_name": "Zeros", "config": {}}, "moving_variance_initializer": {"class_name": "Ones", "config": {}}, "beta_regularizer": null, "gamma_regularizer": null, "beta_constraint": null, "gamma_constraint": null}, "name": "batch_normalization_333", "inbound_nodes": [[["conv2d_333", 0, 0, {}]]]}, {"class_name": "BatchNormalization", "config": {"name": "batch_normalization_338", "trainable": false, "dtype": "float32", "axis": [3], "momentum": 0.99, "epsilon": 0.001, "center": true, "scale": false, "beta_initializer": {"class_name": "Zeros", "config": {}}, "gamma_initializer": {"class_name": "Ones", "config": {}}, "moving_mean_initializer": {"class_name": "Zeros", "config": {}}, "moving_variance_initializer": {"class_name": "Ones", "config": {}}, "beta_regularizer": null, "gamma_regularizer": null, "beta_constraint": null, "gamma_constraint": null}, "name": "batch_normalization_338", "inbound_nodes": [[["conv2d_338", 0, 0, {}]]]}, {"class_name": "Activation", "config": {"name": "activation_333", "trainable": false, "dtype": "float32", "activation": "relu"}, "name": "activation_333", "inbound_nodes": [[["batch_normalization_333", 0, 0, {}]]]}, {"class_name": "Activation", "config": {"name": "activation_338", "trainable": false, "dtype": "float32", "activation": "relu"}, "name": "activation_338", "inbound_nodes": [[["batch_normalization_338", 0, 0, {}]]]}, {"class_name": "Conv2D", "config": {"name": "conv2d_334", "trainable": false, "dtype": "float32", "filters": 160, "kernel_size": [1, 7], "strides": [1, 1], "padding": "same", "data_format": "channels_last", "dilation_rate": [1, 1], "groups": 1, "activation": "linear", "use_bias": false, "kernel_initializer": {"class_name": "GlorotUniform", "config": {"seed": null}}, "bias_initializer": {"class_name": "Zeros", "config": {}}, "kernel_regularizer": null, "bias_regularizer": null, "activity_regularizer": null, "kernel_constraint": null, "bias_constraint": null}, "name": "conv2d_334", "inbound_nodes": [[["activation_333", 0, 0, {}]]]}, {"class_name": "Conv2D", "config": {"name": "conv2d_339", "trainable": false, "dtype": "float32", "filters": 160, "kernel_size": [7, 1], "strides": [1, 1], "padding": "same", "data_format": "channels_last", "dilation_rate": [1, 1], "groups": 1, "activation": "linear", "use_bias": false, "kernel_initializer": {"class_name": "GlorotUniform", "config": {"seed": null}}, "bias_initializer": {"class_name": "Zeros", "config": {}}, "kernel_regularizer": null, "bias_regularizer": null, "activity_regularizer": null, "kernel_constraint": null, "bias_constraint": null}, "name": "conv2d_339", "inbound_nodes": [[["activation_338", 0, 0, {}]]]}, {"class_name": "BatchNormalization", "config": {"name": "batch_normalization_334", "trainable": false, "dtype": "float32", "axis": [3], "momentum": 0.99, "epsilon": 0.001, "center": true, "scale": false, "beta_initializer": {"class_name": "Zeros", "config": {}}, "gamma_initializer": {"class_name": "Ones", "config": {}}, "moving_mean_initializer": {"class_name": "Zeros", "config": {}}, "moving_variance_initializer": {"class_name": "Ones", "config": {}}, "beta_regularizer": null, "gamma_regularizer": null, "beta_constraint": null, "gamma_constraint": null}, "name": "batch_normalization_334", "inbound_nodes": [[["conv2d_334", 0, 0, {}]]]}, {"class_name": "BatchNormalization", "config": {"name": "batch_normalization_339", "trainable": false, "dtype": "float32", "axis": [3], "momentum": 0.99, "epsilon": 0.001, "center": true, "scale": false, "beta_initializer": {"class_name": "Zeros", "config": {}}, "gamma_initializer": {"class_name": "Ones", "config": {}}, "moving_mean_initializer": {"class_name": "Zeros", "config": {}}, "moving_variance_initializer": {"class_name": "Ones", "config": {}}, "beta_regularizer": null, "gamma_regularizer": null, "beta_constraint": null, "gamma_constraint": null}, "name": "batch_normalization_339", "inbound_nodes": [[["conv2d_339", 0, 0, {}]]]}, {"class_name": "Activation", "config": {"name": "activation_334", "trainable": false, "dtype": "float32", "activation": "relu"}, "name": "activation_334", "inbound_nodes": [[["batch_normalization_334", 0, 0, {}]]]}, {"class_name": "Activation", "config": {"name": "activation_339", "trainable": false, "dtype": "float32", "activation": "relu"}, "name": "activation_339", "inbound_nodes": [[["batch_normalization_339", 0, 0, {}]]]}, {"class_name": "AveragePooling2D", "config": {"name": "average_pooling2d_32", "trainable": false, "dtype": "float32", "pool_size": [3, 3], "padding": "same", "strides": [1, 1], "data_format": "channels_last"}, "name": "average_pooling2d_32", "inbound_nodes": [[["mixed5", 0, 0, {}]]]}, {"class_name": "Conv2D", "config": {"name": "conv2d_332", "trainable": false, "dtype": "float32", "filters": 192, "kernel_size": [1, 1], "strides": [1, 1], "padding": "same", "data_format": "channels_last", "dilation_rate": [1, 1], "groups": 1, "activation": "linear", "use_bias": false, "kernel_initializer": {"class_name": "GlorotUniform", "config": {"seed": null}}, "bias_initializer": {"class_name": "Zeros", "config": {}}, "kernel_regularizer": null, "bias_regularizer": null, "activity_regularizer": null, "kernel_constraint": null, "bias_constraint": null}, "name": "conv2d_332", "inbound_nodes": [[["mixed5", 0, 0, {}]]]}, {"class_name": "Conv2D", "config": {"name": "conv2d_335", "trainable": false, "dtype": "float32", "filters": 192, "kernel_size": [7, 1], "strides": [1, 1], "padding": "same", "data_format": "channels_last", "dilation_rate": [1, 1], "groups": 1, "activation": "linear", "use_bias": false, "kernel_initializer": {"class_name": "GlorotUniform", "config": {"seed": null}}, "bias_initializer": {"class_name": "Zeros", "config": {}}, "kernel_regularizer": null, "bias_regularizer": null, "activity_regularizer": null, "kernel_constraint": null, "bias_constraint": null}, "name": "conv2d_335", "inbound_nodes": [[["activation_334", 0, 0, {}]]]}, {"class_name": "Conv2D", "config": {"name": "conv2d_340", "trainable": false, "dtype": "float32", "filters": 192, "kernel_size": [1, 7], "strides": [1, 1], "padding": "same", "data_format": "channels_last", "dilation_rate": [1, 1], "groups": 1, "activation": "linear", "use_bias": false, "kernel_initializer": {"class_name": "GlorotUniform", "config": {"seed": null}}, "bias_initializer": {"class_name": "Zeros", "config": {}}, "kernel_regularizer": null, "bias_regularizer": null, "activity_regularizer": null, "kernel_constraint": null, "bias_constraint": null}, "name": "conv2d_340", "inbound_nodes": [[["activation_339", 0, 0, {}]]]}, {"class_name": "Conv2D", "config": {"name": "conv2d_341", "trainable": false, "dtype": "float32", "filters": 192, "kernel_size": [1, 1], "strides": [1, 1], "padding": "same", "data_format": "channels_last", "dilation_rate": [1, 1], "groups": 1, "activation": "linear", "use_bias": false, "kernel_initializer": {"class_name": "GlorotUniform", "config": {"seed": null}}, "bias_initializer": {"class_name": "Zeros", "config": {}}, "kernel_regularizer": null, "bias_regularizer": null, "activity_regularizer": null, "kernel_constraint": null, "bias_constraint": null}, "name": "conv2d_341", "inbound_nodes": [[["average_pooling2d_32", 0, 0, {}]]]}, {"class_name": "BatchNormalization", "config": {"name": "batch_normalization_332", "trainable": false, "dtype": "float32", "axis": [3], "momentum": 0.99, "epsilon": 0.001, "center": true, "scale": false, "beta_initializer": {"class_name": "Zeros", "config": {}}, "gamma_initializer": {"class_name": "Ones", "config": {}}, "moving_mean_initializer": {"class_name": "Zeros", "config": {}}, "moving_variance_initializer": {"class_name": "Ones", "config": {}}, "beta_regularizer": null, "gamma_regularizer": null, "beta_constraint": null, "gamma_constraint": null}, "name": "batch_normalization_332", "inbound_nodes": [[["conv2d_332", 0, 0, {}]]]}, {"class_name": "BatchNormalization", "config": {"name": "batch_normalization_335", "trainable": false, "dtype": "float32", "axis": [3], "momentum": 0.99, "epsilon": 0.001, "center": true, "scale": false, "beta_initializer": {"class_name": "Zeros", "config": {}}, "gamma_initializer": {"class_name": "Ones", "config": {}}, "moving_mean_initializer": {"class_name": "Zeros", "config": {}}, "moving_variance_initializer": {"class_name": "Ones", "config": {}}, "beta_regularizer": null, "gamma_regularizer": null, "beta_constraint": null, "gamma_constraint": null}, "name": "batch_normalization_335", "inbound_nodes": [[["conv2d_335", 0, 0, {}]]]}, {"class_name": "BatchNormalization", "config": {"name": "batch_normalization_340", "trainable": false, "dtype": "float32", "axis": [3], "momentum": 0.99, "epsilon": 0.001, "center": true, "scale": false, "beta_initializer": {"class_name": "Zeros", "config": {}}, "gamma_initializer": {"class_name": "Ones", "config": {}}, "moving_mean_initializer": {"class_name": "Zeros", "config": {}}, "moving_variance_initializer": {"class_name": "Ones", "config": {}}, "beta_regularizer": null, "gamma_regularizer": null, "beta_constraint": null, "gamma_constraint": null}, "name": "batch_normalization_340", "inbound_nodes": [[["conv2d_340", 0, 0, {}]]]}, {"class_name": "BatchNormalization", "config": {"name": "batch_normalization_341", "trainable": false, "dtype": "float32", "axis": [3], "momentum": 0.99, "epsilon": 0.001, "center": true, "scale": false, "beta_initializer": {"class_name": "Zeros", "config": {}}, "gamma_initializer": {"class_name": "Ones", "config": {}}, "moving_mean_initializer": {"class_name": "Zeros", "config": {}}, "moving_variance_initializer": {"class_name": "Ones", "config": {}}, "beta_regularizer": null, "gamma_regularizer": null, "beta_constraint": null, "gamma_constraint": null}, "name": "batch_normalization_341", "inbound_nodes": [[["conv2d_341", 0, 0, {}]]]}, {"class_name": "Activation", "config": {"name": "activation_332", "trainable": false, "dtype": "float32", "activation": "relu"}, "name": "activation_332", "inbound_nodes": [[["batch_normalization_332", 0, 0, {}]]]}, {"class_name": "Activation", "config": {"name": "activation_335", "trainable": false, "dtype": "float32", "activation": "relu"}, "name": "activation_335", "inbound_nodes": [[["batch_normalization_335", 0, 0, {}]]]}, {"class_name": "Activation", "config": {"name": "activation_340", "trainable": false, "dtype": "float32", "activation": "relu"}, "name": "activation_340", "inbound_nodes": [[["batch_normalization_340", 0, 0, {}]]]}, {"class_name": "Activation", "config": {"name": "activation_341", "trainable": false, "dtype": "float32", "activation": "relu"}, "name": "activation_341", "inbound_nodes": [[["batch_normalization_341", 0, 0, {}]]]}, {"class_name": "Concatenate", "config": {"name": "mixed6", "trainable": false, "dtype": "float32", "axis": 3}, "name": "mixed6", "inbound_nodes": [[["activation_332", 0, 0, {}], ["activation_335", 0, 0, {}], ["activation_340", 0, 0, {}], ["activation_341", 0, 0, {}]]]}, {"class_name": "Conv2D", "config": {"name": "conv2d_346", "trainable": false, "dtype": "float32", "filters": 192, "kernel_size": [1, 1], "strides": [1, 1], "padding": "same", "data_format": "channels_last", "dilation_rate": [1, 1], "groups": 1, "activation": "linear", "use_bias": false, "kernel_initializer": {"class_name": "GlorotUniform", "config": {"seed": null}}, "bias_initializer": {"class_name": "Zeros", "config": {}}, "kernel_regularizer": null, "bias_regularizer": null, "activity_regularizer": null, "kernel_constraint": null, "bias_constraint": null}, "name": "conv2d_346", "inbound_nodes": [[["mixed6", 0, 0, {}]]]}, {"class_name": "BatchNormalization", "config": {"name": "batch_normalization_346", "trainable": false, "dtype": "float32", "axis": [3], "momentum": 0.99, "epsilon": 0.001, "center": true, "scale": false, "beta_initializer": {"class_name": "Zeros", "config": {}}, "gamma_initializer": {"class_name": "Ones", "config": {}}, "moving_mean_initializer": {"class_name": "Zeros", "config": {}}, "moving_variance_initializer": {"class_name": "Ones", "config": {}}, "beta_regularizer": null, "gamma_regularizer": null, "beta_constraint": null, "gamma_constraint": null}, "name": "batch_normalization_346", "inbound_nodes": [[["conv2d_346", 0, 0, {}]]]}, {"class_name": "Activation", "config": {"name": "activation_346", "trainable": false, "dtype": "float32", "activation": "relu"}, "name": "activation_346", "inbound_nodes": [[["batch_normalization_346", 0, 0, {}]]]}, {"class_name": "Conv2D", "config": {"name": "conv2d_347", "trainable": false, "dtype": "float32", "filters": 192, "kernel_size": [7, 1], "strides": [1, 1], "padding": "same", "data_format": "channels_last", "dilation_rate": [1, 1], "groups": 1, "activation": "linear", "use_bias": false, "kernel_initializer": {"class_name": "GlorotUniform", "config": {"seed": null}}, "bias_initializer": {"class_name": "Zeros", "config": {}}, "kernel_regularizer": null, "bias_regularizer": null, "activity_regularizer": null, "kernel_constraint": null, "bias_constraint": null}, "name": "conv2d_347", "inbound_nodes": [[["activation_346", 0, 0, {}]]]}, {"class_name": "BatchNormalization", "config": {"name": "batch_normalization_347", "trainable": false, "dtype": "float32", "axis": [3], "momentum": 0.99, "epsilon": 0.001, "center": true, "scale": false, "beta_initializer": {"class_name": "Zeros", "config": {}}, "gamma_initializer": {"class_name": "Ones", "config": {}}, "moving_mean_initializer": {"class_name": "Zeros", "config": {}}, "moving_variance_initializer": {"class_name": "Ones", "config": {}}, "beta_regularizer": null, "gamma_regularizer": null, "beta_constraint": null, "gamma_constraint": null}, "name": "batch_normalization_347", "inbound_nodes": [[["conv2d_347", 0, 0, {}]]]}, {"class_name": "Activation", "config": {"name": "activation_347", "trainable": false, "dtype": "float32", "activation": "relu"}, "name": "activation_347", "inbound_nodes": [[["batch_normalization_347", 0, 0, {}]]]}, {"class_name": "Conv2D", "config": {"name": "conv2d_343", "trainable": false, "dtype": "float32", "filters": 192, "kernel_size": [1, 1], "strides": [1, 1], "padding": "same", "data_format": "channels_last", "dilation_rate": [1, 1], "groups": 1, "activation": "linear", "use_bias": false, "kernel_initializer": {"class_name": "GlorotUniform", "config": {"seed": null}}, "bias_initializer": {"class_name": "Zeros", "config": {}}, "kernel_regularizer": null, "bias_regularizer": null, "activity_regularizer": null, "kernel_constraint": null, "bias_constraint": null}, "name": "conv2d_343", "inbound_nodes": [[["mixed6", 0, 0, {}]]]}, {"class_name": "Conv2D", "config": {"name": "conv2d_348", "trainable": false, "dtype": "float32", "filters": 192, "kernel_size": [1, 7], "strides": [1, 1], "padding": "same", "data_format": "channels_last", "dilation_rate": [1, 1], "groups": 1, "activation": "linear", "use_bias": false, "kernel_initializer": {"class_name": "GlorotUniform", "config": {"seed": null}}, "bias_initializer": {"class_name": "Zeros", "config": {}}, "kernel_regularizer": null, "bias_regularizer": null, "activity_regularizer": null, "kernel_constraint": null, "bias_constraint": null}, "name": "conv2d_348", "inbound_nodes": [[["activation_347", 0, 0, {}]]]}, {"class_name": "BatchNormalization", "config": {"name": "batch_normalization_343", "trainable": false, "dtype": "float32", "axis": [3], "momentum": 0.99, "epsilon": 0.001, "center": true, "scale": false, "beta_initializer": {"class_name": "Zeros", "config": {}}, "gamma_initializer": {"class_name": "Ones", "config": {}}, "moving_mean_initializer": {"class_name": "Zeros", "config": {}}, "moving_variance_initializer": {"class_name": "Ones", "config": {}}, "beta_regularizer": null, "gamma_regularizer": null, "beta_constraint": null, "gamma_constraint": null}, "name": "batch_normalization_343", "inbound_nodes": [[["conv2d_343", 0, 0, {}]]]}, {"class_name": "BatchNormalization", "config": {"name": "batch_normalization_348", "trainable": false, "dtype": "float32", "axis": [3], "momentum": 0.99, "epsilon": 0.001, "center": true, "scale": false, "beta_initializer": {"class_name": "Zeros", "config": {}}, "gamma_initializer": {"class_name": "Ones", "config": {}}, "moving_mean_initializer": {"class_name": "Zeros", "config": {}}, "moving_variance_initializer": {"class_name": "Ones", "config": {}}, "beta_regularizer": null, "gamma_regularizer": null, "beta_constraint": null, "gamma_constraint": null}, "name": "batch_normalization_348", "inbound_nodes": [[["conv2d_348", 0, 0, {}]]]}, {"class_name": "Activation", "config": {"name": "activation_343", "trainable": false, "dtype": "float32", "activation": "relu"}, "name": "activation_343", "inbound_nodes": [[["batch_normalization_343", 0, 0, {}]]]}, {"class_name": "Activation", "config": {"name": "activation_348", "trainable": false, "dtype": "float32", "activation": "relu"}, "name": "activation_348", "inbound_nodes": [[["batch_normalization_348", 0, 0, {}]]]}, {"class_name": "Conv2D", "config": {"name": "conv2d_344", "trainable": false, "dtype": "float32", "filters": 192, "kernel_size": [1, 7], "strides": [1, 1], "padding": "same", "data_format": "channels_last", "dilation_rate": [1, 1], "groups": 1, "activation": "linear", "use_bias": false, "kernel_initializer": {"class_name": "GlorotUniform", "config": {"seed": null}}, "bias_initializer": {"class_name": "Zeros", "config": {}}, "kernel_regularizer": null, "bias_regularizer": null, "activity_regularizer": null, "kernel_constraint": null, "bias_constraint": null}, "name": "conv2d_344", "inbound_nodes": [[["activation_343", 0, 0, {}]]]}, {"class_name": "Conv2D", "config": {"name": "conv2d_349", "trainable": false, "dtype": "float32", "filters": 192, "kernel_size": [7, 1], "strides": [1, 1], "padding": "same", "data_format": "channels_last", "dilation_rate": [1, 1], "groups": 1, "activation": "linear", "use_bias": false, "kernel_initializer": {"class_name": "GlorotUniform", "config": {"seed": null}}, "bias_initializer": {"class_name": "Zeros", "config": {}}, "kernel_regularizer": null, "bias_regularizer": null, "activity_regularizer": null, "kernel_constraint": null, "bias_constraint": null}, "name": "conv2d_349", "inbound_nodes": [[["activation_348", 0, 0, {}]]]}, {"class_name": "BatchNormalization", "config": {"name": "batch_normalization_344", "trainable": false, "dtype": "float32", "axis": [3], "momentum": 0.99, "epsilon": 0.001, "center": true, "scale": false, "beta_initializer": {"class_name": "Zeros", "config": {}}, "gamma_initializer": {"class_name": "Ones", "config": {}}, "moving_mean_initializer": {"class_name": "Zeros", "config": {}}, "moving_variance_initializer": {"class_name": "Ones", "config": {}}, "beta_regularizer": null, "gamma_regularizer": null, "beta_constraint": null, "gamma_constraint": null}, "name": "batch_normalization_344", "inbound_nodes": [[["conv2d_344", 0, 0, {}]]]}, {"class_name": "BatchNormalization", "config": {"name": "batch_normalization_349", "trainable": false, "dtype": "float32", "axis": [3], "momentum": 0.99, "epsilon": 0.001, "center": true, "scale": false, "beta_initializer": {"class_name": "Zeros", "config": {}}, "gamma_initializer": {"class_name": "Ones", "config": {}}, "moving_mean_initializer": {"class_name": "Zeros", "config": {}}, "moving_variance_initializer": {"class_name": "Ones", "config": {}}, "beta_regularizer": null, "gamma_regularizer": null, "beta_constraint": null, "gamma_constraint": null}, "name": "batch_normalization_349", "inbound_nodes": [[["conv2d_349", 0, 0, {}]]]}, {"class_name": "Activation", "config": {"name": "activation_344", "trainable": false, "dtype": "float32", "activation": "relu"}, "name": "activation_344", "inbound_nodes": [[["batch_normalization_344", 0, 0, {}]]]}, {"class_name": "Activation", "config": {"name": "activation_349", "trainable": false, "dtype": "float32", "activation": "relu"}, "name": "activation_349", "inbound_nodes": [[["batch_normalization_349", 0, 0, {}]]]}, {"class_name": "AveragePooling2D", "config": {"name": "average_pooling2d_33", "trainable": false, "dtype": "float32", "pool_size": [3, 3], "padding": "same", "strides": [1, 1], "data_format": "channels_last"}, "name": "average_pooling2d_33", "inbound_nodes": [[["mixed6", 0, 0, {}]]]}, {"class_name": "Conv2D", "config": {"name": "conv2d_342", "trainable": false, "dtype": "float32", "filters": 192, "kernel_size": [1, 1], "strides": [1, 1], "padding": "same", "data_format": "channels_last", "dilation_rate": [1, 1], "groups": 1, "activation": "linear", "use_bias": false, "kernel_initializer": {"class_name": "GlorotUniform", "config": {"seed": null}}, "bias_initializer": {"class_name": "Zeros", "config": {}}, "kernel_regularizer": null, "bias_regularizer": null, "activity_regularizer": null, "kernel_constraint": null, "bias_constraint": null}, "name": "conv2d_342", "inbound_nodes": [[["mixed6", 0, 0, {}]]]}, {"class_name": "Conv2D", "config": {"name": "conv2d_345", "trainable": false, "dtype": "float32", "filters": 192, "kernel_size": [7, 1], "strides": [1, 1], "padding": "same", "data_format": "channels_last", "dilation_rate": [1, 1], "groups": 1, "activation": "linear", "use_bias": false, "kernel_initializer": {"class_name": "GlorotUniform", "config": {"seed": null}}, "bias_initializer": {"class_name": "Zeros", "config": {}}, "kernel_regularizer": null, "bias_regularizer": null, "activity_regularizer": null, "kernel_constraint": null, "bias_constraint": null}, "name": "conv2d_345", "inbound_nodes": [[["activation_344", 0, 0, {}]]]}, {"class_name": "Conv2D", "config": {"name": "conv2d_350", "trainable": false, "dtype": "float32", "filters": 192, "kernel_size": [1, 7], "strides": [1, 1], "padding": "same", "data_format": "channels_last", "dilation_rate": [1, 1], "groups": 1, "activation": "linear", "use_bias": false, "kernel_initializer": {"class_name": "GlorotUniform", "config": {"seed": null}}, "bias_initializer": {"class_name": "Zeros", "config": {}}, "kernel_regularizer": null, "bias_regularizer": null, "activity_regularizer": null, "kernel_constraint": null, "bias_constraint": null}, "name": "conv2d_350", "inbound_nodes": [[["activation_349", 0, 0, {}]]]}, {"class_name": "Conv2D", "config": {"name": "conv2d_351", "trainable": false, "dtype": "float32", "filters": 192, "kernel_size": [1, 1], "strides": [1, 1], "padding": "same", "data_format": "channels_last", "dilation_rate": [1, 1], "groups": 1, "activation": "linear", "use_bias": false, "kernel_initializer": {"class_name": "GlorotUniform", "config": {"seed": null}}, "bias_initializer": {"class_name": "Zeros", "config": {}}, "kernel_regularizer": null, "bias_regularizer": null, "activity_regularizer": null, "kernel_constraint": null, "bias_constraint": null}, "name": "conv2d_351", "inbound_nodes": [[["average_pooling2d_33", 0, 0, {}]]]}, {"class_name": "BatchNormalization", "config": {"name": "batch_normalization_342", "trainable": false, "dtype": "float32", "axis": [3], "momentum": 0.99, "epsilon": 0.001, "center": true, "scale": false, "beta_initializer": {"class_name": "Zeros", "config": {}}, "gamma_initializer": {"class_name": "Ones", "config": {}}, "moving_mean_initializer": {"class_name": "Zeros", "config": {}}, "moving_variance_initializer": {"class_name": "Ones", "config": {}}, "beta_regularizer": null, "gamma_regularizer": null, "beta_constraint": null, "gamma_constraint": null}, "name": "batch_normalization_342", "inbound_nodes": [[["conv2d_342", 0, 0, {}]]]}, {"class_name": "BatchNormalization", "config": {"name": "batch_normalization_345", "trainable": false, "dtype": "float32", "axis": [3], "momentum": 0.99, "epsilon": 0.001, "center": true, "scale": false, "beta_initializer": {"class_name": "Zeros", "config": {}}, "gamma_initializer": {"class_name": "Ones", "config": {}}, "moving_mean_initializer": {"class_name": "Zeros", "config": {}}, "moving_variance_initializer": {"class_name": "Ones", "config": {}}, "beta_regularizer": null, "gamma_regularizer": null, "beta_constraint": null, "gamma_constraint": null}, "name": "batch_normalization_345", "inbound_nodes": [[["conv2d_345", 0, 0, {}]]]}, {"class_name": "BatchNormalization", "config": {"name": "batch_normalization_350", "trainable": false, "dtype": "float32", "axis": [3], "momentum": 0.99, "epsilon": 0.001, "center": true, "scale": false, "beta_initializer": {"class_name": "Zeros", "config": {}}, "gamma_initializer": {"class_name": "Ones", "config": {}}, "moving_mean_initializer": {"class_name": "Zeros", "config": {}}, "moving_variance_initializer": {"class_name": "Ones", "config": {}}, "beta_regularizer": null, "gamma_regularizer": null, "beta_constraint": null, "gamma_constraint": null}, "name": "batch_normalization_350", "inbound_nodes": [[["conv2d_350", 0, 0, {}]]]}, {"class_name": "BatchNormalization", "config": {"name": "batch_normalization_351", "trainable": false, "dtype": "float32", "axis": [3], "momentum": 0.99, "epsilon": 0.001, "center": true, "scale": false, "beta_initializer": {"class_name": "Zeros", "config": {}}, "gamma_initializer": {"class_name": "Ones", "config": {}}, "moving_mean_initializer": {"class_name": "Zeros", "config": {}}, "moving_variance_initializer": {"class_name": "Ones", "config": {}}, "beta_regularizer": null, "gamma_regularizer": null, "beta_constraint": null, "gamma_constraint": null}, "name": "batch_normalization_351", "inbound_nodes": [[["conv2d_351", 0, 0, {}]]]}, {"class_name": "Activation", "config": {"name": "activation_342", "trainable": false, "dtype": "float32", "activation": "relu"}, "name": "activation_342", "inbound_nodes": [[["batch_normalization_342", 0, 0, {}]]]}, {"class_name": "Activation", "config": {"name": "activation_345", "trainable": false, "dtype": "float32", "activation": "relu"}, "name": "activation_345", "inbound_nodes": [[["batch_normalization_345", 0, 0, {}]]]}, {"class_name": "Activation", "config": {"name": "activation_350", "trainable": false, "dtype": "float32", "activation": "relu"}, "name": "activation_350", "inbound_nodes": [[["batch_normalization_350", 0, 0, {}]]]}, {"class_name": "Activation", "config": {"name": "activation_351", "trainable": false, "dtype": "float32", "activation": "relu"}, "name": "activation_351", "inbound_nodes": [[["batch_normalization_351", 0, 0, {}]]]}, {"class_name": "Concatenate", "config": {"name": "mixed7", "trainable": false, "dtype": "float32", "axis": 3}, "name": "mixed7", "inbound_nodes": [[["activation_342", 0, 0, {}], ["activation_345", 0, 0, {}], ["activation_350", 0, 0, {}], ["activation_351", 0, 0, {}]]]}, {"class_name": "Flatten", "config": {"name": "flatten_3", "trainable": true, "dtype": "float32", "data_format": "channels_last"}, "name": "flatten_3", "inbound_nodes": [[["mixed7", 0, 0, {}]]]}, {"class_name": "Dense", "config": {"name": "dense_8", "trainable": true, "dtype": "float32", "units": 32, "activation": "relu", "use_bias": true, "kernel_initializer": {"class_name": "GlorotUniform", "config": {"seed": null}}, "bias_initializer": {"class_name": "Zeros", "config": {}}, "kernel_regularizer": null, "bias_regularizer": null, "activity_regularizer": null, "kernel_constraint": null, "bias_constraint": null}, "name": "dense_8", "inbound_nodes": [[["flatten_3", 0, 0, {}]]]}, {"class_name": "Dropout", "config": {"name": "dropout_3", "trainable": true, "dtype": "float32", "rate": 0.2, "noise_shape": null, "seed": null}, "name": "dropout_3", "inbound_nodes": [[["dense_8", 0, 0, {}]]]}, {"class_name": "Dense", "config": {"name": "dense_9", "trainable": true, "dtype": "float32", "units": 1, "activation": "sigmoid", "use_bias": true, "kernel_initializer": {"class_name": "GlorotUniform", "config": {"seed": null}}, "bias_initializer": {"class_name": "Zeros", "config": {}}, "kernel_regularizer": null, "bias_regularizer": null, "activity_regularizer": null, "kernel_constraint": null, "bias_constraint": null}, "name": "dense_9", "inbound_nodes": [[["dropout_3", 0, 0, {}]]]}], "input_layers": [["input_4", 0, 0]], "output_layers": [["dense_9", 0, 0]]}}, "training_config": {"loss": "binary_crossentropy", "metrics": [[{"class_name": "MeanMetricWrapper", "config": {"name": "accuracy", "dtype": "float32", "fn": "binary_accuracy"}}]], "weighted_metrics": null, "loss_weights": null, "optimizer_config": {"class_name": "RMSprop", "config": {"name": "RMSprop", "learning_rate": 0.0010000000474974513, "decay": 0.0, "rho": 0.8999999761581421, "momentum": 0.0, "epsilon": 1e-07, "centered": false}}}}, "weightsManifest": [{"paths": ["group1-shard1of16.bin", "group1-shard2of16.bin", "group1-shard3of16.bin", "group1-shard4of16.bin", "group1-shard5of16.bin", "group1-shard6of16.bin", "group1-shard7of16.bin", "group1-shard8of16.bin", "group1-shard9of16.bin", "group1-shard10of16.bin", "group1-shard11of16.bin", "group1-shard12of16.bin", "group1-shard13of16.bin", "group1-shard14of16.bin", "group1-shard15of16.bin", "group1-shard16of16.bin"], "weights": [{"name": "batch_normalization_282/beta", "shape": [32], "dtype": "float32"}, {"name": "batch_normalization_282/moving_mean", "shape": [32], "dtype": "float32"}, {"name": "batch_normalization_282/moving_variance", "shape": [32], "dtype": "float32"}, {"name": "batch_normalization_283/beta", "shape": [32], "dtype": "float32"}, {"name": "batch_normalization_283/moving_mean", "shape": [32], "dtype": "float32"}, {"name": "batch_normalization_283/moving_variance", "shape": [32], "dtype": "float32"}, {"name": "batch_normalization_284/beta", "shape": [64], "dtype": "float32"}, {"name": "batch_normalization_284/moving_mean", "shape": [64], "dtype": "float32"}, {"name": "batch_normalization_284/moving_variance", "shape": [64], "dtype": "float32"}, {"name": "batch_normalization_285/beta", "shape": [80], "dtype": "float32"}, {"name": "batch_normalization_285/moving_mean", "shape": [80], "dtype": "float32"}, {"name": "batch_normalization_285/moving_variance", "shape": [80], "dtype": "float32"}, {"name": "batch_normalization_286/beta", "shape": [192], "dtype": "float32"}, {"name": "batch_normalization_286/moving_mean", "shape": [192], "dtype": "float32"}, {"name": "batch_normalization_286/moving_variance", "shape": [192], "dtype": "float32"}, {"name": "batch_normalization_287/beta", "shape": [64], "dtype": "float32"}, {"name": "batch_normalization_287/moving_mean", "shape": [64], "dtype": "float32"}, {"name": "batch_normalization_287/moving_variance", "shape": [64], "dtype": "float32"}, {"name": "batch_normalization_288/beta", "shape": [48], "dtype": "float32"}, {"name": "batch_normalization_288/moving_mean", "shape": [48], "dtype": "float32"}, {"name": "batch_normalization_288/moving_variance", "shape": [48], "dtype": "float32"}, {"name": "batch_normalization_289/beta", "shape": [64], "dtype": "float32"}, {"name": "batch_normalization_289/moving_mean", "shape": [64], "dtype": "float32"}, {"name": "batch_normalization_289/moving_variance", "shape": [64], "dtype": "float32"}, {"name": "batch_normalization_290/beta", "shape": [64], "dtype": "float32"}, {"name": "batch_normalization_290/moving_mean", "shape": [64], "dtype": "float32"}, {"name": "batch_normalization_290/moving_variance", "shape": [64], "dtype": "float32"}, {"name": "batch_normalization_291/beta", "shape": [96], "dtype": "float32"}, {"name": "batch_normalization_291/moving_mean", "shape": [96], "dtype": "float32"}, {"name": "batch_normalization_291/moving_variance", "shape": [96], "dtype": "float32"}, {"name": "batch_normalization_292/beta", "shape": [96], "dtype": "float32"}, {"name": "batch_normalization_292/moving_mean", "shape": [96], "dtype": "float32"}, {"name": "batch_normalization_292/moving_variance", "shape": [96], "dtype": "float32"}, {"name": "batch_normalization_293/beta", "shape": [32], "dtype": "float32"}, {"name": "batch_normalization_293/moving_mean", "shape": [32], "dtype": "float32"}, {"name": "batch_normalization_293/moving_variance", "shape": [32], "dtype": "float32"}, {"name": "batch_normalization_294/beta", "shape": [64], "dtype": "float32"}, {"name": "batch_normalization_294/moving_mean", "shape": [64], "dtype": "float32"}, {"name": "batch_normalization_294/moving_variance", "shape": [64], "dtype": "float32"}, {"name": "batch_normalization_295/beta", "shape": [48], "dtype": "float32"}, {"name": "batch_normalization_295/moving_mean", "shape": [48], "dtype": "float32"}, {"name": "batch_normalization_295/moving_variance", "shape": [48], "dtype": "float32"}, {"name": "batch_normalization_296/beta", "shape": [64], "dtype": "float32"}, {"name": "batch_normalization_296/moving_mean", "shape": [64], "dtype": "float32"}, {"name": "batch_normalization_296/moving_variance", "shape": [64], "dtype": "float32"}, {"name": "batch_normalization_297/beta", "shape": [64], "dtype": "float32"}, {"name": "batch_normalization_297/moving_mean", "shape": [64], "dtype": "float32"}, {"name": "batch_normalization_297/moving_variance", "shape": [64], "dtype": "float32"}, {"name": "batch_normalization_298/beta", "shape": [96], "dtype": "float32"}, {"name": "batch_normalization_298/moving_mean", "shape": [96], "dtype": "float32"}, {"name": "batch_normalization_298/moving_variance", "shape": [96], "dtype": "float32"}, {"name": "batch_normalization_299/beta", "shape": [96], "dtype": "float32"}, {"name": "batch_normalization_299/moving_mean", "shape": [96], "dtype": "float32"}, {"name": "batch_normalization_299/moving_variance", "shape": [96], "dtype": "float32"}, {"name": "batch_normalization_300/beta", "shape": [64], "dtype": "float32"}, {"name": "batch_normalization_300/moving_mean", "shape": [64], "dtype": "float32"}, {"name": "batch_normalization_300/moving_variance", "shape": [64], "dtype": "float32"}, {"name": "batch_normalization_301/beta", "shape": [64], "dtype": "float32"}, {"name": "batch_normalization_301/moving_mean", "shape": [64], "dtype": "float32"}, {"name": "batch_normalization_301/moving_variance", "shape": [64], "dtype": "float32"}, {"name": "batch_normalization_302/beta", "shape": [48], "dtype": "float32"}, {"name": "batch_normalization_302/moving_mean", "shape": [48], "dtype": "float32"}, {"name": "batch_normalization_302/moving_variance", "shape": [48], "dtype": "float32"}, {"name": "batch_normalization_303/beta", "shape": [64], "dtype": "float32"}, {"name": "batch_normalization_303/moving_mean", "shape": [64], "dtype": "float32"}, {"name": "batch_normalization_303/moving_variance", "shape": [64], "dtype": "float32"}, {"name": "batch_normalization_304/beta", "shape": [64], "dtype": "float32"}, {"name": "batch_normalization_304/moving_mean", "shape": [64], "dtype": "float32"}, {"name": "batch_normalization_304/moving_variance", "shape": [64], "dtype": "float32"}, {"name": "batch_normalization_305/beta", "shape": [96], "dtype": "float32"}, {"name": "batch_normalization_305/moving_mean", "shape": [96], "dtype": "float32"}, {"name": "batch_normalization_305/moving_variance", "shape": [96], "dtype": "float32"}, {"name": "batch_normalization_306/beta", "shape": [96], "dtype": "float32"}, {"name": "batch_normalization_306/moving_mean", "shape": [96], "dtype": "float32"}, {"name": "batch_normalization_306/moving_variance", "shape": [96], "dtype": "float32"}, {"name": "batch_normalization_307/beta", "shape": [64], "dtype": "float32"}, {"name": "batch_normalization_307/moving_mean", "shape": [64], "dtype": "float32"}, {"name": "batch_normalization_307/moving_variance", "shape": [64], "dtype": "float32"}, {"name": "batch_normalization_308/beta", "shape": [384], "dtype": "float32"}, {"name": "batch_normalization_308/moving_mean", "shape": [384], "dtype": "float32"}, {"name": "batch_normalization_308/moving_variance", "shape": [384], "dtype": "float32"}, {"name": "batch_normalization_309/beta", "shape": [64], "dtype": "float32"}, {"name": "batch_normalization_309/moving_mean", "shape": [64], "dtype": "float32"}, {"name": "batch_normalization_309/moving_variance", "shape": [64], "dtype": "float32"}, {"name": "batch_normalization_310/beta", "shape": [96], "dtype": "float32"}, {"name": "batch_normalization_310/moving_mean", "shape": [96], "dtype": "float32"}, {"name": "batch_normalization_310/moving_variance", "shape": [96], "dtype": "float32"}, {"name": "batch_normalization_311/beta", "shape": [96], "dtype": "float32"}, {"name": "batch_normalization_311/moving_mean", "shape": [96], "dtype": "float32"}, {"name": "batch_normalization_311/moving_variance", "shape": [96], "dtype": "float32"}, {"name": "batch_normalization_312/beta", "shape": [192], "dtype": "float32"}, {"name": "batch_normalization_312/moving_mean", "shape": [192], "dtype": "float32"}, {"name": "batch_normalization_312/moving_variance", "shape": [192], "dtype": "float32"}, {"name": "batch_normalization_313/beta", "shape": [128], "dtype": "float32"}, {"name": "batch_normalization_313/moving_mean", "shape": [128], "dtype": "float32"}, {"name": "batch_normalization_313/moving_variance", "shape": [128], "dtype": "float32"}, {"name": "batch_normalization_314/beta", "shape": [128], "dtype": "float32"}, {"name": "batch_normalization_314/moving_mean", "shape": [128], "dtype": "float32"}, {"name": "batch_normalization_314/moving_variance", "shape": [128], "dtype": "float32"}, {"name": "batch_normalization_315/beta", "shape": [192], "dtype": "float32"}, {"name": "batch_normalization_315/moving_mean", "shape": [192], "dtype": "float32"}, {"name": "batch_normalization_315/moving_variance", "shape": [192], "dtype": "float32"}, {"name": "batch_normalization_316/beta", "shape": [128], "dtype": "float32"}, {"name": "batch_normalization_316/moving_mean", "shape": [128], "dtype": "float32"}, {"name": "batch_normalization_316/moving_variance", "shape": [128], "dtype": "float32"}, {"name": "batch_normalization_317/beta", "shape": [128], "dtype": "float32"}, {"name": "batch_normalization_317/moving_mean", "shape": [128], "dtype": "float32"}, {"name": "batch_normalization_317/moving_variance", "shape": [128], "dtype": "float32"}, {"name": "batch_normalization_318/beta", "shape": [128], "dtype": "float32"}, {"name": "batch_normalization_318/moving_mean", "shape": [128], "dtype": "float32"}, {"name": "batch_normalization_318/moving_variance", "shape": [128], "dtype": "float32"}, {"name": "batch_normalization_319/beta", "shape": [128], "dtype": "float32"}, {"name": "batch_normalization_319/moving_mean", "shape": [128], "dtype": "float32"}, {"name": "batch_normalization_319/moving_variance", "shape": [128], "dtype": "float32"}, {"name": "batch_normalization_320/beta", "shape": [192], "dtype": "float32"}, {"name": "batch_normalization_320/moving_mean", "shape": [192], "dtype": "float32"}, {"name": "batch_normalization_320/moving_variance", "shape": [192], "dtype": "float32"}, {"name": "batch_normalization_321/beta", "shape": [192], "dtype": "float32"}, {"name": "batch_normalization_321/moving_mean", "shape": [192], "dtype": "float32"}, {"name": "batch_normalization_321/moving_variance", "shape": [192], "dtype": "float32"}, {"name": "batch_normalization_322/beta", "shape": [192], "dtype": "float32"}, {"name": "batch_normalization_322/moving_mean", "shape": [192], "dtype": "float32"}, {"name": "batch_normalization_322/moving_variance", "shape": [192], "dtype": "float32"}, {"name": "batch_normalization_323/beta", "shape": [160], "dtype": "float32"}, {"name": "batch_normalization_323/moving_mean", "shape": [160], "dtype": "float32"}, {"name": "batch_normalization_323/moving_variance", "shape": [160], "dtype": "float32"}, {"name": "batch_normalization_324/beta", "shape": [160], "dtype": "float32"}, {"name": "batch_normalization_324/moving_mean", "shape": [160], "dtype": "float32"}, {"name": "batch_normalization_324/moving_variance", "shape": [160], "dtype": "float32"}, {"name": "batch_normalization_325/beta", "shape": [192], "dtype": "float32"}, {"name": "batch_normalization_325/moving_mean", "shape": [192], "dtype": "float32"}, {"name": "batch_normalization_325/moving_variance", "shape": [192], "dtype": "float32"}, {"name": "batch_normalization_326/beta", "shape": [160], "dtype": "float32"}, {"name": "batch_normalization_326/moving_mean", "shape": [160], "dtype": "float32"}, {"name": "batch_normalization_326/moving_variance", "shape": [160], "dtype": "float32"}, {"name": "batch_normalization_327/beta", "shape": [160], "dtype": "float32"}, {"name": "batch_normalization_327/moving_mean", "shape": [160], "dtype": "float32"}, {"name": "batch_normalization_327/moving_variance", "shape": [160], "dtype": "float32"}, {"name": "batch_normalization_328/beta", "shape": [160], "dtype": "float32"}, {"name": "batch_normalization_328/moving_mean", "shape": [160], "dtype": "float32"}, {"name": "batch_normalization_328/moving_variance", "shape": [160], "dtype": "float32"}, {"name": "batch_normalization_329/beta", "shape": [160], "dtype": "float32"}, {"name": "batch_normalization_329/moving_mean", "shape": [160], "dtype": "float32"}, {"name": "batch_normalization_329/moving_variance", "shape": [160], "dtype": "float32"}, {"name": "batch_normalization_330/beta", "shape": [192], "dtype": "float32"}, {"name": "batch_normalization_330/moving_mean", "shape": [192], "dtype": "float32"}, {"name": "batch_normalization_330/moving_variance", "shape": [192], "dtype": "float32"}, {"name": "batch_normalization_331/beta", "shape": [192], "dtype": "float32"}, {"name": "batch_normalization_331/moving_mean", "shape": [192], "dtype": "float32"}, {"name": "batch_normalization_331/moving_variance", "shape": [192], "dtype": "float32"}, {"name": "batch_normalization_332/beta", "shape": [192], "dtype": "float32"}, {"name": "batch_normalization_332/moving_mean", "shape": [192], "dtype": "float32"}, {"name": "batch_normalization_332/moving_variance", "shape": [192], "dtype": "float32"}, {"name": "batch_normalization_333/beta", "shape": [160], "dtype": "float32"}, {"name": "batch_normalization_333/moving_mean", "shape": [160], "dtype": "float32"}, {"name": "batch_normalization_333/moving_variance", "shape": [160], "dtype": "float32"}, {"name": "batch_normalization_334/beta", "shape": [160], "dtype": "float32"}, {"name": "batch_normalization_334/moving_mean", "shape": [160], "dtype": "float32"}, {"name": "batch_normalization_334/moving_variance", "shape": [160], "dtype": "float32"}, {"name": "batch_normalization_335/beta", "shape": [192], "dtype": "float32"}, {"name": "batch_normalization_335/moving_mean", "shape": [192], "dtype": "float32"}, {"name": "batch_normalization_335/moving_variance", "shape": [192], "dtype": "float32"}, {"name": "batch_normalization_336/beta", "shape": [160], "dtype": "float32"}, {"name": "batch_normalization_336/moving_mean", "shape": [160], "dtype": "float32"}, {"name": "batch_normalization_336/moving_variance", "shape": [160], "dtype": "float32"}, {"name": "batch_normalization_337/beta", "shape": [160], "dtype": "float32"}, {"name": "batch_normalization_337/moving_mean", "shape": [160], "dtype": "float32"}, {"name": "batch_normalization_337/moving_variance", "shape": [160], "dtype": "float32"}, {"name": "batch_normalization_338/beta", "shape": [160], "dtype": "float32"}, {"name": "batch_normalization_338/moving_mean", "shape": [160], "dtype": "float32"}, {"name": "batch_normalization_338/moving_variance", "shape": [160], "dtype": "float32"}, {"name": "batch_normalization_339/beta", "shape": [160], "dtype": "float32"}, {"name": "batch_normalization_339/moving_mean", "shape": [160], "dtype": "float32"}, {"name": "batch_normalization_339/moving_variance", "shape": [160], "dtype": "float32"}, {"name": "batch_normalization_340/beta", "shape": [192], "dtype": "float32"}, {"name": "batch_normalization_340/moving_mean", "shape": [192], "dtype": "float32"}, {"name": "batch_normalization_340/moving_variance", "shape": [192], "dtype": "float32"}, {"name": "batch_normalization_341/beta", "shape": [192], "dtype": "float32"}, {"name": "batch_normalization_341/moving_mean", "shape": [192], "dtype": "float32"}, {"name": "batch_normalization_341/moving_variance", "shape": [192], "dtype": "float32"}, {"name": "batch_normalization_342/beta", "shape": [192], "dtype": "float32"}, {"name": "batch_normalization_342/moving_mean", "shape": [192], "dtype": "float32"}, {"name": "batch_normalization_342/moving_variance", "shape": [192], "dtype": "float32"}, {"name": "batch_normalization_343/beta", "shape": [192], "dtype": "float32"}, {"name": "batch_normalization_343/moving_mean", "shape": [192], "dtype": "float32"}, {"name": "batch_normalization_343/moving_variance", "shape": [192], "dtype": "float32"}, {"name": "batch_normalization_344/beta", "shape": [192], "dtype": "float32"}, {"name": "batch_normalization_344/moving_mean", "shape": [192], "dtype": "float32"}, {"name": "batch_normalization_344/moving_variance", "shape": [192], "dtype": "float32"}, {"name": "batch_normalization_345/beta", "shape": [192], "dtype": "float32"}, {"name": "batch_normalization_345/moving_mean", "shape": [192], "dtype": "float32"}, {"name": "batch_normalization_345/moving_variance", "shape": [192], "dtype": "float32"}, {"name": "batch_normalization_346/beta", "shape": [192], "dtype": "float32"}, {"name": "batch_normalization_346/moving_mean", "shape": [192], "dtype": "float32"}, {"name": "batch_normalization_346/moving_variance", "shape": [192], "dtype": "float32"}, {"name": "batch_normalization_347/beta", "shape": [192], "dtype": "float32"}, {"name": "batch_normalization_347/moving_mean", "shape": [192], "dtype": "float32"}, {"name": "batch_normalization_347/moving_variance", "shape": [192], "dtype": "float32"}, {"name": "batch_normalization_348/beta", "shape": [192], "dtype": "float32"}, {"name": "batch_normalization_348/moving_mean", "shape": [192], "dtype": "float32"}, {"name": "batch_normalization_348/moving_variance", "shape": [192], "dtype": "float32"}, {"name": "batch_normalization_349/beta", "shape": [192], "dtype": "float32"}, {"name": "batch_normalization_349/moving_mean", "shape": [192], "dtype": "float32"}, {"name": "batch_normalization_349/moving_variance", "shape": [192], "dtype": "float32"}, {"name": "batch_normalization_350/beta", "shape": [192], "dtype": "float32"}, {"name": "batch_normalization_350/moving_mean", "shape": [192], "dtype": "float32"}, {"name": "batch_normalization_350/moving_variance", "shape": [192], "dtype": "float32"}, {"name": "batch_normalization_351/beta", "shape": [192], "dtype": "float32"}, {"name": "batch_normalization_351/moving_mean", "shape": [192], "dtype": "float32"}, {"name": "batch_normalization_351/moving_variance", "shape": [192], "dtype": "float32"}, {"name": "conv2d_282/kernel", "shape": [3, 3, 3, 32], "dtype": "float32"}, {"name": "conv2d_283/kernel", "shape": [3, 3, 32, 32], "dtype": "float32"}, {"name": "conv2d_284/kernel", "shape": [3, 3, 32, 64], "dtype": "float32"}, {"name": "conv2d_285/kernel", "shape": [1, 1, 64, 80], "dtype": "float32"}, {"name": "conv2d_286/kernel", "shape": [3, 3, 80, 192], "dtype": "float32"}, {"name": "conv2d_287/kernel", "shape": [1, 1, 192, 64], "dtype": "float32"}, {"name": "conv2d_288/kernel", "shape": [1, 1, 192, 48], "dtype": "float32"}, {"name": "conv2d_289/kernel", "shape": [5, 5, 48, 64], "dtype": "float32"}, {"name": "conv2d_290/kernel", "shape": [1, 1, 192, 64], "dtype": "float32"}, {"name": "conv2d_291/kernel", "shape": [3, 3, 64, 96], "dtype": "float32"}, {"name": "conv2d_292/kernel", "shape": [3, 3, 96, 96], "dtype": "float32"}, {"name": "conv2d_293/kernel", "shape": [1, 1, 192, 32], "dtype": "float32"}, {"name": "conv2d_294/kernel", "shape": [1, 1, 256, 64], "dtype": "float32"}, {"name": "conv2d_295/kernel", "shape": [1, 1, 256, 48], "dtype": "float32"}, {"name": "conv2d_296/kernel", "shape": [5, 5, 48, 64], "dtype": "float32"}, {"name": "conv2d_297/kernel", "shape": [1, 1, 256, 64], "dtype": "float32"}, {"name": "conv2d_298/kernel", "shape": [3, 3, 64, 96], "dtype": "float32"}, {"name": "conv2d_299/kernel", "shape": [3, 3, 96, 96], "dtype": "float32"}, {"name": "conv2d_300/kernel", "shape": [1, 1, 256, 64], "dtype": "float32"}, {"name": "conv2d_301/kernel", "shape": [1, 1, 288, 64], "dtype": "float32"}, {"name": "conv2d_302/kernel", "shape": [1, 1, 288, 48], "dtype": "float32"}, {"name": "conv2d_303/kernel", "shape": [5, 5, 48, 64], "dtype": "float32"}, {"name": "conv2d_304/kernel", "shape": [1, 1, 288, 64], "dtype": "float32"}, {"name": "conv2d_305/kernel", "shape": [3, 3, 64, 96], "dtype": "float32"}, {"name": "conv2d_306/kernel", "shape": [3, 3, 96, 96], "dtype": "float32"}, {"name": "conv2d_307/kernel", "shape": [1, 1, 288, 64], "dtype": "float32"}, {"name": "conv2d_308/kernel", "shape": [3, 3, 288, 384], "dtype": "float32"}, {"name": "conv2d_309/kernel", "shape": [1, 1, 288, 64], "dtype": "float32"}, {"name": "conv2d_310/kernel", "shape": [3, 3, 64, 96], "dtype": "float32"}, {"name": "conv2d_311/kernel", "shape": [3, 3, 96, 96], "dtype": "float32"}, {"name": "conv2d_312/kernel", "shape": [1, 1, 768, 192], "dtype": "float32"}, {"name": "conv2d_313/kernel", "shape": [1, 1, 768, 128], "dtype": "float32"}, {"name": "conv2d_314/kernel", "shape": [1, 7, 128, 128], "dtype": "float32"}, {"name": "conv2d_315/kernel", "shape": [7, 1, 128, 192], "dtype": "float32"}, {"name": "conv2d_316/kernel", "shape": [1, 1, 768, 128], "dtype": "float32"}, {"name": "conv2d_317/kernel", "shape": [7, 1, 128, 128], "dtype": "float32"}, {"name": "conv2d_318/kernel", "shape": [1, 7, 128, 128], "dtype": "float32"}, {"name": "conv2d_319/kernel", "shape": [7, 1, 128, 128], "dtype": "float32"}, {"name": "conv2d_320/kernel", "shape": [1, 7, 128, 192], "dtype": "float32"}, {"name": "conv2d_321/kernel", "shape": [1, 1, 768, 192], "dtype": "float32"}, {"name": "conv2d_322/kernel", "shape": [1, 1, 768, 192], "dtype": "float32"}, {"name": "conv2d_323/kernel", "shape": [1, 1, 768, 160], "dtype": "float32"}, {"name": "conv2d_324/kernel", "shape": [1, 7, 160, 160], "dtype": "float32"}, {"name": "conv2d_325/kernel", "shape": [7, 1, 160, 192], "dtype": "float32"}, {"name": "conv2d_326/kernel", "shape": [1, 1, 768, 160], "dtype": "float32"}, {"name": "conv2d_327/kernel", "shape": [7, 1, 160, 160], "dtype": "float32"}, {"name": "conv2d_328/kernel", "shape": [1, 7, 160, 160], "dtype": "float32"}, {"name": "conv2d_329/kernel", "shape": [7, 1, 160, 160], "dtype": "float32"}, {"name": "conv2d_330/kernel", "shape": [1, 7, 160, 192], "dtype": "float32"}, {"name": "conv2d_331/kernel", "shape": [1, 1, 768, 192], "dtype": "float32"}, {"name": "conv2d_332/kernel", "shape": [1, 1, 768, 192], "dtype": "float32"}, {"name": "conv2d_333/kernel", "shape": [1, 1, 768, 160], "dtype": "float32"}, {"name": "conv2d_334/kernel", "shape": [1, 7, 160, 160], "dtype": "float32"}, {"name": "conv2d_335/kernel", "shape": [7, 1, 160, 192], "dtype": "float32"}, {"name": "conv2d_336/kernel", "shape": [1, 1, 768, 160], "dtype": "float32"}, {"name": "conv2d_337/kernel", "shape": [7, 1, 160, 160], "dtype": "float32"}, {"name": "conv2d_338/kernel", "shape": [1, 7, 160, 160], "dtype": "float32"}, {"name": "conv2d_339/kernel", "shape": [7, 1, 160, 160], "dtype": "float32"}, {"name": "conv2d_340/kernel", "shape": [1, 7, 160, 192], "dtype": "float32"}, {"name": "conv2d_341/kernel", "shape": [1, 1, 768, 192], "dtype": "float32"}, {"name": "conv2d_342/kernel", "shape": [1, 1, 768, 192], "dtype": "float32"}, {"name": "conv2d_343/kernel", "shape": [1, 1, 768, 192], "dtype": "float32"}, {"name": "conv2d_344/kernel", "shape": [1, 7, 192, 192], "dtype": "float32"}, {"name": "conv2d_345/kernel", "shape": [7, 1, 192, 192], "dtype": "float32"}, {"name": "conv2d_346/kernel", "shape": [1, 1, 768, 192], "dtype": "float32"}, {"name": "conv2d_347/kernel", "shape": [7, 1, 192, 192], "dtype": "float32"}, {"name": "conv2d_348/kernel", "shape": [1, 7, 192, 192], "dtype": "float32"}, {"name": "conv2d_349/kernel", "shape": [7, 1, 192, 192], "dtype": "float32"}, {"name": "conv2d_350/kernel", "shape": [1, 7, 192, 192], "dtype": "float32"}, {"name": "conv2d_351/kernel", "shape": [1, 1, 768, 192], "dtype": "float32"}, {"name": "dense_8/kernel", "shape": [221952, 32], "dtype": "float32"}, {"name": "dense_8/bias", "shape": [32], "dtype": "float32"}, {"name": "dense_9/kernel", "shape": [32, 1], "dtype": "float32"}, {"name": "dense_9/bias", "shape": [1], "dtype": "float32"}]}]}