{"format": "layers-model", "generatedBy": "keras v2.10.0", "convertedBy": "TensorFlow.js Converter v4.0.0", "modelTopology": {"keras_version": "2.10.0", "backend": "tensorflow", "model_config": {"class_name": "Functional", "config": {"name": "model_1", "layers": [{"class_name": "InputLayer", "config": {"batch_input_shape": [null, 300, 300, 3], "dtype": "float32", "sparse": false, "ragged": false, "name": "input_2"}, "name": "input_2", "inbound_nodes": []}, {"class_name": "Conv2D", "config": {"name": "conv2d_94", "trainable": false, "dtype": "float32", "filters": 32, "kernel_size": [3, 3], "strides": [2, 2], "padding": "valid", "data_format": "channels_last", "dilation_rate": [1, 1], "groups": 1, "activation": "linear", "use_bias": false, "kernel_initializer": {"class_name": "GlorotUniform", "config": {"seed": null}}, "bias_initializer": {"class_name": "Zeros", "config": {}}, "kernel_regularizer": null, "bias_regularizer": null, "activity_regularizer": null, "kernel_constraint": null, "bias_constraint": null}, "name": "conv2d_94", "inbound_nodes": [[["input_2", 0, 0, {}]]]}, {"class_name": "BatchNormalization", "config": {"name": "batch_normalization_94", "trainable": false, "dtype": "float32", "axis": [3], "momentum": 0.99, "epsilon": 0.001, "center": true, "scale": false, "beta_initializer": {"class_name": "Zeros", "config": {}}, "gamma_initializer": {"class_name": "Ones", "config": {}}, "moving_mean_initializer": {"class_name": "Zeros", "config": {}}, "moving_variance_initializer": {"class_name": "Ones", "config": {}}, "beta_regularizer": null, "gamma_regularizer": null, "beta_constraint": null, "gamma_constraint": null}, "name": "batch_normalization_94", "inbound_nodes": [[["conv2d_94", 0, 0, {}]]]}, {"class_name": "Activation", "config": {"name": "activation_94", "trainable": false, "dtype": "float32", "activation": "relu"}, "name": "activation_94", "inbound_nodes": [[["batch_normalization_94", 0, 0, {}]]]}, {"class_name": "Conv2D", "config": {"name": "conv2d_95", "trainable": false, "dtype": "float32", "filters": 32, "kernel_size": [3, 3], "strides": [1, 1], "padding": "valid", "data_format": "channels_last", "dilation_rate": [1, 1], "groups": 1, "activation": "linear", "use_bias": false, "kernel_initializer": {"class_name": "GlorotUniform", "config": {"seed": null}}, "bias_initializer": {"class_name": "Zeros", "config": {}}, "kernel_regularizer": null, "bias_regularizer": null, "activity_regularizer": null, "kernel_constraint": null, "bias_constraint": null}, "name": "conv2d_95", "inbound_nodes": [[["activation_94", 0, 0, {}]]]}, {"class_name": "BatchNormalization", "config": {"name": "batch_normalization_95", "trainable": false, "dtype": "float32", "axis": [3], "momentum": 0.99, "epsilon": 0.001, "center": true, "scale": false, "beta_initializer": {"class_name": "Zeros", "config": {}}, "gamma_initializer": {"class_name": "Ones", "config": {}}, "moving_mean_initializer": {"class_name": "Zeros", "config": {}}, "moving_variance_initializer": {"class_name": "Ones", "config": {}}, "beta_regularizer": null, "gamma_regularizer": null, "beta_constraint": null, "gamma_constraint": null}, "name": "batch_normalization_95", "inbound_nodes": [[["conv2d_95", 0, 0, {}]]]}, {"class_name": "Activation", "config": {"name": "activation_95", "trainable": false, "dtype": "float32", "activation": "relu"}, "name": "activation_95", "inbound_nodes": [[["batch_normalization_95", 0, 0, {}]]]}, {"class_name": "Conv2D", "config": {"name": "conv2d_96", "trainable": false, "dtype": "float32", "filters": 64, "kernel_size": [3, 3], "strides": [1, 1], "padding": "same", "data_format": "channels_last", "dilation_rate": [1, 1], "groups": 1, "activation": "linear", "use_bias": false, "kernel_initializer": {"class_name": "GlorotUniform", "config": {"seed": null}}, "bias_initializer": {"class_name": "Zeros", "config": {}}, "kernel_regularizer": null, "bias_regularizer": null, "activity_regularizer": null, "kernel_constraint": null, "bias_constraint": null}, "name": "conv2d_96", "inbound_nodes": [[["activation_95", 0, 0, {}]]]}, {"class_name": "BatchNormalization", "config": {"name": "batch_normalization_96", "trainable": false, "dtype": "float32", "axis": [3], "momentum": 0.99, "epsilon": 0.001, "center": true, "scale": false, "beta_initializer": {"class_name": "Zeros", "config": {}}, "gamma_initializer": {"class_name": "Ones", "config": {}}, "moving_mean_initializer": {"class_name": "Zeros", "config": {}}, "moving_variance_initializer": {"class_name": "Ones", "config": {}}, "beta_regularizer": null, "gamma_regularizer": null, "beta_constraint": null, "gamma_constraint": null}, "name": "batch_normalization_96", "inbound_nodes": [[["conv2d_96", 0, 0, {}]]]}, {"class_name": "Activation", "config": {"name": "activation_96", "trainable": false, "dtype": "float32", "activation": "relu"}, "name": "activation_96", "inbound_nodes": [[["batch_normalization_96", 0, 0, {}]]]}, {"class_name": "MaxPooling2D", "config": {"name": "max_pooling2d_4", "trainable": false, "dtype": "float32", "pool_size": [3, 3], "padding": "valid", "strides": [2, 2], "data_format": "channels_last"}, "name": "max_pooling2d_4", "inbound_nodes": [[["activation_96", 0, 0, {}]]]}, {"class_name": "Conv2D", "config": {"name": "conv2d_97", "trainable": false, "dtype": "float32", "filters": 80, "kernel_size": [1, 1], "strides": [1, 1], "padding": "valid", "data_format": "channels_last", "dilation_rate": [1, 1], "groups": 1, "activation": "linear", "use_bias": false, "kernel_initializer": {"class_name": "GlorotUniform", "config": {"seed": null}}, "bias_initializer": {"class_name": "Zeros", "config": {}}, "kernel_regularizer": null, "bias_regularizer": null, "activity_regularizer": null, "kernel_constraint": null, "bias_constraint": null}, "name": "conv2d_97", "inbound_nodes": [[["max_pooling2d_4", 0, 0, {}]]]}, {"class_name": "BatchNormalization", "config": {"name": "batch_normalization_97", "trainable": false, "dtype": "float32", "axis": [3], "momentum": 0.99, "epsilon": 0.001, "center": true, "scale": false, "beta_initializer": {"class_name": "Zeros", "config": {}}, "gamma_initializer": {"class_name": "Ones", "config": {}}, "moving_mean_initializer": {"class_name": "Zeros", "config": {}}, "moving_variance_initializer": {"class_name": "Ones", "config": {}}, "beta_regularizer": null, "gamma_regularizer": null, "beta_constraint": null, "gamma_constraint": null}, "name": "batch_normalization_97", "inbound_nodes": [[["conv2d_97", 0, 0, {}]]]}, {"class_name": "Activation", "config": {"name": "activation_97", "trainable": false, "dtype": "float32", "activation": "relu"}, "name": "activation_97", "inbound_nodes": [[["batch_normalization_97", 0, 0, {}]]]}, {"class_name": "Conv2D", "config": {"name": "conv2d_98", "trainable": false, "dtype": "float32", "filters": 192, "kernel_size": [3, 3], "strides": [1, 1], "padding": "valid", "data_format": "channels_last", "dilation_rate": [1, 1], "groups": 1, "activation": "linear", "use_bias": false, "kernel_initializer": {"class_name": "GlorotUniform", "config": {"seed": null}}, "bias_initializer": {"class_name": "Zeros", "config": {}}, "kernel_regularizer": null, "bias_regularizer": null, "activity_regularizer": null, "kernel_constraint": null, "bias_constraint": null}, "name": "conv2d_98", "inbound_nodes": [[["activation_97", 0, 0, {}]]]}, {"class_name": "BatchNormalization", "config": {"name": "batch_normalization_98", "trainable": false, "dtype": "float32", "axis": [3], "momentum": 0.99, "epsilon": 0.001, "center": true, "scale": false, "beta_initializer": {"class_name": "Zeros", "config": {}}, "gamma_initializer": {"class_name": "Ones", "config": {}}, "moving_mean_initializer": {"class_name": "Zeros", "config": {}}, "moving_variance_initializer": {"class_name": "Ones", "config": {}}, "beta_regularizer": null, "gamma_regularizer": null, "beta_constraint": null, "gamma_constraint": null}, "name": "batch_normalization_98", "inbound_nodes": [[["conv2d_98", 0, 0, {}]]]}, {"class_name": "Activation", "config": {"name": "activation_98", "trainable": false, "dtype": "float32", "activation": "relu"}, "name": "activation_98", "inbound_nodes": [[["batch_normalization_98", 0, 0, {}]]]}, {"class_name": "MaxPooling2D", "config": {"name": "max_pooling2d_5", "trainable": false, "dtype": "float32", "pool_size": [3, 3], "padding": "valid", "strides": [2, 2], "data_format": "channels_last"}, "name": "max_pooling2d_5", "inbound_nodes": [[["activation_98", 0, 0, {}]]]}, {"class_name": "Conv2D", "config": {"name": "conv2d_102", "trainable": false, "dtype": "float32", "filters": 64, "kernel_size": [1, 1], "strides": [1, 1], "padding": "same", "data_format": "channels_last", "dilation_rate": [1, 1], "groups": 1, "activation": "linear", "use_bias": false, "kernel_initializer": {"class_name": "GlorotUniform", "config": {"seed": null}}, "bias_initializer": {"class_name": "Zeros", "config": {}}, "kernel_regularizer": null, "bias_regularizer": null, "activity_regularizer": null, "kernel_constraint": null, "bias_constraint": null}, "name": "conv2d_102", "inbound_nodes": [[["max_pooling2d_5", 0, 0, {}]]]}, {"class_name": "BatchNormalization", "config": {"name": "batch_normalization_102", "trainable": false, "dtype": "float32", "axis": [3], "momentum": 0.99, "epsilon": 0.001, "center": true, "scale": false, "beta_initializer": {"class_name": "Zeros", "config": {}}, "gamma_initializer": {"class_name": "Ones", "config": {}}, "moving_mean_initializer": {"class_name": "Zeros", "config": {}}, "moving_variance_initializer": {"class_name": "Ones", "config": {}}, "beta_regularizer": null, "gamma_regularizer": null, "beta_constraint": null, "gamma_constraint": null}, "name": "batch_normalization_102", "inbound_nodes": [[["conv2d_102", 0, 0, {}]]]}, {"class_name": "Activation", "config": {"name": "activation_102", "trainable": false, "dtype": "float32", "activation": "relu"}, "name": "activation_102", "inbound_nodes": [[["batch_normalization_102", 0, 0, {}]]]}, {"class_name": "Conv2D", "config": {"name": "conv2d_100", "trainable": false, "dtype": "float32", "filters": 48, "kernel_size": [1, 1], "strides": [1, 1], "padding": "same", "data_format": "channels_last", "dilation_rate": [1, 1], "groups": 1, "activation": "linear", "use_bias": false, "kernel_initializer": {"class_name": "GlorotUniform", "config": {"seed": null}}, "bias_initializer": {"class_name": "Zeros", "config": {}}, "kernel_regularizer": null, "bias_regularizer": null, "activity_regularizer": null, "kernel_constraint": null, "bias_constraint": null}, "name": "conv2d_100", "inbound_nodes": [[["max_pooling2d_5", 0, 0, {}]]]}, {"class_name": "Conv2D", "config": {"name": "conv2d_103", "trainable": false, "dtype": "float32", "filters": 96, "kernel_size": [3, 3], "strides": [1, 1], "padding": "same", "data_format": "channels_last", "dilation_rate": [1, 1], "groups": 1, "activation": "linear", "use_bias": false, "kernel_initializer": {"class_name": "GlorotUniform", "config": {"seed": null}}, "bias_initializer": {"class_name": "Zeros", "config": {}}, "kernel_regularizer": null, "bias_regularizer": null, "activity_regularizer": null, "kernel_constraint": null, "bias_constraint": null}, "name": "conv2d_103", "inbound_nodes": [[["activation_102", 0, 0, {}]]]}, {"class_name": "BatchNormalization", "config": {"name": "batch_normalization_100", "trainable": false, "dtype": "float32", "axis": [3], "momentum": 0.99, "epsilon": 0.001, "center": true, "scale": false, "beta_initializer": {"class_name": "Zeros", "config": {}}, "gamma_initializer": {"class_name": "Ones", "config": {}}, "moving_mean_initializer": {"class_name": "Zeros", "config": {}}, "moving_variance_initializer": {"class_name": "Ones", "config": {}}, "beta_regularizer": null, "gamma_regularizer": null, "beta_constraint": null, "gamma_constraint": null}, "name": "batch_normalization_100", "inbound_nodes": [[["conv2d_100", 0, 0, {}]]]}, {"class_name": "BatchNormalization", "config": {"name": "batch_normalization_103", "trainable": false, "dtype": "float32", "axis": [3], "momentum": 0.99, "epsilon": 0.001, "center": true, "scale": false, "beta_initializer": {"class_name": "Zeros", "config": {}}, "gamma_initializer": {"class_name": "Ones", "config": {}}, "moving_mean_initializer": {"class_name": "Zeros", "config": {}}, "moving_variance_initializer": {"class_name": "Ones", "config": {}}, "beta_regularizer": null, "gamma_regularizer": null, "beta_constraint": null, "gamma_constraint": null}, "name": "batch_normalization_103", "inbound_nodes": [[["conv2d_103", 0, 0, {}]]]}, {"class_name": "Activation", "config": {"name": "activation_100", "trainable": false, "dtype": "float32", "activation": "relu"}, "name": "activation_100", "inbound_nodes": [[["batch_normalization_100", 0, 0, {}]]]}, {"class_name": "Activation", "config": {"name": "activation_103", "trainable": false, "dtype": "float32", "activation": "relu"}, "name": "activation_103", "inbound_nodes": [[["batch_normalization_103", 0, 0, {}]]]}, {"class_name": "AveragePooling2D", "config": {"name": "average_pooling2d_9", "trainable": false, "dtype": "float32", "pool_size": [3, 3], "padding": "same", "strides": [1, 1], "data_format": "channels_last"}, "name": "average_pooling2d_9", "inbound_nodes": [[["max_pooling2d_5", 0, 0, {}]]]}, {"class_name": "Conv2D", "config": {"name": "conv2d_99", "trainable": false, "dtype": "float32", "filters": 64, "kernel_size": [1, 1], "strides": [1, 1], "padding": "same", "data_format": "channels_last", "dilation_rate": [1, 1], "groups": 1, "activation": "linear", "use_bias": false, "kernel_initializer": {"class_name": "GlorotUniform", "config": {"seed": null}}, "bias_initializer": {"class_name": "Zeros", "config": {}}, "kernel_regularizer": null, "bias_regularizer": null, "activity_regularizer": null, "kernel_constraint": null, "bias_constraint": null}, "name": "conv2d_99", "inbound_nodes": [[["max_pooling2d_5", 0, 0, {}]]]}, {"class_name": "Conv2D", "config": {"name": "conv2d_101", "trainable": false, "dtype": "float32", "filters": 64, "kernel_size": [5, 5], "strides": [1, 1], "padding": "same", "data_format": "channels_last", "dilation_rate": [1, 1], "groups": 1, "activation": "linear", "use_bias": false, "kernel_initializer": {"class_name": "GlorotUniform", "config": {"seed": null}}, "bias_initializer": {"class_name": "Zeros", "config": {}}, "kernel_regularizer": null, "bias_regularizer": null, "activity_regularizer": null, "kernel_constraint": null, "bias_constraint": null}, "name": "conv2d_101", "inbound_nodes": [[["activation_100", 0, 0, {}]]]}, {"class_name": "Conv2D", "config": {"name": "conv2d_104", "trainable": false, "dtype": "float32", "filters": 96, "kernel_size": [3, 3], "strides": [1, 1], "padding": "same", "data_format": "channels_last", "dilation_rate": [1, 1], "groups": 1, "activation": "linear", "use_bias": false, "kernel_initializer": {"class_name": "GlorotUniform", "config": {"seed": null}}, "bias_initializer": {"class_name": "Zeros", "config": {}}, "kernel_regularizer": null, "bias_regularizer": null, "activity_regularizer": null, "kernel_constraint": null, "bias_constraint": null}, "name": "conv2d_104", "inbound_nodes": [[["activation_103", 0, 0, {}]]]}, {"class_name": "Conv2D", "config": {"name": "conv2d_105", "trainable": false, "dtype": "float32", "filters": 32, "kernel_size": [1, 1], "strides": [1, 1], "padding": "same", "data_format": "channels_last", "dilation_rate": [1, 1], "groups": 1, "activation": "linear", "use_bias": false, "kernel_initializer": {"class_name": "GlorotUniform", "config": {"seed": null}}, "bias_initializer": {"class_name": "Zeros", "config": {}}, "kernel_regularizer": null, "bias_regularizer": null, "activity_regularizer": null, "kernel_constraint": null, "bias_constraint": null}, "name": "conv2d_105", "inbound_nodes": [[["average_pooling2d_9", 0, 0, {}]]]}, {"class_name": "BatchNormalization", "config": {"name": "batch_normalization_99", "trainable": false, "dtype": "float32", "axis": [3], "momentum": 0.99, "epsilon": 0.001, "center": true, "scale": false, "beta_initializer": {"class_name": "Zeros", "config": {}}, "gamma_initializer": {"class_name": "Ones", "config": {}}, "moving_mean_initializer": {"class_name": "Zeros", "config": {}}, "moving_variance_initializer": {"class_name": "Ones", "config": {}}, "beta_regularizer": null, "gamma_regularizer": null, "beta_constraint": null, "gamma_constraint": null}, "name": "batch_normalization_99", "inbound_nodes": [[["conv2d_99", 0, 0, {}]]]}, {"class_name": "BatchNormalization", "config": {"name": "batch_normalization_101", "trainable": false, "dtype": "float32", "axis": [3], "momentum": 0.99, "epsilon": 0.001, "center": true, "scale": false, "beta_initializer": {"class_name": "Zeros", "config": {}}, "gamma_initializer": {"class_name": "Ones", "config": {}}, "moving_mean_initializer": {"class_name": "Zeros", "config": {}}, "moving_variance_initializer": {"class_name": "Ones", "config": {}}, "beta_regularizer": null, "gamma_regularizer": null, "beta_constraint": null, "gamma_constraint": null}, "name": "batch_normalization_101", "inbound_nodes": [[["conv2d_101", 0, 0, {}]]]}, {"class_name": "BatchNormalization", "config": {"name": "batch_normalization_104", "trainable": false, "dtype": "float32", "axis": [3], "momentum": 0.99, "epsilon": 0.001, "center": true, "scale": false, "beta_initializer": {"class_name": "Zeros", "config": {}}, "gamma_initializer": {"class_name": "Ones", "config": {}}, "moving_mean_initializer": {"class_name": "Zeros", "config": {}}, "moving_variance_initializer": {"class_name": "Ones", "config": {}}, "beta_regularizer": null, "gamma_regularizer": null, "beta_constraint": null, "gamma_constraint": null}, "name": "batch_normalization_104", "inbound_nodes": [[["conv2d_104", 0, 0, {}]]]}, {"class_name": "BatchNormalization", "config": {"name": "batch_normalization_105", "trainable": false, "dtype": "float32", "axis": [3], "momentum": 0.99, "epsilon": 0.001, "center": true, "scale": false, "beta_initializer": {"class_name": "Zeros", "config": {}}, "gamma_initializer": {"class_name": "Ones", "config": {}}, "moving_mean_initializer": {"class_name": "Zeros", "config": {}}, "moving_variance_initializer": {"class_name": "Ones", "config": {}}, "beta_regularizer": null, "gamma_regularizer": null, "beta_constraint": null, "gamma_constraint": null}, "name": "batch_normalization_105", "inbound_nodes": [[["conv2d_105", 0, 0, {}]]]}, {"class_name": "Activation", "config": {"name": "activation_99", "trainable": false, "dtype": "float32", "activation": "relu"}, "name": "activation_99", "inbound_nodes": [[["batch_normalization_99", 0, 0, {}]]]}, {"class_name": "Activation", "config": {"name": "activation_101", "trainable": false, "dtype": "float32", "activation": "relu"}, "name": "activation_101", "inbound_nodes": [[["batch_normalization_101", 0, 0, {}]]]}, {"class_name": "Activation", "config": {"name": "activation_104", "trainable": false, "dtype": "float32", "activation": "relu"}, "name": "activation_104", "inbound_nodes": [[["batch_normalization_104", 0, 0, {}]]]}, {"class_name": "Activation", "config": {"name": "activation_105", "trainable": false, "dtype": "float32", "activation": "relu"}, "name": "activation_105", "inbound_nodes": [[["batch_normalization_105", 0, 0, {}]]]}, {"class_name": "Concatenate", "config": {"name": "mixed0", "trainable": false, "dtype": "float32", "axis": 3}, "name": "mixed0", "inbound_nodes": [[["activation_99", 0, 0, {}], ["activation_101", 0, 0, {}], ["activation_104", 0, 0, {}], ["activation_105", 0, 0, {}]]]}, {"class_name": "Conv2D", "config": {"name": "conv2d_109", "trainable": false, "dtype": "float32", "filters": 64, "kernel_size": [1, 1], "strides": [1, 1], "padding": "same", "data_format": "channels_last", "dilation_rate": [1, 1], "groups": 1, "activation": "linear", "use_bias": false, "kernel_initializer": {"class_name": "GlorotUniform", "config": {"seed": null}}, "bias_initializer": {"class_name": "Zeros", "config": {}}, "kernel_regularizer": null, "bias_regularizer": null, "activity_regularizer": null, "kernel_constraint": null, "bias_constraint": null}, "name": "conv2d_109", "inbound_nodes": [[["mixed0", 0, 0, {}]]]}, {"class_name": "BatchNormalization", "config": {"name": "batch_normalization_109", "trainable": false, "dtype": "float32", "axis": [3], "momentum": 0.99, "epsilon": 0.001, "center": true, "scale": false, "beta_initializer": {"class_name": "Zeros", "config": {}}, "gamma_initializer": {"class_name": "Ones", "config": {}}, "moving_mean_initializer": {"class_name": "Zeros", "config": {}}, "moving_variance_initializer": {"class_name": "Ones", "config": {}}, "beta_regularizer": null, "gamma_regularizer": null, "beta_constraint": null, "gamma_constraint": null}, "name": "batch_normalization_109", "inbound_nodes": [[["conv2d_109", 0, 0, {}]]]}, {"class_name": "Activation", "config": {"name": "activation_109", "trainable": false, "dtype": "float32", "activation": "relu"}, "name": "activation_109", "inbound_nodes": [[["batch_normalization_109", 0, 0, {}]]]}, {"class_name": "Conv2D", "config": {"name": "conv2d_107", "trainable": false, "dtype": "float32", "filters": 48, "kernel_size": [1, 1], "strides": [1, 1], "padding": "same", "data_format": "channels_last", "dilation_rate": [1, 1], "groups": 1, "activation": "linear", "use_bias": false, "kernel_initializer": {"class_name": "GlorotUniform", "config": {"seed": null}}, "bias_initializer": {"class_name": "Zeros", "config": {}}, "kernel_regularizer": null, "bias_regularizer": null, "activity_regularizer": null, "kernel_constraint": null, "bias_constraint": null}, "name": "conv2d_107", "inbound_nodes": [[["mixed0", 0, 0, {}]]]}, {"class_name": "Conv2D", "config": {"name": "conv2d_110", "trainable": false, "dtype": "float32", "filters": 96, "kernel_size": [3, 3], "strides": [1, 1], "padding": "same", "data_format": "channels_last", "dilation_rate": [1, 1], "groups": 1, "activation": "linear", "use_bias": false, "kernel_initializer": {"class_name": "GlorotUniform", "config": {"seed": null}}, "bias_initializer": {"class_name": "Zeros", "config": {}}, "kernel_regularizer": null, "bias_regularizer": null, "activity_regularizer": null, "kernel_constraint": null, "bias_constraint": null}, "name": "conv2d_110", "inbound_nodes": [[["activation_109", 0, 0, {}]]]}, {"class_name": "BatchNormalization", "config": {"name": "batch_normalization_107", "trainable": false, "dtype": "float32", "axis": [3], "momentum": 0.99, "epsilon": 0.001, "center": true, "scale": false, "beta_initializer": {"class_name": "Zeros", "config": {}}, "gamma_initializer": {"class_name": "Ones", "config": {}}, "moving_mean_initializer": {"class_name": "Zeros", "config": {}}, "moving_variance_initializer": {"class_name": "Ones", "config": {}}, "beta_regularizer": null, "gamma_regularizer": null, "beta_constraint": null, "gamma_constraint": null}, "name": "batch_normalization_107", "inbound_nodes": [[["conv2d_107", 0, 0, {}]]]}, {"class_name": "BatchNormalization", "config": {"name": "batch_normalization_110", "trainable": false, "dtype": "float32", "axis": [3], "momentum": 0.99, "epsilon": 0.001, "center": true, "scale": false, "beta_initializer": {"class_name": "Zeros", "config": {}}, "gamma_initializer": {"class_name": "Ones", "config": {}}, "moving_mean_initializer": {"class_name": "Zeros", "config": {}}, "moving_variance_initializer": {"class_name": "Ones", "config": {}}, "beta_regularizer": null, "gamma_regularizer": null, "beta_constraint": null, "gamma_constraint": null}, "name": "batch_normalization_110", "inbound_nodes": [[["conv2d_110", 0, 0, {}]]]}, {"class_name": "Activation", "config": {"name": "activation_107", "trainable": false, "dtype": "float32", "activation": "relu"}, "name": "activation_107", "inbound_nodes": [[["batch_normalization_107", 0, 0, {}]]]}, {"class_name": "Activation", "config": {"name": "activation_110", "trainable": false, "dtype": "float32", "activation": "relu"}, "name": "activation_110", "inbound_nodes": [[["batch_normalization_110", 0, 0, {}]]]}, {"class_name": "AveragePooling2D", "config": {"name": "average_pooling2d_10", "trainable": false, "dtype": "float32", "pool_size": [3, 3], "padding": "same", "strides": [1, 1], "data_format": "channels_last"}, "name": "average_pooling2d_10", "inbound_nodes": [[["mixed0", 0, 0, {}]]]}, {"class_name": "Conv2D", "config": {"name": "conv2d_106", "trainable": false, "dtype": "float32", "filters": 64, "kernel_size": [1, 1], "strides": [1, 1], "padding": "same", "data_format": "channels_last", "dilation_rate": [1, 1], "groups": 1, "activation": "linear", "use_bias": false, "kernel_initializer": {"class_name": "GlorotUniform", "config": {"seed": null}}, "bias_initializer": {"class_name": "Zeros", "config": {}}, "kernel_regularizer": null, "bias_regularizer": null, "activity_regularizer": null, "kernel_constraint": null, "bias_constraint": null}, "name": "conv2d_106", "inbound_nodes": [[["mixed0", 0, 0, {}]]]}, {"class_name": "Conv2D", "config": {"name": "conv2d_108", "trainable": false, "dtype": "float32", "filters": 64, "kernel_size": [5, 5], "strides": [1, 1], "padding": "same", "data_format": "channels_last", "dilation_rate": [1, 1], "groups": 1, "activation": "linear", "use_bias": false, "kernel_initializer": {"class_name": "GlorotUniform", "config": {"seed": null}}, "bias_initializer": {"class_name": "Zeros", "config": {}}, "kernel_regularizer": null, "bias_regularizer": null, "activity_regularizer": null, "kernel_constraint": null, "bias_constraint": null}, "name": "conv2d_108", "inbound_nodes": [[["activation_107", 0, 0, {}]]]}, {"class_name": "Conv2D", "config": {"name": "conv2d_111", "trainable": false, "dtype": "float32", "filters": 96, "kernel_size": [3, 3], "strides": [1, 1], "padding": "same", "data_format": "channels_last", "dilation_rate": [1, 1], "groups": 1, "activation": "linear", "use_bias": false, "kernel_initializer": {"class_name": "GlorotUniform", "config": {"seed": null}}, "bias_initializer": {"class_name": "Zeros", "config": {}}, "kernel_regularizer": null, "bias_regularizer": null, "activity_regularizer": null, "kernel_constraint": null, "bias_constraint": null}, "name": "conv2d_111", "inbound_nodes": [[["activation_110", 0, 0, {}]]]}, {"class_name": "Conv2D", "config": {"name": "conv2d_112", "trainable": false, "dtype": "float32", "filters": 64, "kernel_size": [1, 1], "strides": [1, 1], "padding": "same", "data_format": "channels_last", "dilation_rate": [1, 1], "groups": 1, "activation": "linear", "use_bias": false, "kernel_initializer": {"class_name": "GlorotUniform", "config": {"seed": null}}, "bias_initializer": {"class_name": "Zeros", "config": {}}, "kernel_regularizer": null, "bias_regularizer": null, "activity_regularizer": null, "kernel_constraint": null, "bias_constraint": null}, "name": "conv2d_112", "inbound_nodes": [[["average_pooling2d_10", 0, 0, {}]]]}, {"class_name": "BatchNormalization", "config": {"name": "batch_normalization_106", "trainable": false, "dtype": "float32", "axis": [3], "momentum": 0.99, "epsilon": 0.001, "center": true, "scale": false, "beta_initializer": {"class_name": "Zeros", "config": {}}, "gamma_initializer": {"class_name": "Ones", "config": {}}, "moving_mean_initializer": {"class_name": "Zeros", "config": {}}, "moving_variance_initializer": {"class_name": "Ones", "config": {}}, "beta_regularizer": null, "gamma_regularizer": null, "beta_constraint": null, "gamma_constraint": null}, "name": "batch_normalization_106", "inbound_nodes": [[["conv2d_106", 0, 0, {}]]]}, {"class_name": "BatchNormalization", "config": {"name": "batch_normalization_108", "trainable": false, "dtype": "float32", "axis": [3], "momentum": 0.99, "epsilon": 0.001, "center": true, "scale": false, "beta_initializer": {"class_name": "Zeros", "config": {}}, "gamma_initializer": {"class_name": "Ones", "config": {}}, "moving_mean_initializer": {"class_name": "Zeros", "config": {}}, "moving_variance_initializer": {"class_name": "Ones", "config": {}}, "beta_regularizer": null, "gamma_regularizer": null, "beta_constraint": null, "gamma_constraint": null}, "name": "batch_normalization_108", "inbound_nodes": [[["conv2d_108", 0, 0, {}]]]}, {"class_name": "BatchNormalization", "config": {"name": "batch_normalization_111", "trainable": false, "dtype": "float32", "axis": [3], "momentum": 0.99, "epsilon": 0.001, "center": true, "scale": false, "beta_initializer": {"class_name": "Zeros", "config": {}}, "gamma_initializer": {"class_name": "Ones", "config": {}}, "moving_mean_initializer": {"class_name": "Zeros", "config": {}}, "moving_variance_initializer": {"class_name": "Ones", "config": {}}, "beta_regularizer": null, "gamma_regularizer": null, "beta_constraint": null, "gamma_constraint": null}, "name": "batch_normalization_111", "inbound_nodes": [[["conv2d_111", 0, 0, {}]]]}, {"class_name": "BatchNormalization", "config": {"name": "batch_normalization_112", "trainable": false, "dtype": "float32", "axis": [3], "momentum": 0.99, "epsilon": 0.001, "center": true, "scale": false, "beta_initializer": {"class_name": "Zeros", "config": {}}, "gamma_initializer": {"class_name": "Ones", "config": {}}, "moving_mean_initializer": {"class_name": "Zeros", "config": {}}, "moving_variance_initializer": {"class_name": "Ones", "config": {}}, "beta_regularizer": null, "gamma_regularizer": null, "beta_constraint": null, "gamma_constraint": null}, "name": "batch_normalization_112", "inbound_nodes": [[["conv2d_112", 0, 0, {}]]]}, {"class_name": "Activation", "config": {"name": "activation_106", "trainable": false, "dtype": "float32", "activation": "relu"}, "name": "activation_106", "inbound_nodes": [[["batch_normalization_106", 0, 0, {}]]]}, {"class_name": "Activation", "config": {"name": "activation_108", "trainable": false, "dtype": "float32", "activation": "relu"}, "name": "activation_108", "inbound_nodes": [[["batch_normalization_108", 0, 0, {}]]]}, {"class_name": "Activation", "config": {"name": "activation_111", "trainable": false, "dtype": "float32", "activation": "relu"}, "name": "activation_111", "inbound_nodes": [[["batch_normalization_111", 0, 0, {}]]]}, {"class_name": "Activation", "config": {"name": "activation_112", "trainable": false, "dtype": "float32", "activation": "relu"}, "name": "activation_112", "inbound_nodes": [[["batch_normalization_112", 0, 0, {}]]]}, {"class_name": "Concatenate", "config": {"name": "mixed1", "trainable": false, "dtype": "float32", "axis": 3}, "name": "mixed1", "inbound_nodes": [[["activation_106", 0, 0, {}], ["activation_108", 0, 0, {}], ["activation_111", 0, 0, {}], ["activation_112", 0, 0, {}]]]}, {"class_name": "Conv2D", "config": {"name": "conv2d_116", "trainable": false, "dtype": "float32", "filters": 64, "kernel_size": [1, 1], "strides": [1, 1], "padding": "same", "data_format": "channels_last", "dilation_rate": [1, 1], "groups": 1, "activation": "linear", "use_bias": false, "kernel_initializer": {"class_name": "GlorotUniform", "config": {"seed": null}}, "bias_initializer": {"class_name": "Zeros", "config": {}}, "kernel_regularizer": null, "bias_regularizer": null, "activity_regularizer": null, "kernel_constraint": null, "bias_constraint": null}, "name": "conv2d_116", "inbound_nodes": [[["mixed1", 0, 0, {}]]]}, {"class_name": "BatchNormalization", "config": {"name": "batch_normalization_116", "trainable": false, "dtype": "float32", "axis": [3], "momentum": 0.99, "epsilon": 0.001, "center": true, "scale": false, "beta_initializer": {"class_name": "Zeros", "config": {}}, "gamma_initializer": {"class_name": "Ones", "config": {}}, "moving_mean_initializer": {"class_name": "Zeros", "config": {}}, "moving_variance_initializer": {"class_name": "Ones", "config": {}}, "beta_regularizer": null, "gamma_regularizer": null, "beta_constraint": null, "gamma_constraint": null}, "name": "batch_normalization_116", "inbound_nodes": [[["conv2d_116", 0, 0, {}]]]}, {"class_name": "Activation", "config": {"name": "activation_116", "trainable": false, "dtype": "float32", "activation": "relu"}, "name": "activation_116", "inbound_nodes": [[["batch_normalization_116", 0, 0, {}]]]}, {"class_name": "Conv2D", "config": {"name": "conv2d_114", "trainable": false, "dtype": "float32", "filters": 48, "kernel_size": [1, 1], "strides": [1, 1], "padding": "same", "data_format": "channels_last", "dilation_rate": [1, 1], "groups": 1, "activation": "linear", "use_bias": false, "kernel_initializer": {"class_name": "GlorotUniform", "config": {"seed": null}}, "bias_initializer": {"class_name": "Zeros", "config": {}}, "kernel_regularizer": null, "bias_regularizer": null, "activity_regularizer": null, "kernel_constraint": null, "bias_constraint": null}, "name": "conv2d_114", "inbound_nodes": [[["mixed1", 0, 0, {}]]]}, {"class_name": "Conv2D", "config": {"name": "conv2d_117", "trainable": false, "dtype": "float32", "filters": 96, "kernel_size": [3, 3], "strides": [1, 1], "padding": "same", "data_format": "channels_last", "dilation_rate": [1, 1], "groups": 1, "activation": "linear", "use_bias": false, "kernel_initializer": {"class_name": "GlorotUniform", "config": {"seed": null}}, "bias_initializer": {"class_name": "Zeros", "config": {}}, "kernel_regularizer": null, "bias_regularizer": null, "activity_regularizer": null, "kernel_constraint": null, "bias_constraint": null}, "name": "conv2d_117", "inbound_nodes": [[["activation_116", 0, 0, {}]]]}, {"class_name": "BatchNormalization", "config": {"name": "batch_normalization_114", "trainable": false, "dtype": "float32", "axis": [3], "momentum": 0.99, "epsilon": 0.001, "center": true, "scale": false, "beta_initializer": {"class_name": "Zeros", "config": {}}, "gamma_initializer": {"class_name": "Ones", "config": {}}, "moving_mean_initializer": {"class_name": "Zeros", "config": {}}, "moving_variance_initializer": {"class_name": "Ones", "config": {}}, "beta_regularizer": null, "gamma_regularizer": null, "beta_constraint": null, "gamma_constraint": null}, "name": "batch_normalization_114", "inbound_nodes": [[["conv2d_114", 0, 0, {}]]]}, {"class_name": "BatchNormalization", "config": {"name": "batch_normalization_117", "trainable": false, "dtype": "float32", "axis": [3], "momentum": 0.99, "epsilon": 0.001, "center": true, "scale": false, "beta_initializer": {"class_name": "Zeros", "config": {}}, "gamma_initializer": {"class_name": "Ones", "config": {}}, "moving_mean_initializer": {"class_name": "Zeros", "config": {}}, "moving_variance_initializer": {"class_name": "Ones", "config": {}}, "beta_regularizer": null, "gamma_regularizer": null, "beta_constraint": null, "gamma_constraint": null}, "name": "batch_normalization_117", "inbound_nodes": [[["conv2d_117", 0, 0, {}]]]}, {"class_name": "Activation", "config": {"name": "activation_114", "trainable": false, "dtype": "float32", "activation": "relu"}, "name": "activation_114", "inbound_nodes": [[["batch_normalization_114", 0, 0, {}]]]}, {"class_name": "Activation", "config": {"name": "activation_117", "trainable": false, "dtype": "float32", "activation": "relu"}, "name": "activation_117", "inbound_nodes": [[["batch_normalization_117", 0, 0, {}]]]}, {"class_name": "AveragePooling2D", "config": {"name": "average_pooling2d_11", "trainable": false, "dtype": "float32", "pool_size": [3, 3], "padding": "same", "strides": [1, 1], "data_format": "channels_last"}, "name": "average_pooling2d_11", "inbound_nodes": [[["mixed1", 0, 0, {}]]]}, {"class_name": "Conv2D", "config": {"name": "conv2d_113", "trainable": false, "dtype": "float32", "filters": 64, "kernel_size": [1, 1], "strides": [1, 1], "padding": "same", "data_format": "channels_last", "dilation_rate": [1, 1], "groups": 1, "activation": "linear", "use_bias": false, "kernel_initializer": {"class_name": "GlorotUniform", "config": {"seed": null}}, "bias_initializer": {"class_name": "Zeros", "config": {}}, "kernel_regularizer": null, "bias_regularizer": null, "activity_regularizer": null, "kernel_constraint": null, "bias_constraint": null}, "name": "conv2d_113", "inbound_nodes": [[["mixed1", 0, 0, {}]]]}, {"class_name": "Conv2D", "config": {"name": "conv2d_115", "trainable": false, "dtype": "float32", "filters": 64, "kernel_size": [5, 5], "strides": [1, 1], "padding": "same", "data_format": "channels_last", "dilation_rate": [1, 1], "groups": 1, "activation": "linear", "use_bias": false, "kernel_initializer": {"class_name": "GlorotUniform", "config": {"seed": null}}, "bias_initializer": {"class_name": "Zeros", "config": {}}, "kernel_regularizer": null, "bias_regularizer": null, "activity_regularizer": null, "kernel_constraint": null, "bias_constraint": null}, "name": "conv2d_115", "inbound_nodes": [[["activation_114", 0, 0, {}]]]}, {"class_name": "Conv2D", "config": {"name": "conv2d_118", "trainable": false, "dtype": "float32", "filters": 96, "kernel_size": [3, 3], "strides": [1, 1], "padding": "same", "data_format": "channels_last", "dilation_rate": [1, 1], "groups": 1, "activation": "linear", "use_bias": false, "kernel_initializer": {"class_name": "GlorotUniform", "config": {"seed": null}}, "bias_initializer": {"class_name": "Zeros", "config": {}}, "kernel_regularizer": null, "bias_regularizer": null, "activity_regularizer": null, "kernel_constraint": null, "bias_constraint": null}, "name": "conv2d_118", "inbound_nodes": [[["activation_117", 0, 0, {}]]]}, {"class_name": "Conv2D", "config": {"name": "conv2d_119", "trainable": false, "dtype": "float32", "filters": 64, "kernel_size": [1, 1], "strides": [1, 1], "padding": "same", "data_format": "channels_last", "dilation_rate": [1, 1], "groups": 1, "activation": "linear", "use_bias": false, "kernel_initializer": {"class_name": "GlorotUniform", "config": {"seed": null}}, "bias_initializer": {"class_name": "Zeros", "config": {}}, "kernel_regularizer": null, "bias_regularizer": null, "activity_regularizer": null, "kernel_constraint": null, "bias_constraint": null}, "name": "conv2d_119", "inbound_nodes": [[["average_pooling2d_11", 0, 0, {}]]]}, {"class_name": "BatchNormalization", "config": {"name": "batch_normalization_113", "trainable": false, "dtype": "float32", "axis": [3], "momentum": 0.99, "epsilon": 0.001, "center": true, "scale": false, "beta_initializer": {"class_name": "Zeros", "config": {}}, "gamma_initializer": {"class_name": "Ones", "config": {}}, "moving_mean_initializer": {"class_name": "Zeros", "config": {}}, "moving_variance_initializer": {"class_name": "Ones", "config": {}}, "beta_regularizer": null, "gamma_regularizer": null, "beta_constraint": null, "gamma_constraint": null}, "name": "batch_normalization_113", "inbound_nodes": [[["conv2d_113", 0, 0, {}]]]}, {"class_name": "BatchNormalization", "config": {"name": "batch_normalization_115", "trainable": false, "dtype": "float32", "axis": [3], "momentum": 0.99, "epsilon": 0.001, "center": true, "scale": false, "beta_initializer": {"class_name": "Zeros", "config": {}}, "gamma_initializer": {"class_name": "Ones", "config": {}}, "moving_mean_initializer": {"class_name": "Zeros", "config": {}}, "moving_variance_initializer": {"class_name": "Ones", "config": {}}, "beta_regularizer": null, "gamma_regularizer": null, "beta_constraint": null, "gamma_constraint": null}, "name": "batch_normalization_115", "inbound_nodes": [[["conv2d_115", 0, 0, {}]]]}, {"class_name": "BatchNormalization", "config": {"name": "batch_normalization_118", "trainable": false, "dtype": "float32", "axis": [3], "momentum": 0.99, "epsilon": 0.001, "center": true, "scale": false, "beta_initializer": {"class_name": "Zeros", "config": {}}, "gamma_initializer": {"class_name": "Ones", "config": {}}, "moving_mean_initializer": {"class_name": "Zeros", "config": {}}, "moving_variance_initializer": {"class_name": "Ones", "config": {}}, "beta_regularizer": null, "gamma_regularizer": null, "beta_constraint": null, "gamma_constraint": null}, "name": "batch_normalization_118", "inbound_nodes": [[["conv2d_118", 0, 0, {}]]]}, {"class_name": "BatchNormalization", "config": {"name": "batch_normalization_119", "trainable": false, "dtype": "float32", "axis": [3], "momentum": 0.99, "epsilon": 0.001, "center": true, "scale": false, "beta_initializer": {"class_name": "Zeros", "config": {}}, "gamma_initializer": {"class_name": "Ones", "config": {}}, "moving_mean_initializer": {"class_name": "Zeros", "config": {}}, "moving_variance_initializer": {"class_name": "Ones", "config": {}}, "beta_regularizer": null, "gamma_regularizer": null, "beta_constraint": null, "gamma_constraint": null}, "name": "batch_normalization_119", "inbound_nodes": [[["conv2d_119", 0, 0, {}]]]}, {"class_name": "Activation", "config": {"name": "activation_113", "trainable": false, "dtype": "float32", "activation": "relu"}, "name": "activation_113", "inbound_nodes": [[["batch_normalization_113", 0, 0, {}]]]}, {"class_name": "Activation", "config": {"name": "activation_115", "trainable": false, "dtype": "float32", "activation": "relu"}, "name": "activation_115", "inbound_nodes": [[["batch_normalization_115", 0, 0, {}]]]}, {"class_name": "Activation", "config": {"name": "activation_118", "trainable": false, "dtype": "float32", "activation": "relu"}, "name": "activation_118", "inbound_nodes": [[["batch_normalization_118", 0, 0, {}]]]}, {"class_name": "Activation", "config": {"name": "activation_119", "trainable": false, "dtype": "float32", "activation": "relu"}, "name": "activation_119", "inbound_nodes": [[["batch_normalization_119", 0, 0, {}]]]}, {"class_name": "Concatenate", "config": {"name": "mixed2", "trainable": false, "dtype": "float32", "axis": 3}, "name": "mixed2", "inbound_nodes": [[["activation_113", 0, 0, {}], ["activation_115", 0, 0, {}], ["activation_118", 0, 0, {}], ["activation_119", 0, 0, {}]]]}, {"class_name": "Conv2D", "config": {"name": "conv2d_121", "trainable": false, "dtype": "float32", "filters": 64, "kernel_size": [1, 1], "strides": [1, 1], "padding": "same", "data_format": "channels_last", "dilation_rate": [1, 1], "groups": 1, "activation": "linear", "use_bias": false, "kernel_initializer": {"class_name": "GlorotUniform", "config": {"seed": null}}, "bias_initializer": {"class_name": "Zeros", "config": {}}, "kernel_regularizer": null, "bias_regularizer": null, "activity_regularizer": null, "kernel_constraint": null, "bias_constraint": null}, "name": "conv2d_121", "inbound_nodes": [[["mixed2", 0, 0, {}]]]}, {"class_name": "BatchNormalization", "config": {"name": "batch_normalization_121", "trainable": false, "dtype": "float32", "axis": [3], "momentum": 0.99, "epsilon": 0.001, "center": true, "scale": false, "beta_initializer": {"class_name": "Zeros", "config": {}}, "gamma_initializer": {"class_name": "Ones", "config": {}}, "moving_mean_initializer": {"class_name": "Zeros", "config": {}}, "moving_variance_initializer": {"class_name": "Ones", "config": {}}, "beta_regularizer": null, "gamma_regularizer": null, "beta_constraint": null, "gamma_constraint": null}, "name": "batch_normalization_121", "inbound_nodes": [[["conv2d_121", 0, 0, {}]]]}, {"class_name": "Activation", "config": {"name": "activation_121", "trainable": false, "dtype": "float32", "activation": "relu"}, "name": "activation_121", "inbound_nodes": [[["batch_normalization_121", 0, 0, {}]]]}, {"class_name": "Conv2D", "config": {"name": "conv2d_122", "trainable": false, "dtype": "float32", "filters": 96, "kernel_size": [3, 3], "strides": [1, 1], "padding": "same", "data_format": "channels_last", "dilation_rate": [1, 1], "groups": 1, "activation": "linear", "use_bias": false, "kernel_initializer": {"class_name": "GlorotUniform", "config": {"seed": null}}, "bias_initializer": {"class_name": "Zeros", "config": {}}, "kernel_regularizer": null, "bias_regularizer": null, "activity_regularizer": null, "kernel_constraint": null, "bias_constraint": null}, "name": "conv2d_122", "inbound_nodes": [[["activation_121", 0, 0, {}]]]}, {"class_name": "BatchNormalization", "config": {"name": "batch_normalization_122", "trainable": false, "dtype": "float32", "axis": [3], "momentum": 0.99, "epsilon": 0.001, "center": true, "scale": false, "beta_initializer": {"class_name": "Zeros", "config": {}}, "gamma_initializer": {"class_name": "Ones", "config": {}}, "moving_mean_initializer": {"class_name": "Zeros", "config": {}}, "moving_variance_initializer": {"class_name": "Ones", "config": {}}, "beta_regularizer": null, "gamma_regularizer": null, "beta_constraint": null, "gamma_constraint": null}, "name": "batch_normalization_122", "inbound_nodes": [[["conv2d_122", 0, 0, {}]]]}, {"class_name": "Activation", "config": {"name": "activation_122", "trainable": false, "dtype": "float32", "activation": "relu"}, "name": "activation_122", "inbound_nodes": [[["batch_normalization_122", 0, 0, {}]]]}, {"class_name": "Conv2D", "config": {"name": "conv2d_120", "trainable": false, "dtype": "float32", "filters": 384, "kernel_size": [3, 3], "strides": [2, 2], "padding": "valid", "data_format": "channels_last", "dilation_rate": [1, 1], "groups": 1, "activation": "linear", "use_bias": false, "kernel_initializer": {"class_name": "GlorotUniform", "config": {"seed": null}}, "bias_initializer": {"class_name": "Zeros", "config": {}}, "kernel_regularizer": null, "bias_regularizer": null, "activity_regularizer": null, "kernel_constraint": null, "bias_constraint": null}, "name": "conv2d_120", "inbound_nodes": [[["mixed2", 0, 0, {}]]]}, {"class_name": "Conv2D", "config": {"name": "conv2d_123", "trainable": false, "dtype": "float32", "filters": 96, "kernel_size": [3, 3], "strides": [2, 2], "padding": "valid", "data_format": "channels_last", "dilation_rate": [1, 1], "groups": 1, "activation": "linear", "use_bias": false, "kernel_initializer": {"class_name": "GlorotUniform", "config": {"seed": null}}, "bias_initializer": {"class_name": "Zeros", "config": {}}, "kernel_regularizer": null, "bias_regularizer": null, "activity_regularizer": null, "kernel_constraint": null, "bias_constraint": null}, "name": "conv2d_123", "inbound_nodes": [[["activation_122", 0, 0, {}]]]}, {"class_name": "BatchNormalization", "config": {"name": "batch_normalization_120", "trainable": false, "dtype": "float32", "axis": [3], "momentum": 0.99, "epsilon": 0.001, "center": true, "scale": false, "beta_initializer": {"class_name": "Zeros", "config": {}}, "gamma_initializer": {"class_name": "Ones", "config": {}}, "moving_mean_initializer": {"class_name": "Zeros", "config": {}}, "moving_variance_initializer": {"class_name": "Ones", "config": {}}, "beta_regularizer": null, "gamma_regularizer": null, "beta_constraint": null, "gamma_constraint": null}, "name": "batch_normalization_120", "inbound_nodes": [[["conv2d_120", 0, 0, {}]]]}, {"class_name": "BatchNormalization", "config": {"name": "batch_normalization_123", "trainable": false, "dtype": "float32", "axis": [3], "momentum": 0.99, "epsilon": 0.001, "center": true, "scale": false, "beta_initializer": {"class_name": "Zeros", "config": {}}, "gamma_initializer": {"class_name": "Ones", "config": {}}, "moving_mean_initializer": {"class_name": "Zeros", "config": {}}, "moving_variance_initializer": {"class_name": "Ones", "config": {}}, "beta_regularizer": null, "gamma_regularizer": null, "beta_constraint": null, "gamma_constraint": null}, "name": "batch_normalization_123", "inbound_nodes": [[["conv2d_123", 0, 0, {}]]]}, {"class_name": "Activation", "config": {"name": "activation_120", "trainable": false, "dtype": "float32", "activation": "relu"}, "name": "activation_120", "inbound_nodes": [[["batch_normalization_120", 0, 0, {}]]]}, {"class_name": "Activation", "config": {"name": "activation_123", "trainable": false, "dtype": "float32", "activation": "relu"}, "name": "activation_123", "inbound_nodes": [[["batch_normalization_123", 0, 0, {}]]]}, {"class_name": "MaxPooling2D", "config": {"name": "max_pooling2d_6", "trainable": false, "dtype": "float32", "pool_size": [3, 3], "padding": "valid", "strides": [2, 2], "data_format": "channels_last"}, "name": "max_pooling2d_6", "inbound_nodes": [[["mixed2", 0, 0, {}]]]}, {"class_name": "Concatenate", "config": {"name": "mixed3", "trainable": false, "dtype": "float32", "axis": 3}, "name": "mixed3", "inbound_nodes": [[["activation_120", 0, 0, {}], ["activation_123", 0, 0, {}], ["max_pooling2d_6", 0, 0, {}]]]}, {"class_name": "Conv2D", "config": {"name": "conv2d_128", "trainable": false, "dtype": "float32", "filters": 128, "kernel_size": [1, 1], "strides": [1, 1], "padding": "same", "data_format": "channels_last", "dilation_rate": [1, 1], "groups": 1, "activation": "linear", "use_bias": false, "kernel_initializer": {"class_name": "GlorotUniform", "config": {"seed": null}}, "bias_initializer": {"class_name": "Zeros", "config": {}}, "kernel_regularizer": null, "bias_regularizer": null, "activity_regularizer": null, "kernel_constraint": null, "bias_constraint": null}, "name": "conv2d_128", "inbound_nodes": [[["mixed3", 0, 0, {}]]]}, {"class_name": "BatchNormalization", "config": {"name": "batch_normalization_128", "trainable": false, "dtype": "float32", "axis": [3], "momentum": 0.99, "epsilon": 0.001, "center": true, "scale": false, "beta_initializer": {"class_name": "Zeros", "config": {}}, "gamma_initializer": {"class_name": "Ones", "config": {}}, "moving_mean_initializer": {"class_name": "Zeros", "config": {}}, "moving_variance_initializer": {"class_name": "Ones", "config": {}}, "beta_regularizer": null, "gamma_regularizer": null, "beta_constraint": null, "gamma_constraint": null}, "name": "batch_normalization_128", "inbound_nodes": [[["conv2d_128", 0, 0, {}]]]}, {"class_name": "Activation", "config": {"name": "activation_128", "trainable": false, "dtype": "float32", "activation": "relu"}, "name": "activation_128", "inbound_nodes": [[["batch_normalization_128", 0, 0, {}]]]}, {"class_name": "Conv2D", "config": {"name": "conv2d_129", "trainable": false, "dtype": "float32", "filters": 128, "kernel_size": [7, 1], "strides": [1, 1], "padding": "same", "data_format": "channels_last", "dilation_rate": [1, 1], "groups": 1, "activation": "linear", "use_bias": false, "kernel_initializer": {"class_name": "GlorotUniform", "config": {"seed": null}}, "bias_initializer": {"class_name": "Zeros", "config": {}}, "kernel_regularizer": null, "bias_regularizer": null, "activity_regularizer": null, "kernel_constraint": null, "bias_constraint": null}, "name": "conv2d_129", "inbound_nodes": [[["activation_128", 0, 0, {}]]]}, {"class_name": "BatchNormalization", "config": {"name": "batch_normalization_129", "trainable": false, "dtype": "float32", "axis": [3], "momentum": 0.99, "epsilon": 0.001, "center": true, "scale": false, "beta_initializer": {"class_name": "Zeros", "config": {}}, "gamma_initializer": {"class_name": "Ones", "config": {}}, "moving_mean_initializer": {"class_name": "Zeros", "config": {}}, "moving_variance_initializer": {"class_name": "Ones", "config": {}}, "beta_regularizer": null, "gamma_regularizer": null, "beta_constraint": null, "gamma_constraint": null}, "name": "batch_normalization_129", "inbound_nodes": [[["conv2d_129", 0, 0, {}]]]}, {"class_name": "Activation", "config": {"name": "activation_129", "trainable": false, "dtype": "float32", "activation": "relu"}, "name": "activation_129", "inbound_nodes": [[["batch_normalization_129", 0, 0, {}]]]}, {"class_name": "Conv2D", "config": {"name": "conv2d_125", "trainable": false, "dtype": "float32", "filters": 128, "kernel_size": [1, 1], "strides": [1, 1], "padding": "same", "data_format": "channels_last", "dilation_rate": [1, 1], "groups": 1, "activation": "linear", "use_bias": false, "kernel_initializer": {"class_name": "GlorotUniform", "config": {"seed": null}}, "bias_initializer": {"class_name": "Zeros", "config": {}}, "kernel_regularizer": null, "bias_regularizer": null, "activity_regularizer": null, "kernel_constraint": null, "bias_constraint": null}, "name": "conv2d_125", "inbound_nodes": [[["mixed3", 0, 0, {}]]]}, {"class_name": "Conv2D", "config": {"name": "conv2d_130", "trainable": false, "dtype": "float32", "filters": 128, "kernel_size": [1, 7], "strides": [1, 1], "padding": "same", "data_format": "channels_last", "dilation_rate": [1, 1], "groups": 1, "activation": "linear", "use_bias": false, "kernel_initializer": {"class_name": "GlorotUniform", "config": {"seed": null}}, "bias_initializer": {"class_name": "Zeros", "config": {}}, "kernel_regularizer": null, "bias_regularizer": null, "activity_regularizer": null, "kernel_constraint": null, "bias_constraint": null}, "name": "conv2d_130", "inbound_nodes": [[["activation_129", 0, 0, {}]]]}, {"class_name": "BatchNormalization", "config": {"name": "batch_normalization_125", "trainable": false, "dtype": "float32", "axis": [3], "momentum": 0.99, "epsilon": 0.001, "center": true, "scale": false, "beta_initializer": {"class_name": "Zeros", "config": {}}, "gamma_initializer": {"class_name": "Ones", "config": {}}, "moving_mean_initializer": {"class_name": "Zeros", "config": {}}, "moving_variance_initializer": {"class_name": "Ones", "config": {}}, "beta_regularizer": null, "gamma_regularizer": null, "beta_constraint": null, "gamma_constraint": null}, "name": "batch_normalization_125", "inbound_nodes": [[["conv2d_125", 0, 0, {}]]]}, {"class_name": "BatchNormalization", "config": {"name": "batch_normalization_130", "trainable": false, "dtype": "float32", "axis": [3], "momentum": 0.99, "epsilon": 0.001, "center": true, "scale": false, "beta_initializer": {"class_name": "Zeros", "config": {}}, "gamma_initializer": {"class_name": "Ones", "config": {}}, "moving_mean_initializer": {"class_name": "Zeros", "config": {}}, "moving_variance_initializer": {"class_name": "Ones", "config": {}}, "beta_regularizer": null, "gamma_regularizer": null, "beta_constraint": null, "gamma_constraint": null}, "name": "batch_normalization_130", "inbound_nodes": [[["conv2d_130", 0, 0, {}]]]}, {"class_name": "Activation", "config": {"name": "activation_125", "trainable": false, "dtype": "float32", "activation": "relu"}, "name": "activation_125", "inbound_nodes": [[["batch_normalization_125", 0, 0, {}]]]}, {"class_name": "Activation", "config": {"name": "activation_130", "trainable": false, "dtype": "float32", "activation": "relu"}, "name": "activation_130", "inbound_nodes": [[["batch_normalization_130", 0, 0, {}]]]}, {"class_name": "Conv2D", "config": {"name": "conv2d_126", "trainable": false, "dtype": "float32", "filters": 128, "kernel_size": [1, 7], "strides": [1, 1], "padding": "same", "data_format": "channels_last", "dilation_rate": [1, 1], "groups": 1, "activation": "linear", "use_bias": false, "kernel_initializer": {"class_name": "GlorotUniform", "config": {"seed": null}}, "bias_initializer": {"class_name": "Zeros", "config": {}}, "kernel_regularizer": null, "bias_regularizer": null, "activity_regularizer": null, "kernel_constraint": null, "bias_constraint": null}, "name": "conv2d_126", "inbound_nodes": [[["activation_125", 0, 0, {}]]]}, {"class_name": "Conv2D", "config": {"name": "conv2d_131", "trainable": false, "dtype": "float32", "filters": 128, "kernel_size": [7, 1], "strides": [1, 1], "padding": "same", "data_format": "channels_last", "dilation_rate": [1, 1], "groups": 1, "activation": "linear", "use_bias": false, "kernel_initializer": {"class_name": "GlorotUniform", "config": {"seed": null}}, "bias_initializer": {"class_name": "Zeros", "config": {}}, "kernel_regularizer": null, "bias_regularizer": null, "activity_regularizer": null, "kernel_constraint": null, "bias_constraint": null}, "name": "conv2d_131", "inbound_nodes": [[["activation_130", 0, 0, {}]]]}, {"class_name": "BatchNormalization", "config": {"name": "batch_normalization_126", "trainable": false, "dtype": "float32", "axis": [3], "momentum": 0.99, "epsilon": 0.001, "center": true, "scale": false, "beta_initializer": {"class_name": "Zeros", "config": {}}, "gamma_initializer": {"class_name": "Ones", "config": {}}, "moving_mean_initializer": {"class_name": "Zeros", "config": {}}, "moving_variance_initializer": {"class_name": "Ones", "config": {}}, "beta_regularizer": null, "gamma_regularizer": null, "beta_constraint": null, "gamma_constraint": null}, "name": "batch_normalization_126", "inbound_nodes": [[["conv2d_126", 0, 0, {}]]]}, {"class_name": "BatchNormalization", "config": {"name": "batch_normalization_131", "trainable": false, "dtype": "float32", "axis": [3], "momentum": 0.99, "epsilon": 0.001, "center": true, "scale": false, "beta_initializer": {"class_name": "Zeros", "config": {}}, "gamma_initializer": {"class_name": "Ones", "config": {}}, "moving_mean_initializer": {"class_name": "Zeros", "config": {}}, "moving_variance_initializer": {"class_name": "Ones", "config": {}}, "beta_regularizer": null, "gamma_regularizer": null, "beta_constraint": null, "gamma_constraint": null}, "name": "batch_normalization_131", "inbound_nodes": [[["conv2d_131", 0, 0, {}]]]}, {"class_name": "Activation", "config": {"name": "activation_126", "trainable": false, "dtype": "float32", "activation": "relu"}, "name": "activation_126", "inbound_nodes": [[["batch_normalization_126", 0, 0, {}]]]}, {"class_name": "Activation", "config": {"name": "activation_131", "trainable": false, "dtype": "float32", "activation": "relu"}, "name": "activation_131", "inbound_nodes": [[["batch_normalization_131", 0, 0, {}]]]}, {"class_name": "AveragePooling2D", "config": {"name": "average_pooling2d_12", "trainable": false, "dtype": "float32", "pool_size": [3, 3], "padding": "same", "strides": [1, 1], "data_format": "channels_last"}, "name": "average_pooling2d_12", "inbound_nodes": [[["mixed3", 0, 0, {}]]]}, {"class_name": "Conv2D", "config": {"name": "conv2d_124", "trainable": false, "dtype": "float32", "filters": 192, "kernel_size": [1, 1], "strides": [1, 1], "padding": "same", "data_format": "channels_last", "dilation_rate": [1, 1], "groups": 1, "activation": "linear", "use_bias": false, "kernel_initializer": {"class_name": "GlorotUniform", "config": {"seed": null}}, "bias_initializer": {"class_name": "Zeros", "config": {}}, "kernel_regularizer": null, "bias_regularizer": null, "activity_regularizer": null, "kernel_constraint": null, "bias_constraint": null}, "name": "conv2d_124", "inbound_nodes": [[["mixed3", 0, 0, {}]]]}, {"class_name": "Conv2D", "config": {"name": "conv2d_127", "trainable": false, "dtype": "float32", "filters": 192, "kernel_size": [7, 1], "strides": [1, 1], "padding": "same", "data_format": "channels_last", "dilation_rate": [1, 1], "groups": 1, "activation": "linear", "use_bias": false, "kernel_initializer": {"class_name": "GlorotUniform", "config": {"seed": null}}, "bias_initializer": {"class_name": "Zeros", "config": {}}, "kernel_regularizer": null, "bias_regularizer": null, "activity_regularizer": null, "kernel_constraint": null, "bias_constraint": null}, "name": "conv2d_127", "inbound_nodes": [[["activation_126", 0, 0, {}]]]}, {"class_name": "Conv2D", "config": {"name": "conv2d_132", "trainable": false, "dtype": "float32", "filters": 192, "kernel_size": [1, 7], "strides": [1, 1], "padding": "same", "data_format": "channels_last", "dilation_rate": [1, 1], "groups": 1, "activation": "linear", "use_bias": false, "kernel_initializer": {"class_name": "GlorotUniform", "config": {"seed": null}}, "bias_initializer": {"class_name": "Zeros", "config": {}}, "kernel_regularizer": null, "bias_regularizer": null, "activity_regularizer": null, "kernel_constraint": null, "bias_constraint": null}, "name": "conv2d_132", "inbound_nodes": [[["activation_131", 0, 0, {}]]]}, {"class_name": "Conv2D", "config": {"name": "conv2d_133", "trainable": false, "dtype": "float32", "filters": 192, "kernel_size": [1, 1], "strides": [1, 1], "padding": "same", "data_format": "channels_last", "dilation_rate": [1, 1], "groups": 1, "activation": "linear", "use_bias": false, "kernel_initializer": {"class_name": "GlorotUniform", "config": {"seed": null}}, "bias_initializer": {"class_name": "Zeros", "config": {}}, "kernel_regularizer": null, "bias_regularizer": null, "activity_regularizer": null, "kernel_constraint": null, "bias_constraint": null}, "name": "conv2d_133", "inbound_nodes": [[["average_pooling2d_12", 0, 0, {}]]]}, {"class_name": "BatchNormalization", "config": {"name": "batch_normalization_124", "trainable": false, "dtype": "float32", "axis": [3], "momentum": 0.99, "epsilon": 0.001, "center": true, "scale": false, "beta_initializer": {"class_name": "Zeros", "config": {}}, "gamma_initializer": {"class_name": "Ones", "config": {}}, "moving_mean_initializer": {"class_name": "Zeros", "config": {}}, "moving_variance_initializer": {"class_name": "Ones", "config": {}}, "beta_regularizer": null, "gamma_regularizer": null, "beta_constraint": null, "gamma_constraint": null}, "name": "batch_normalization_124", "inbound_nodes": [[["conv2d_124", 0, 0, {}]]]}, {"class_name": "BatchNormalization", "config": {"name": "batch_normalization_127", "trainable": false, "dtype": "float32", "axis": [3], "momentum": 0.99, "epsilon": 0.001, "center": true, "scale": false, "beta_initializer": {"class_name": "Zeros", "config": {}}, "gamma_initializer": {"class_name": "Ones", "config": {}}, "moving_mean_initializer": {"class_name": "Zeros", "config": {}}, "moving_variance_initializer": {"class_name": "Ones", "config": {}}, "beta_regularizer": null, "gamma_regularizer": null, "beta_constraint": null, "gamma_constraint": null}, "name": "batch_normalization_127", "inbound_nodes": [[["conv2d_127", 0, 0, {}]]]}, {"class_name": "BatchNormalization", "config": {"name": "batch_normalization_132", "trainable": false, "dtype": "float32", "axis": [3], "momentum": 0.99, "epsilon": 0.001, "center": true, "scale": false, "beta_initializer": {"class_name": "Zeros", "config": {}}, "gamma_initializer": {"class_name": "Ones", "config": {}}, "moving_mean_initializer": {"class_name": "Zeros", "config": {}}, "moving_variance_initializer": {"class_name": "Ones", "config": {}}, "beta_regularizer": null, "gamma_regularizer": null, "beta_constraint": null, "gamma_constraint": null}, "name": "batch_normalization_132", "inbound_nodes": [[["conv2d_132", 0, 0, {}]]]}, {"class_name": "BatchNormalization", "config": {"name": "batch_normalization_133", "trainable": false, "dtype": "float32", "axis": [3], "momentum": 0.99, "epsilon": 0.001, "center": true, "scale": false, "beta_initializer": {"class_name": "Zeros", "config": {}}, "gamma_initializer": {"class_name": "Ones", "config": {}}, "moving_mean_initializer": {"class_name": "Zeros", "config": {}}, "moving_variance_initializer": {"class_name": "Ones", "config": {}}, "beta_regularizer": null, "gamma_regularizer": null, "beta_constraint": null, "gamma_constraint": null}, "name": "batch_normalization_133", "inbound_nodes": [[["conv2d_133", 0, 0, {}]]]}, {"class_name": "Activation", "config": {"name": "activation_124", "trainable": false, "dtype": "float32", "activation": "relu"}, "name": "activation_124", "inbound_nodes": [[["batch_normalization_124", 0, 0, {}]]]}, {"class_name": "Activation", "config": {"name": "activation_127", "trainable": false, "dtype": "float32", "activation": "relu"}, "name": "activation_127", "inbound_nodes": [[["batch_normalization_127", 0, 0, {}]]]}, {"class_name": "Activation", "config": {"name": "activation_132", "trainable": false, "dtype": "float32", "activation": "relu"}, "name": "activation_132", "inbound_nodes": [[["batch_normalization_132", 0, 0, {}]]]}, {"class_name": "Activation", "config": {"name": "activation_133", "trainable": false, "dtype": "float32", "activation": "relu"}, "name": "activation_133", "inbound_nodes": [[["batch_normalization_133", 0, 0, {}]]]}, {"class_name": "Concatenate", "config": {"name": "mixed4", "trainable": false, "dtype": "float32", "axis": 3}, "name": "mixed4", "inbound_nodes": [[["activation_124", 0, 0, {}], ["activation_127", 0, 0, {}], ["activation_132", 0, 0, {}], ["activation_133", 0, 0, {}]]]}, {"class_name": "Conv2D", "config": {"name": "conv2d_138", "trainable": false, "dtype": "float32", "filters": 160, "kernel_size": [1, 1], "strides": [1, 1], "padding": "same", "data_format": "channels_last", "dilation_rate": [1, 1], "groups": 1, "activation": "linear", "use_bias": false, "kernel_initializer": {"class_name": "GlorotUniform", "config": {"seed": null}}, "bias_initializer": {"class_name": "Zeros", "config": {}}, "kernel_regularizer": null, "bias_regularizer": null, "activity_regularizer": null, "kernel_constraint": null, "bias_constraint": null}, "name": "conv2d_138", "inbound_nodes": [[["mixed4", 0, 0, {}]]]}, {"class_name": "BatchNormalization", "config": {"name": "batch_normalization_138", "trainable": false, "dtype": "float32", "axis": [3], "momentum": 0.99, "epsilon": 0.001, "center": true, "scale": false, "beta_initializer": {"class_name": "Zeros", "config": {}}, "gamma_initializer": {"class_name": "Ones", "config": {}}, "moving_mean_initializer": {"class_name": "Zeros", "config": {}}, "moving_variance_initializer": {"class_name": "Ones", "config": {}}, "beta_regularizer": null, "gamma_regularizer": null, "beta_constraint": null, "gamma_constraint": null}, "name": "batch_normalization_138", "inbound_nodes": [[["conv2d_138", 0, 0, {}]]]}, {"class_name": "Activation", "config": {"name": "activation_138", "trainable": false, "dtype": "float32", "activation": "relu"}, "name": "activation_138", "inbound_nodes": [[["batch_normalization_138", 0, 0, {}]]]}, {"class_name": "Conv2D", "config": {"name": "conv2d_139", "trainable": false, "dtype": "float32", "filters": 160, "kernel_size": [7, 1], "strides": [1, 1], "padding": "same", "data_format": "channels_last", "dilation_rate": [1, 1], "groups": 1, "activation": "linear", "use_bias": false, "kernel_initializer": {"class_name": "GlorotUniform", "config": {"seed": null}}, "bias_initializer": {"class_name": "Zeros", "config": {}}, "kernel_regularizer": null, "bias_regularizer": null, "activity_regularizer": null, "kernel_constraint": null, "bias_constraint": null}, "name": "conv2d_139", "inbound_nodes": [[["activation_138", 0, 0, {}]]]}, {"class_name": "BatchNormalization", "config": {"name": "batch_normalization_139", "trainable": false, "dtype": "float32", "axis": [3], "momentum": 0.99, "epsilon": 0.001, "center": true, "scale": false, "beta_initializer": {"class_name": "Zeros", "config": {}}, "gamma_initializer": {"class_name": "Ones", "config": {}}, "moving_mean_initializer": {"class_name": "Zeros", "config": {}}, "moving_variance_initializer": {"class_name": "Ones", "config": {}}, "beta_regularizer": null, "gamma_regularizer": null, "beta_constraint": null, "gamma_constraint": null}, "name": "batch_normalization_139", "inbound_nodes": [[["conv2d_139", 0, 0, {}]]]}, {"class_name": "Activation", "config": {"name": "activation_139", "trainable": false, "dtype": "float32", "activation": "relu"}, "name": "activation_139", "inbound_nodes": [[["batch_normalization_139", 0, 0, {}]]]}, {"class_name": "Conv2D", "config": {"name": "conv2d_135", "trainable": false, "dtype": "float32", "filters": 160, "kernel_size": [1, 1], "strides": [1, 1], "padding": "same", "data_format": "channels_last", "dilation_rate": [1, 1], "groups": 1, "activation": "linear", "use_bias": false, "kernel_initializer": {"class_name": "GlorotUniform", "config": {"seed": null}}, "bias_initializer": {"class_name": "Zeros", "config": {}}, "kernel_regularizer": null, "bias_regularizer": null, "activity_regularizer": null, "kernel_constraint": null, "bias_constraint": null}, "name": "conv2d_135", "inbound_nodes": [[["mixed4", 0, 0, {}]]]}, {"class_name": "Conv2D", "config": {"name": "conv2d_140", "trainable": false, "dtype": "float32", "filters": 160, "kernel_size": [1, 7], "strides": [1, 1], "padding": "same", "data_format": "channels_last", "dilation_rate": [1, 1], "groups": 1, "activation": "linear", "use_bias": false, "kernel_initializer": {"class_name": "GlorotUniform", "config": {"seed": null}}, "bias_initializer": {"class_name": "Zeros", "config": {}}, "kernel_regularizer": null, "bias_regularizer": null, "activity_regularizer": null, "kernel_constraint": null, "bias_constraint": null}, "name": "conv2d_140", "inbound_nodes": [[["activation_139", 0, 0, {}]]]}, {"class_name": "BatchNormalization", "config": {"name": "batch_normalization_135", "trainable": false, "dtype": "float32", "axis": [3], "momentum": 0.99, "epsilon": 0.001, "center": true, "scale": false, "beta_initializer": {"class_name": "Zeros", "config": {}}, "gamma_initializer": {"class_name": "Ones", "config": {}}, "moving_mean_initializer": {"class_name": "Zeros", "config": {}}, "moving_variance_initializer": {"class_name": "Ones", "config": {}}, "beta_regularizer": null, "gamma_regularizer": null, "beta_constraint": null, "gamma_constraint": null}, "name": "batch_normalization_135", "inbound_nodes": [[["conv2d_135", 0, 0, {}]]]}, {"class_name": "BatchNormalization", "config": {"name": "batch_normalization_140", "trainable": false, "dtype": "float32", "axis": [3], "momentum": 0.99, "epsilon": 0.001, "center": true, "scale": false, "beta_initializer": {"class_name": "Zeros", "config": {}}, "gamma_initializer": {"class_name": "Ones", "config": {}}, "moving_mean_initializer": {"class_name": "Zeros", "config": {}}, "moving_variance_initializer": {"class_name": "Ones", "config": {}}, "beta_regularizer": null, "gamma_regularizer": null, "beta_constraint": null, "gamma_constraint": null}, "name": "batch_normalization_140", "inbound_nodes": [[["conv2d_140", 0, 0, {}]]]}, {"class_name": "Activation", "config": {"name": "activation_135", "trainable": false, "dtype": "float32", "activation": "relu"}, "name": "activation_135", "inbound_nodes": [[["batch_normalization_135", 0, 0, {}]]]}, {"class_name": "Activation", "config": {"name": "activation_140", "trainable": false, "dtype": "float32", "activation": "relu"}, "name": "activation_140", "inbound_nodes": [[["batch_normalization_140", 0, 0, {}]]]}, {"class_name": "Conv2D", "config": {"name": "conv2d_136", "trainable": false, "dtype": "float32", "filters": 160, "kernel_size": [1, 7], "strides": [1, 1], "padding": "same", "data_format": "channels_last", "dilation_rate": [1, 1], "groups": 1, "activation": "linear", "use_bias": false, "kernel_initializer": {"class_name": "GlorotUniform", "config": {"seed": null}}, "bias_initializer": {"class_name": "Zeros", "config": {}}, "kernel_regularizer": null, "bias_regularizer": null, "activity_regularizer": null, "kernel_constraint": null, "bias_constraint": null}, "name": "conv2d_136", "inbound_nodes": [[["activation_135", 0, 0, {}]]]}, {"class_name": "Conv2D", "config": {"name": "conv2d_141", "trainable": false, "dtype": "float32", "filters": 160, "kernel_size": [7, 1], "strides": [1, 1], "padding": "same", "data_format": "channels_last", "dilation_rate": [1, 1], "groups": 1, "activation": "linear", "use_bias": false, "kernel_initializer": {"class_name": "GlorotUniform", "config": {"seed": null}}, "bias_initializer": {"class_name": "Zeros", "config": {}}, "kernel_regularizer": null, "bias_regularizer": null, "activity_regularizer": null, "kernel_constraint": null, "bias_constraint": null}, "name": "conv2d_141", "inbound_nodes": [[["activation_140", 0, 0, {}]]]}, {"class_name": "BatchNormalization", "config": {"name": "batch_normalization_136", "trainable": false, "dtype": "float32", "axis": [3], "momentum": 0.99, "epsilon": 0.001, "center": true, "scale": false, "beta_initializer": {"class_name": "Zeros", "config": {}}, "gamma_initializer": {"class_name": "Ones", "config": {}}, "moving_mean_initializer": {"class_name": "Zeros", "config": {}}, "moving_variance_initializer": {"class_name": "Ones", "config": {}}, "beta_regularizer": null, "gamma_regularizer": null, "beta_constraint": null, "gamma_constraint": null}, "name": "batch_normalization_136", "inbound_nodes": [[["conv2d_136", 0, 0, {}]]]}, {"class_name": "BatchNormalization", "config": {"name": "batch_normalization_141", "trainable": false, "dtype": "float32", "axis": [3], "momentum": 0.99, "epsilon": 0.001, "center": true, "scale": false, "beta_initializer": {"class_name": "Zeros", "config": {}}, "gamma_initializer": {"class_name": "Ones", "config": {}}, "moving_mean_initializer": {"class_name": "Zeros", "config": {}}, "moving_variance_initializer": {"class_name": "Ones", "config": {}}, "beta_regularizer": null, "gamma_regularizer": null, "beta_constraint": null, "gamma_constraint": null}, "name": "batch_normalization_141", "inbound_nodes": [[["conv2d_141", 0, 0, {}]]]}, {"class_name": "Activation", "config": {"name": "activation_136", "trainable": false, "dtype": "float32", "activation": "relu"}, "name": "activation_136", "inbound_nodes": [[["batch_normalization_136", 0, 0, {}]]]}, {"class_name": "Activation", "config": {"name": "activation_141", "trainable": false, "dtype": "float32", "activation": "relu"}, "name": "activation_141", "inbound_nodes": [[["batch_normalization_141", 0, 0, {}]]]}, {"class_name": "AveragePooling2D", "config": {"name": "average_pooling2d_13", "trainable": false, "dtype": "float32", "pool_size": [3, 3], "padding": "same", "strides": [1, 1], "data_format": "channels_last"}, "name": "average_pooling2d_13", "inbound_nodes": [[["mixed4", 0, 0, {}]]]}, {"class_name": "Conv2D", "config": {"name": "conv2d_134", "trainable": false, "dtype": "float32", "filters": 192, "kernel_size": [1, 1], "strides": [1, 1], "padding": "same", "data_format": "channels_last", "dilation_rate": [1, 1], "groups": 1, "activation": "linear", "use_bias": false, "kernel_initializer": {"class_name": "GlorotUniform", "config": {"seed": null}}, "bias_initializer": {"class_name": "Zeros", "config": {}}, "kernel_regularizer": null, "bias_regularizer": null, "activity_regularizer": null, "kernel_constraint": null, "bias_constraint": null}, "name": "conv2d_134", "inbound_nodes": [[["mixed4", 0, 0, {}]]]}, {"class_name": "Conv2D", "config": {"name": "conv2d_137", "trainable": false, "dtype": "float32", "filters": 192, "kernel_size": [7, 1], "strides": [1, 1], "padding": "same", "data_format": "channels_last", "dilation_rate": [1, 1], "groups": 1, "activation": "linear", "use_bias": false, "kernel_initializer": {"class_name": "GlorotUniform", "config": {"seed": null}}, "bias_initializer": {"class_name": "Zeros", "config": {}}, "kernel_regularizer": null, "bias_regularizer": null, "activity_regularizer": null, "kernel_constraint": null, "bias_constraint": null}, "name": "conv2d_137", "inbound_nodes": [[["activation_136", 0, 0, {}]]]}, {"class_name": "Conv2D", "config": {"name": "conv2d_142", "trainable": false, "dtype": "float32", "filters": 192, "kernel_size": [1, 7], "strides": [1, 1], "padding": "same", "data_format": "channels_last", "dilation_rate": [1, 1], "groups": 1, "activation": "linear", "use_bias": false, "kernel_initializer": {"class_name": "GlorotUniform", "config": {"seed": null}}, "bias_initializer": {"class_name": "Zeros", "config": {}}, "kernel_regularizer": null, "bias_regularizer": null, "activity_regularizer": null, "kernel_constraint": null, "bias_constraint": null}, "name": "conv2d_142", "inbound_nodes": [[["activation_141", 0, 0, {}]]]}, {"class_name": "Conv2D", "config": {"name": "conv2d_143", "trainable": false, "dtype": "float32", "filters": 192, "kernel_size": [1, 1], "strides": [1, 1], "padding": "same", "data_format": "channels_last", "dilation_rate": [1, 1], "groups": 1, "activation": "linear", "use_bias": false, "kernel_initializer": {"class_name": "GlorotUniform", "config": {"seed": null}}, "bias_initializer": {"class_name": "Zeros", "config": {}}, "kernel_regularizer": null, "bias_regularizer": null, "activity_regularizer": null, "kernel_constraint": null, "bias_constraint": null}, "name": "conv2d_143", "inbound_nodes": [[["average_pooling2d_13", 0, 0, {}]]]}, {"class_name": "BatchNormalization", "config": {"name": "batch_normalization_134", "trainable": false, "dtype": "float32", "axis": [3], "momentum": 0.99, "epsilon": 0.001, "center": true, "scale": false, "beta_initializer": {"class_name": "Zeros", "config": {}}, "gamma_initializer": {"class_name": "Ones", "config": {}}, "moving_mean_initializer": {"class_name": "Zeros", "config": {}}, "moving_variance_initializer": {"class_name": "Ones", "config": {}}, "beta_regularizer": null, "gamma_regularizer": null, "beta_constraint": null, "gamma_constraint": null}, "name": "batch_normalization_134", "inbound_nodes": [[["conv2d_134", 0, 0, {}]]]}, {"class_name": "BatchNormalization", "config": {"name": "batch_normalization_137", "trainable": false, "dtype": "float32", "axis": [3], "momentum": 0.99, "epsilon": 0.001, "center": true, "scale": false, "beta_initializer": {"class_name": "Zeros", "config": {}}, "gamma_initializer": {"class_name": "Ones", "config": {}}, "moving_mean_initializer": {"class_name": "Zeros", "config": {}}, "moving_variance_initializer": {"class_name": "Ones", "config": {}}, "beta_regularizer": null, "gamma_regularizer": null, "beta_constraint": null, "gamma_constraint": null}, "name": "batch_normalization_137", "inbound_nodes": [[["conv2d_137", 0, 0, {}]]]}, {"class_name": "BatchNormalization", "config": {"name": "batch_normalization_142", "trainable": false, "dtype": "float32", "axis": [3], "momentum": 0.99, "epsilon": 0.001, "center": true, "scale": false, "beta_initializer": {"class_name": "Zeros", "config": {}}, "gamma_initializer": {"class_name": "Ones", "config": {}}, "moving_mean_initializer": {"class_name": "Zeros", "config": {}}, "moving_variance_initializer": {"class_name": "Ones", "config": {}}, "beta_regularizer": null, "gamma_regularizer": null, "beta_constraint": null, "gamma_constraint": null}, "name": "batch_normalization_142", "inbound_nodes": [[["conv2d_142", 0, 0, {}]]]}, {"class_name": "BatchNormalization", "config": {"name": "batch_normalization_143", "trainable": false, "dtype": "float32", "axis": [3], "momentum": 0.99, "epsilon": 0.001, "center": true, "scale": false, "beta_initializer": {"class_name": "Zeros", "config": {}}, "gamma_initializer": {"class_name": "Ones", "config": {}}, "moving_mean_initializer": {"class_name": "Zeros", "config": {}}, "moving_variance_initializer": {"class_name": "Ones", "config": {}}, "beta_regularizer": null, "gamma_regularizer": null, "beta_constraint": null, "gamma_constraint": null}, "name": "batch_normalization_143", "inbound_nodes": [[["conv2d_143", 0, 0, {}]]]}, {"class_name": "Activation", "config": {"name": "activation_134", "trainable": false, "dtype": "float32", "activation": "relu"}, "name": "activation_134", "inbound_nodes": [[["batch_normalization_134", 0, 0, {}]]]}, {"class_name": "Activation", "config": {"name": "activation_137", "trainable": false, "dtype": "float32", "activation": "relu"}, "name": "activation_137", "inbound_nodes": [[["batch_normalization_137", 0, 0, {}]]]}, {"class_name": "Activation", "config": {"name": "activation_142", "trainable": false, "dtype": "float32", "activation": "relu"}, "name": "activation_142", "inbound_nodes": [[["batch_normalization_142", 0, 0, {}]]]}, {"class_name": "Activation", "config": {"name": "activation_143", "trainable": false, "dtype": "float32", "activation": "relu"}, "name": "activation_143", "inbound_nodes": [[["batch_normalization_143", 0, 0, {}]]]}, {"class_name": "Concatenate", "config": {"name": "mixed5", "trainable": false, "dtype": "float32", "axis": 3}, "name": "mixed5", "inbound_nodes": [[["activation_134", 0, 0, {}], ["activation_137", 0, 0, {}], ["activation_142", 0, 0, {}], ["activation_143", 0, 0, {}]]]}, {"class_name": "Conv2D", "config": {"name": "conv2d_148", "trainable": false, "dtype": "float32", "filters": 160, "kernel_size": [1, 1], "strides": [1, 1], "padding": "same", "data_format": "channels_last", "dilation_rate": [1, 1], "groups": 1, "activation": "linear", "use_bias": false, "kernel_initializer": {"class_name": "GlorotUniform", "config": {"seed": null}}, "bias_initializer": {"class_name": "Zeros", "config": {}}, "kernel_regularizer": null, "bias_regularizer": null, "activity_regularizer": null, "kernel_constraint": null, "bias_constraint": null}, "name": "conv2d_148", "inbound_nodes": [[["mixed5", 0, 0, {}]]]}, {"class_name": "BatchNormalization", "config": {"name": "batch_normalization_148", "trainable": false, "dtype": "float32", "axis": [3], "momentum": 0.99, "epsilon": 0.001, "center": true, "scale": false, "beta_initializer": {"class_name": "Zeros", "config": {}}, "gamma_initializer": {"class_name": "Ones", "config": {}}, "moving_mean_initializer": {"class_name": "Zeros", "config": {}}, "moving_variance_initializer": {"class_name": "Ones", "config": {}}, "beta_regularizer": null, "gamma_regularizer": null, "beta_constraint": null, "gamma_constraint": null}, "name": "batch_normalization_148", "inbound_nodes": [[["conv2d_148", 0, 0, {}]]]}, {"class_name": "Activation", "config": {"name": "activation_148", "trainable": false, "dtype": "float32", "activation": "relu"}, "name": "activation_148", "inbound_nodes": [[["batch_normalization_148", 0, 0, {}]]]}, {"class_name": "Conv2D", "config": {"name": "conv2d_149", "trainable": false, "dtype": "float32", "filters": 160, "kernel_size": [7, 1], "strides": [1, 1], "padding": "same", "data_format": "channels_last", "dilation_rate": [1, 1], "groups": 1, "activation": "linear", "use_bias": false, "kernel_initializer": {"class_name": "GlorotUniform", "config": {"seed": null}}, "bias_initializer": {"class_name": "Zeros", "config": {}}, "kernel_regularizer": null, "bias_regularizer": null, "activity_regularizer": null, "kernel_constraint": null, "bias_constraint": null}, "name": "conv2d_149", "inbound_nodes": [[["activation_148", 0, 0, {}]]]}, {"class_name": "BatchNormalization", "config": {"name": "batch_normalization_149", "trainable": false, "dtype": "float32", "axis": [3], "momentum": 0.99, "epsilon": 0.001, "center": true, "scale": false, "beta_initializer": {"class_name": "Zeros", "config": {}}, "gamma_initializer": {"class_name": "Ones", "config": {}}, "moving_mean_initializer": {"class_name": "Zeros", "config": {}}, "moving_variance_initializer": {"class_name": "Ones", "config": {}}, "beta_regularizer": null, "gamma_regularizer": null, "beta_constraint": null, "gamma_constraint": null}, "name": "batch_normalization_149", "inbound_nodes": [[["conv2d_149", 0, 0, {}]]]}, {"class_name": "Activation", "config": {"name": "activation_149", "trainable": false, "dtype": "float32", "activation": "relu"}, "name": "activation_149", "inbound_nodes": [[["batch_normalization_149", 0, 0, {}]]]}, {"class_name": "Conv2D", "config": {"name": "conv2d_145", "trainable": false, "dtype": "float32", "filters": 160, "kernel_size": [1, 1], "strides": [1, 1], "padding": "same", "data_format": "channels_last", "dilation_rate": [1, 1], "groups": 1, "activation": "linear", "use_bias": false, "kernel_initializer": {"class_name": "GlorotUniform", "config": {"seed": null}}, "bias_initializer": {"class_name": "Zeros", "config": {}}, "kernel_regularizer": null, "bias_regularizer": null, "activity_regularizer": null, "kernel_constraint": null, "bias_constraint": null}, "name": "conv2d_145", "inbound_nodes": [[["mixed5", 0, 0, {}]]]}, {"class_name": "Conv2D", "config": {"name": "conv2d_150", "trainable": false, "dtype": "float32", "filters": 160, "kernel_size": [1, 7], "strides": [1, 1], "padding": "same", "data_format": "channels_last", "dilation_rate": [1, 1], "groups": 1, "activation": "linear", "use_bias": false, "kernel_initializer": {"class_name": "GlorotUniform", "config": {"seed": null}}, "bias_initializer": {"class_name": "Zeros", "config": {}}, "kernel_regularizer": null, "bias_regularizer": null, "activity_regularizer": null, "kernel_constraint": null, "bias_constraint": null}, "name": "conv2d_150", "inbound_nodes": [[["activation_149", 0, 0, {}]]]}, {"class_name": "BatchNormalization", "config": {"name": "batch_normalization_145", "trainable": false, "dtype": "float32", "axis": [3], "momentum": 0.99, "epsilon": 0.001, "center": true, "scale": false, "beta_initializer": {"class_name": "Zeros", "config": {}}, "gamma_initializer": {"class_name": "Ones", "config": {}}, "moving_mean_initializer": {"class_name": "Zeros", "config": {}}, "moving_variance_initializer": {"class_name": "Ones", "config": {}}, "beta_regularizer": null, "gamma_regularizer": null, "beta_constraint": null, "gamma_constraint": null}, "name": "batch_normalization_145", "inbound_nodes": [[["conv2d_145", 0, 0, {}]]]}, {"class_name": "BatchNormalization", "config": {"name": "batch_normalization_150", "trainable": false, "dtype": "float32", "axis": [3], "momentum": 0.99, "epsilon": 0.001, "center": true, "scale": false, "beta_initializer": {"class_name": "Zeros", "config": {}}, "gamma_initializer": {"class_name": "Ones", "config": {}}, "moving_mean_initializer": {"class_name": "Zeros", "config": {}}, "moving_variance_initializer": {"class_name": "Ones", "config": {}}, "beta_regularizer": null, "gamma_regularizer": null, "beta_constraint": null, "gamma_constraint": null}, "name": "batch_normalization_150", "inbound_nodes": [[["conv2d_150", 0, 0, {}]]]}, {"class_name": "Activation", "config": {"name": "activation_145", "trainable": false, "dtype": "float32", "activation": "relu"}, "name": "activation_145", "inbound_nodes": [[["batch_normalization_145", 0, 0, {}]]]}, {"class_name": "Activation", "config": {"name": "activation_150", "trainable": false, "dtype": "float32", "activation": "relu"}, "name": "activation_150", "inbound_nodes": [[["batch_normalization_150", 0, 0, {}]]]}, {"class_name": "Conv2D", "config": {"name": "conv2d_146", "trainable": false, "dtype": "float32", "filters": 160, "kernel_size": [1, 7], "strides": [1, 1], "padding": "same", "data_format": "channels_last", "dilation_rate": [1, 1], "groups": 1, "activation": "linear", "use_bias": false, "kernel_initializer": {"class_name": "GlorotUniform", "config": {"seed": null}}, "bias_initializer": {"class_name": "Zeros", "config": {}}, "kernel_regularizer": null, "bias_regularizer": null, "activity_regularizer": null, "kernel_constraint": null, "bias_constraint": null}, "name": "conv2d_146", "inbound_nodes": [[["activation_145", 0, 0, {}]]]}, {"class_name": "Conv2D", "config": {"name": "conv2d_151", "trainable": false, "dtype": "float32", "filters": 160, "kernel_size": [7, 1], "strides": [1, 1], "padding": "same", "data_format": "channels_last", "dilation_rate": [1, 1], "groups": 1, "activation": "linear", "use_bias": false, "kernel_initializer": {"class_name": "GlorotUniform", "config": {"seed": null}}, "bias_initializer": {"class_name": "Zeros", "config": {}}, "kernel_regularizer": null, "bias_regularizer": null, "activity_regularizer": null, "kernel_constraint": null, "bias_constraint": null}, "name": "conv2d_151", "inbound_nodes": [[["activation_150", 0, 0, {}]]]}, {"class_name": "BatchNormalization", "config": {"name": "batch_normalization_146", "trainable": false, "dtype": "float32", "axis": [3], "momentum": 0.99, "epsilon": 0.001, "center": true, "scale": false, "beta_initializer": {"class_name": "Zeros", "config": {}}, "gamma_initializer": {"class_name": "Ones", "config": {}}, "moving_mean_initializer": {"class_name": "Zeros", "config": {}}, "moving_variance_initializer": {"class_name": "Ones", "config": {}}, "beta_regularizer": null, "gamma_regularizer": null, "beta_constraint": null, "gamma_constraint": null}, "name": "batch_normalization_146", "inbound_nodes": [[["conv2d_146", 0, 0, {}]]]}, {"class_name": "BatchNormalization", "config": {"name": "batch_normalization_151", "trainable": false, "dtype": "float32", "axis": [3], "momentum": 0.99, "epsilon": 0.001, "center": true, "scale": false, "beta_initializer": {"class_name": "Zeros", "config": {}}, "gamma_initializer": {"class_name": "Ones", "config": {}}, "moving_mean_initializer": {"class_name": "Zeros", "config": {}}, "moving_variance_initializer": {"class_name": "Ones", "config": {}}, "beta_regularizer": null, "gamma_regularizer": null, "beta_constraint": null, "gamma_constraint": null}, "name": "batch_normalization_151", "inbound_nodes": [[["conv2d_151", 0, 0, {}]]]}, {"class_name": "Activation", "config": {"name": "activation_146", "trainable": false, "dtype": "float32", "activation": "relu"}, "name": "activation_146", "inbound_nodes": [[["batch_normalization_146", 0, 0, {}]]]}, {"class_name": "Activation", "config": {"name": "activation_151", "trainable": false, "dtype": "float32", "activation": "relu"}, "name": "activation_151", "inbound_nodes": [[["batch_normalization_151", 0, 0, {}]]]}, {"class_name": "AveragePooling2D", "config": {"name": "average_pooling2d_14", "trainable": false, "dtype": "float32", "pool_size": [3, 3], "padding": "same", "strides": [1, 1], "data_format": "channels_last"}, "name": "average_pooling2d_14", "inbound_nodes": [[["mixed5", 0, 0, {}]]]}, {"class_name": "Conv2D", "config": {"name": "conv2d_144", "trainable": false, "dtype": "float32", "filters": 192, "kernel_size": [1, 1], "strides": [1, 1], "padding": "same", "data_format": "channels_last", "dilation_rate": [1, 1], "groups": 1, "activation": "linear", "use_bias": false, "kernel_initializer": {"class_name": "GlorotUniform", "config": {"seed": null}}, "bias_initializer": {"class_name": "Zeros", "config": {}}, "kernel_regularizer": null, "bias_regularizer": null, "activity_regularizer": null, "kernel_constraint": null, "bias_constraint": null}, "name": "conv2d_144", "inbound_nodes": [[["mixed5", 0, 0, {}]]]}, {"class_name": "Conv2D", "config": {"name": "conv2d_147", "trainable": false, "dtype": "float32", "filters": 192, "kernel_size": [7, 1], "strides": [1, 1], "padding": "same", "data_format": "channels_last", "dilation_rate": [1, 1], "groups": 1, "activation": "linear", "use_bias": false, "kernel_initializer": {"class_name": "GlorotUniform", "config": {"seed": null}}, "bias_initializer": {"class_name": "Zeros", "config": {}}, "kernel_regularizer": null, "bias_regularizer": null, "activity_regularizer": null, "kernel_constraint": null, "bias_constraint": null}, "name": "conv2d_147", "inbound_nodes": [[["activation_146", 0, 0, {}]]]}, {"class_name": "Conv2D", "config": {"name": "conv2d_152", "trainable": false, "dtype": "float32", "filters": 192, "kernel_size": [1, 7], "strides": [1, 1], "padding": "same", "data_format": "channels_last", "dilation_rate": [1, 1], "groups": 1, "activation": "linear", "use_bias": false, "kernel_initializer": {"class_name": "GlorotUniform", "config": {"seed": null}}, "bias_initializer": {"class_name": "Zeros", "config": {}}, "kernel_regularizer": null, "bias_regularizer": null, "activity_regularizer": null, "kernel_constraint": null, "bias_constraint": null}, "name": "conv2d_152", "inbound_nodes": [[["activation_151", 0, 0, {}]]]}, {"class_name": "Conv2D", "config": {"name": "conv2d_153", "trainable": false, "dtype": "float32", "filters": 192, "kernel_size": [1, 1], "strides": [1, 1], "padding": "same", "data_format": "channels_last", "dilation_rate": [1, 1], "groups": 1, "activation": "linear", "use_bias": false, "kernel_initializer": {"class_name": "GlorotUniform", "config": {"seed": null}}, "bias_initializer": {"class_name": "Zeros", "config": {}}, "kernel_regularizer": null, "bias_regularizer": null, "activity_regularizer": null, "kernel_constraint": null, "bias_constraint": null}, "name": "conv2d_153", "inbound_nodes": [[["average_pooling2d_14", 0, 0, {}]]]}, {"class_name": "BatchNormalization", "config": {"name": "batch_normalization_144", "trainable": false, "dtype": "float32", "axis": [3], "momentum": 0.99, "epsilon": 0.001, "center": true, "scale": false, "beta_initializer": {"class_name": "Zeros", "config": {}}, "gamma_initializer": {"class_name": "Ones", "config": {}}, "moving_mean_initializer": {"class_name": "Zeros", "config": {}}, "moving_variance_initializer": {"class_name": "Ones", "config": {}}, "beta_regularizer": null, "gamma_regularizer": null, "beta_constraint": null, "gamma_constraint": null}, "name": "batch_normalization_144", "inbound_nodes": [[["conv2d_144", 0, 0, {}]]]}, {"class_name": "BatchNormalization", "config": {"name": "batch_normalization_147", "trainable": false, "dtype": "float32", "axis": [3], "momentum": 0.99, "epsilon": 0.001, "center": true, "scale": false, "beta_initializer": {"class_name": "Zeros", "config": {}}, "gamma_initializer": {"class_name": "Ones", "config": {}}, "moving_mean_initializer": {"class_name": "Zeros", "config": {}}, "moving_variance_initializer": {"class_name": "Ones", "config": {}}, "beta_regularizer": null, "gamma_regularizer": null, "beta_constraint": null, "gamma_constraint": null}, "name": "batch_normalization_147", "inbound_nodes": [[["conv2d_147", 0, 0, {}]]]}, {"class_name": "BatchNormalization", "config": {"name": "batch_normalization_152", "trainable": false, "dtype": "float32", "axis": [3], "momentum": 0.99, "epsilon": 0.001, "center": true, "scale": false, "beta_initializer": {"class_name": "Zeros", "config": {}}, "gamma_initializer": {"class_name": "Ones", "config": {}}, "moving_mean_initializer": {"class_name": "Zeros", "config": {}}, "moving_variance_initializer": {"class_name": "Ones", "config": {}}, "beta_regularizer": null, "gamma_regularizer": null, "beta_constraint": null, "gamma_constraint": null}, "name": "batch_normalization_152", "inbound_nodes": [[["conv2d_152", 0, 0, {}]]]}, {"class_name": "BatchNormalization", "config": {"name": "batch_normalization_153", "trainable": false, "dtype": "float32", "axis": [3], "momentum": 0.99, "epsilon": 0.001, "center": true, "scale": false, "beta_initializer": {"class_name": "Zeros", "config": {}}, "gamma_initializer": {"class_name": "Ones", "config": {}}, "moving_mean_initializer": {"class_name": "Zeros", "config": {}}, "moving_variance_initializer": {"class_name": "Ones", "config": {}}, "beta_regularizer": null, "gamma_regularizer": null, "beta_constraint": null, "gamma_constraint": null}, "name": "batch_normalization_153", "inbound_nodes": [[["conv2d_153", 0, 0, {}]]]}, {"class_name": "Activation", "config": {"name": "activation_144", "trainable": false, "dtype": "float32", "activation": "relu"}, "name": "activation_144", "inbound_nodes": [[["batch_normalization_144", 0, 0, {}]]]}, {"class_name": "Activation", "config": {"name": "activation_147", "trainable": false, "dtype": "float32", "activation": "relu"}, "name": "activation_147", "inbound_nodes": [[["batch_normalization_147", 0, 0, {}]]]}, {"class_name": "Activation", "config": {"name": "activation_152", "trainable": false, "dtype": "float32", "activation": "relu"}, "name": "activation_152", "inbound_nodes": [[["batch_normalization_152", 0, 0, {}]]]}, {"class_name": "Activation", "config": {"name": "activation_153", "trainable": false, "dtype": "float32", "activation": "relu"}, "name": "activation_153", "inbound_nodes": [[["batch_normalization_153", 0, 0, {}]]]}, {"class_name": "Concatenate", "config": {"name": "mixed6", "trainable": false, "dtype": "float32", "axis": 3}, "name": "mixed6", "inbound_nodes": [[["activation_144", 0, 0, {}], ["activation_147", 0, 0, {}], ["activation_152", 0, 0, {}], ["activation_153", 0, 0, {}]]]}, {"class_name": "Conv2D", "config": {"name": "conv2d_158", "trainable": false, "dtype": "float32", "filters": 192, "kernel_size": [1, 1], "strides": [1, 1], "padding": "same", "data_format": "channels_last", "dilation_rate": [1, 1], "groups": 1, "activation": "linear", "use_bias": false, "kernel_initializer": {"class_name": "GlorotUniform", "config": {"seed": null}}, "bias_initializer": {"class_name": "Zeros", "config": {}}, "kernel_regularizer": null, "bias_regularizer": null, "activity_regularizer": null, "kernel_constraint": null, "bias_constraint": null}, "name": "conv2d_158", "inbound_nodes": [[["mixed6", 0, 0, {}]]]}, {"class_name": "BatchNormalization", "config": {"name": "batch_normalization_158", "trainable": false, "dtype": "float32", "axis": [3], "momentum": 0.99, "epsilon": 0.001, "center": true, "scale": false, "beta_initializer": {"class_name": "Zeros", "config": {}}, "gamma_initializer": {"class_name": "Ones", "config": {}}, "moving_mean_initializer": {"class_name": "Zeros", "config": {}}, "moving_variance_initializer": {"class_name": "Ones", "config": {}}, "beta_regularizer": null, "gamma_regularizer": null, "beta_constraint": null, "gamma_constraint": null}, "name": "batch_normalization_158", "inbound_nodes": [[["conv2d_158", 0, 0, {}]]]}, {"class_name": "Activation", "config": {"name": "activation_158", "trainable": false, "dtype": "float32", "activation": "relu"}, "name": "activation_158", "inbound_nodes": [[["batch_normalization_158", 0, 0, {}]]]}, {"class_name": "Conv2D", "config": {"name": "conv2d_159", "trainable": false, "dtype": "float32", "filters": 192, "kernel_size": [7, 1], "strides": [1, 1], "padding": "same", "data_format": "channels_last", "dilation_rate": [1, 1], "groups": 1, "activation": "linear", "use_bias": false, "kernel_initializer": {"class_name": "GlorotUniform", "config": {"seed": null}}, "bias_initializer": {"class_name": "Zeros", "config": {}}, "kernel_regularizer": null, "bias_regularizer": null, "activity_regularizer": null, "kernel_constraint": null, "bias_constraint": null}, "name": "conv2d_159", "inbound_nodes": [[["activation_158", 0, 0, {}]]]}, {"class_name": "BatchNormalization", "config": {"name": "batch_normalization_159", "trainable": false, "dtype": "float32", "axis": [3], "momentum": 0.99, "epsilon": 0.001, "center": true, "scale": false, "beta_initializer": {"class_name": "Zeros", "config": {}}, "gamma_initializer": {"class_name": "Ones", "config": {}}, "moving_mean_initializer": {"class_name": "Zeros", "config": {}}, "moving_variance_initializer": {"class_name": "Ones", "config": {}}, "beta_regularizer": null, "gamma_regularizer": null, "beta_constraint": null, "gamma_constraint": null}, "name": "batch_normalization_159", "inbound_nodes": [[["conv2d_159", 0, 0, {}]]]}, {"class_name": "Activation", "config": {"name": "activation_159", "trainable": false, "dtype": "float32", "activation": "relu"}, "name": "activation_159", "inbound_nodes": [[["batch_normalization_159", 0, 0, {}]]]}, {"class_name": "Conv2D", "config": {"name": "conv2d_155", "trainable": false, "dtype": "float32", "filters": 192, "kernel_size": [1, 1], "strides": [1, 1], "padding": "same", "data_format": "channels_last", "dilation_rate": [1, 1], "groups": 1, "activation": "linear", "use_bias": false, "kernel_initializer": {"class_name": "GlorotUniform", "config": {"seed": null}}, "bias_initializer": {"class_name": "Zeros", "config": {}}, "kernel_regularizer": null, "bias_regularizer": null, "activity_regularizer": null, "kernel_constraint": null, "bias_constraint": null}, "name": "conv2d_155", "inbound_nodes": [[["mixed6", 0, 0, {}]]]}, {"class_name": "Conv2D", "config": {"name": "conv2d_160", "trainable": false, "dtype": "float32", "filters": 192, "kernel_size": [1, 7], "strides": [1, 1], "padding": "same", "data_format": "channels_last", "dilation_rate": [1, 1], "groups": 1, "activation": "linear", "use_bias": false, "kernel_initializer": {"class_name": "GlorotUniform", "config": {"seed": null}}, "bias_initializer": {"class_name": "Zeros", "config": {}}, "kernel_regularizer": null, "bias_regularizer": null, "activity_regularizer": null, "kernel_constraint": null, "bias_constraint": null}, "name": "conv2d_160", "inbound_nodes": [[["activation_159", 0, 0, {}]]]}, {"class_name": "BatchNormalization", "config": {"name": "batch_normalization_155", "trainable": false, "dtype": "float32", "axis": [3], "momentum": 0.99, "epsilon": 0.001, "center": true, "scale": false, "beta_initializer": {"class_name": "Zeros", "config": {}}, "gamma_initializer": {"class_name": "Ones", "config": {}}, "moving_mean_initializer": {"class_name": "Zeros", "config": {}}, "moving_variance_initializer": {"class_name": "Ones", "config": {}}, "beta_regularizer": null, "gamma_regularizer": null, "beta_constraint": null, "gamma_constraint": null}, "name": "batch_normalization_155", "inbound_nodes": [[["conv2d_155", 0, 0, {}]]]}, {"class_name": "BatchNormalization", "config": {"name": "batch_normalization_160", "trainable": false, "dtype": "float32", "axis": [3], "momentum": 0.99, "epsilon": 0.001, "center": true, "scale": false, "beta_initializer": {"class_name": "Zeros", "config": {}}, "gamma_initializer": {"class_name": "Ones", "config": {}}, "moving_mean_initializer": {"class_name": "Zeros", "config": {}}, "moving_variance_initializer": {"class_name": "Ones", "config": {}}, "beta_regularizer": null, "gamma_regularizer": null, "beta_constraint": null, "gamma_constraint": null}, "name": "batch_normalization_160", "inbound_nodes": [[["conv2d_160", 0, 0, {}]]]}, {"class_name": "Activation", "config": {"name": "activation_155", "trainable": false, "dtype": "float32", "activation": "relu"}, "name": "activation_155", "inbound_nodes": [[["batch_normalization_155", 0, 0, {}]]]}, {"class_name": "Activation", "config": {"name": "activation_160", "trainable": false, "dtype": "float32", "activation": "relu"}, "name": "activation_160", "inbound_nodes": [[["batch_normalization_160", 0, 0, {}]]]}, {"class_name": "Conv2D", "config": {"name": "conv2d_156", "trainable": false, "dtype": "float32", "filters": 192, "kernel_size": [1, 7], "strides": [1, 1], "padding": "same", "data_format": "channels_last", "dilation_rate": [1, 1], "groups": 1, "activation": "linear", "use_bias": false, "kernel_initializer": {"class_name": "GlorotUniform", "config": {"seed": null}}, "bias_initializer": {"class_name": "Zeros", "config": {}}, "kernel_regularizer": null, "bias_regularizer": null, "activity_regularizer": null, "kernel_constraint": null, "bias_constraint": null}, "name": "conv2d_156", "inbound_nodes": [[["activation_155", 0, 0, {}]]]}, {"class_name": "Conv2D", "config": {"name": "conv2d_161", "trainable": false, "dtype": "float32", "filters": 192, "kernel_size": [7, 1], "strides": [1, 1], "padding": "same", "data_format": "channels_last", "dilation_rate": [1, 1], "groups": 1, "activation": "linear", "use_bias": false, "kernel_initializer": {"class_name": "GlorotUniform", "config": {"seed": null}}, "bias_initializer": {"class_name": "Zeros", "config": {}}, "kernel_regularizer": null, "bias_regularizer": null, "activity_regularizer": null, "kernel_constraint": null, "bias_constraint": null}, "name": "conv2d_161", "inbound_nodes": [[["activation_160", 0, 0, {}]]]}, {"class_name": "BatchNormalization", "config": {"name": "batch_normalization_156", "trainable": false, "dtype": "float32", "axis": [3], "momentum": 0.99, "epsilon": 0.001, "center": true, "scale": false, "beta_initializer": {"class_name": "Zeros", "config": {}}, "gamma_initializer": {"class_name": "Ones", "config": {}}, "moving_mean_initializer": {"class_name": "Zeros", "config": {}}, "moving_variance_initializer": {"class_name": "Ones", "config": {}}, "beta_regularizer": null, "gamma_regularizer": null, "beta_constraint": null, "gamma_constraint": null}, "name": "batch_normalization_156", "inbound_nodes": [[["conv2d_156", 0, 0, {}]]]}, {"class_name": "BatchNormalization", "config": {"name": "batch_normalization_161", "trainable": false, "dtype": "float32", "axis": [3], "momentum": 0.99, "epsilon": 0.001, "center": true, "scale": false, "beta_initializer": {"class_name": "Zeros", "config": {}}, "gamma_initializer": {"class_name": "Ones", "config": {}}, "moving_mean_initializer": {"class_name": "Zeros", "config": {}}, "moving_variance_initializer": {"class_name": "Ones", "config": {}}, "beta_regularizer": null, "gamma_regularizer": null, "beta_constraint": null, "gamma_constraint": null}, "name": "batch_normalization_161", "inbound_nodes": [[["conv2d_161", 0, 0, {}]]]}, {"class_name": "Activation", "config": {"name": "activation_156", "trainable": false, "dtype": "float32", "activation": "relu"}, "name": "activation_156", "inbound_nodes": [[["batch_normalization_156", 0, 0, {}]]]}, {"class_name": "Activation", "config": {"name": "activation_161", "trainable": false, "dtype": "float32", "activation": "relu"}, "name": "activation_161", "inbound_nodes": [[["batch_normalization_161", 0, 0, {}]]]}, {"class_name": "AveragePooling2D", "config": {"name": "average_pooling2d_15", "trainable": false, "dtype": "float32", "pool_size": [3, 3], "padding": "same", "strides": [1, 1], "data_format": "channels_last"}, "name": "average_pooling2d_15", "inbound_nodes": [[["mixed6", 0, 0, {}]]]}, {"class_name": "Conv2D", "config": {"name": "conv2d_154", "trainable": false, "dtype": "float32", "filters": 192, "kernel_size": [1, 1], "strides": [1, 1], "padding": "same", "data_format": "channels_last", "dilation_rate": [1, 1], "groups": 1, "activation": "linear", "use_bias": false, "kernel_initializer": {"class_name": "GlorotUniform", "config": {"seed": null}}, "bias_initializer": {"class_name": "Zeros", "config": {}}, "kernel_regularizer": null, "bias_regularizer": null, "activity_regularizer": null, "kernel_constraint": null, "bias_constraint": null}, "name": "conv2d_154", "inbound_nodes": [[["mixed6", 0, 0, {}]]]}, {"class_name": "Conv2D", "config": {"name": "conv2d_157", "trainable": false, "dtype": "float32", "filters": 192, "kernel_size": [7, 1], "strides": [1, 1], "padding": "same", "data_format": "channels_last", "dilation_rate": [1, 1], "groups": 1, "activation": "linear", "use_bias": false, "kernel_initializer": {"class_name": "GlorotUniform", "config": {"seed": null}}, "bias_initializer": {"class_name": "Zeros", "config": {}}, "kernel_regularizer": null, "bias_regularizer": null, "activity_regularizer": null, "kernel_constraint": null, "bias_constraint": null}, "name": "conv2d_157", "inbound_nodes": [[["activation_156", 0, 0, {}]]]}, {"class_name": "Conv2D", "config": {"name": "conv2d_162", "trainable": false, "dtype": "float32", "filters": 192, "kernel_size": [1, 7], "strides": [1, 1], "padding": "same", "data_format": "channels_last", "dilation_rate": [1, 1], "groups": 1, "activation": "linear", "use_bias": false, "kernel_initializer": {"class_name": "GlorotUniform", "config": {"seed": null}}, "bias_initializer": {"class_name": "Zeros", "config": {}}, "kernel_regularizer": null, "bias_regularizer": null, "activity_regularizer": null, "kernel_constraint": null, "bias_constraint": null}, "name": "conv2d_162", "inbound_nodes": [[["activation_161", 0, 0, {}]]]}, {"class_name": "Conv2D", "config": {"name": "conv2d_163", "trainable": false, "dtype": "float32", "filters": 192, "kernel_size": [1, 1], "strides": [1, 1], "padding": "same", "data_format": "channels_last", "dilation_rate": [1, 1], "groups": 1, "activation": "linear", "use_bias": false, "kernel_initializer": {"class_name": "GlorotUniform", "config": {"seed": null}}, "bias_initializer": {"class_name": "Zeros", "config": {}}, "kernel_regularizer": null, "bias_regularizer": null, "activity_regularizer": null, "kernel_constraint": null, "bias_constraint": null}, "name": "conv2d_163", "inbound_nodes": [[["average_pooling2d_15", 0, 0, {}]]]}, {"class_name": "BatchNormalization", "config": {"name": "batch_normalization_154", "trainable": false, "dtype": "float32", "axis": [3], "momentum": 0.99, "epsilon": 0.001, "center": true, "scale": false, "beta_initializer": {"class_name": "Zeros", "config": {}}, "gamma_initializer": {"class_name": "Ones", "config": {}}, "moving_mean_initializer": {"class_name": "Zeros", "config": {}}, "moving_variance_initializer": {"class_name": "Ones", "config": {}}, "beta_regularizer": null, "gamma_regularizer": null, "beta_constraint": null, "gamma_constraint": null}, "name": "batch_normalization_154", "inbound_nodes": [[["conv2d_154", 0, 0, {}]]]}, {"class_name": "BatchNormalization", "config": {"name": "batch_normalization_157", "trainable": false, "dtype": "float32", "axis": [3], "momentum": 0.99, "epsilon": 0.001, "center": true, "scale": false, "beta_initializer": {"class_name": "Zeros", "config": {}}, "gamma_initializer": {"class_name": "Ones", "config": {}}, "moving_mean_initializer": {"class_name": "Zeros", "config": {}}, "moving_variance_initializer": {"class_name": "Ones", "config": {}}, "beta_regularizer": null, "gamma_regularizer": null, "beta_constraint": null, "gamma_constraint": null}, "name": "batch_normalization_157", "inbound_nodes": [[["conv2d_157", 0, 0, {}]]]}, {"class_name": "BatchNormalization", "config": {"name": "batch_normalization_162", "trainable": false, "dtype": "float32", "axis": [3], "momentum": 0.99, "epsilon": 0.001, "center": true, "scale": false, "beta_initializer": {"class_name": "Zeros", "config": {}}, "gamma_initializer": {"class_name": "Ones", "config": {}}, "moving_mean_initializer": {"class_name": "Zeros", "config": {}}, "moving_variance_initializer": {"class_name": "Ones", "config": {}}, "beta_regularizer": null, "gamma_regularizer": null, "beta_constraint": null, "gamma_constraint": null}, "name": "batch_normalization_162", "inbound_nodes": [[["conv2d_162", 0, 0, {}]]]}, {"class_name": "BatchNormalization", "config": {"name": "batch_normalization_163", "trainable": false, "dtype": "float32", "axis": [3], "momentum": 0.99, "epsilon": 0.001, "center": true, "scale": false, "beta_initializer": {"class_name": "Zeros", "config": {}}, "gamma_initializer": {"class_name": "Ones", "config": {}}, "moving_mean_initializer": {"class_name": "Zeros", "config": {}}, "moving_variance_initializer": {"class_name": "Ones", "config": {}}, "beta_regularizer": null, "gamma_regularizer": null, "beta_constraint": null, "gamma_constraint": null}, "name": "batch_normalization_163", "inbound_nodes": [[["conv2d_163", 0, 0, {}]]]}, {"class_name": "Activation", "config": {"name": "activation_154", "trainable": false, "dtype": "float32", "activation": "relu"}, "name": "activation_154", "inbound_nodes": [[["batch_normalization_154", 0, 0, {}]]]}, {"class_name": "Activation", "config": {"name": "activation_157", "trainable": false, "dtype": "float32", "activation": "relu"}, "name": "activation_157", "inbound_nodes": [[["batch_normalization_157", 0, 0, {}]]]}, {"class_name": "Activation", "config": {"name": "activation_162", "trainable": false, "dtype": "float32", "activation": "relu"}, "name": "activation_162", "inbound_nodes": [[["batch_normalization_162", 0, 0, {}]]]}, {"class_name": "Activation", "config": {"name": "activation_163", "trainable": false, "dtype": "float32", "activation": "relu"}, "name": "activation_163", "inbound_nodes": [[["batch_normalization_163", 0, 0, {}]]]}, {"class_name": "Concatenate", "config": {"name": "mixed7", "trainable": false, "dtype": "float32", "axis": 3}, "name": "mixed7", "inbound_nodes": [[["activation_154", 0, 0, {}], ["activation_157", 0, 0, {}], ["activation_162", 0, 0, {}], ["activation_163", 0, 0, {}]]]}, {"class_name": "Flatten", "config": {"name": "flatten_1", "trainable": true, "dtype": "float32", "data_format": "channels_last"}, "name": "flatten_1", "inbound_nodes": [[["mixed7", 0, 0, {}]]]}, {"class_name": "Dense", "config": {"name": "dense_2", "trainable": true, "dtype": "float32", "units": 32, "activation": "relu", "use_bias": true, "kernel_initializer": {"class_name": "GlorotUniform", "config": {"seed": null}}, "bias_initializer": {"class_name": "Zeros", "config": {}}, "kernel_regularizer": null, "bias_regularizer": null, "activity_regularizer": null, "kernel_constraint": null, "bias_constraint": null}, "name": "dense_2", "inbound_nodes": [[["flatten_1", 0, 0, {}]]]}, {"class_name": "Dropout", "config": {"name": "dropout_1", "trainable": true, "dtype": "float32", "rate": 0.2, "noise_shape": null, "seed": null}, "name": "dropout_1", "inbound_nodes": [[["dense_2", 0, 0, {}]]]}, {"class_name": "Dense", "config": {"name": "dense_3", "trainable": true, "dtype": "float32", "units": 1, "activation": "sigmoid", "use_bias": true, "kernel_initializer": {"class_name": "GlorotUniform", "config": {"seed": null}}, "bias_initializer": {"class_name": "Zeros", "config": {}}, "kernel_regularizer": null, "bias_regularizer": null, "activity_regularizer": null, "kernel_constraint": null, "bias_constraint": null}, "name": "dense_3", "inbound_nodes": [[["dropout_1", 0, 0, {}]]]}], "input_layers": [["input_2", 0, 0]], "output_layers": [["dense_3", 0, 0]]}}, "training_config": {"loss": "binary_crossentropy", "metrics": [[{"class_name": "MeanMetricWrapper", "config": {"name": "accuracy", "dtype": "float32", "fn": "binary_accuracy"}}]], "weighted_metrics": null, "loss_weights": null, "optimizer_config": {"class_name": "RMSprop", "config": {"name": "RMSprop", "learning_rate": 0.0010000000474974513, "decay": 0.0, "rho": 0.8999999761581421, "momentum": 0.0, "epsilon": 1e-07, "centered": false}}}}, "weightsManifest": [{"paths": ["group1-shard1of16.bin", "group1-shard2of16.bin", "group1-shard3of16.bin", "group1-shard4of16.bin", "group1-shard5of16.bin", "group1-shard6of16.bin", "group1-shard7of16.bin", "group1-shard8of16.bin", "group1-shard9of16.bin", "group1-shard10of16.bin", "group1-shard11of16.bin", "group1-shard12of16.bin", "group1-shard13of16.bin", "group1-shard14of16.bin", "group1-shard15of16.bin", "group1-shard16of16.bin"], "weights": [{"name": "batch_normalization_100/beta", "shape": [48], "dtype": "float32"}, {"name": "batch_normalization_100/moving_mean", "shape": [48], "dtype": "float32"}, {"name": "batch_normalization_100/moving_variance", "shape": [48], "dtype": "float32"}, {"name": "batch_normalization_101/beta", "shape": [64], "dtype": "float32"}, {"name": "batch_normalization_101/moving_mean", "shape": [64], "dtype": "float32"}, {"name": "batch_normalization_101/moving_variance", "shape": [64], "dtype": "float32"}, {"name": "batch_normalization_102/beta", "shape": [64], "dtype": "float32"}, {"name": "batch_normalization_102/moving_mean", "shape": [64], "dtype": "float32"}, {"name": "batch_normalization_102/moving_variance", "shape": [64], "dtype": "float32"}, {"name": "batch_normalization_103/beta", "shape": [96], "dtype": "float32"}, {"name": "batch_normalization_103/moving_mean", "shape": [96], "dtype": "float32"}, {"name": "batch_normalization_103/moving_variance", "shape": [96], "dtype": "float32"}, {"name": "batch_normalization_104/beta", "shape": [96], "dtype": "float32"}, {"name": "batch_normalization_104/moving_mean", "shape": [96], "dtype": "float32"}, {"name": "batch_normalization_104/moving_variance", "shape": [96], "dtype": "float32"}, {"name": "batch_normalization_105/beta", "shape": [32], "dtype": "float32"}, {"name": "batch_normalization_105/moving_mean", "shape": [32], "dtype": "float32"}, {"name": "batch_normalization_105/moving_variance", "shape": [32], "dtype": "float32"}, {"name": "batch_normalization_106/beta", "shape": [64], "dtype": "float32"}, {"name": "batch_normalization_106/moving_mean", "shape": [64], "dtype": "float32"}, {"name": "batch_normalization_106/moving_variance", "shape": [64], "dtype": "float32"}, {"name": "batch_normalization_107/beta", "shape": [48], "dtype": "float32"}, {"name": "batch_normalization_107/moving_mean", "shape": [48], "dtype": "float32"}, {"name": "batch_normalization_107/moving_variance", "shape": [48], "dtype": "float32"}, {"name": "batch_normalization_108/beta", "shape": [64], "dtype": "float32"}, {"name": "batch_normalization_108/moving_mean", "shape": [64], "dtype": "float32"}, {"name": "batch_normalization_108/moving_variance", "shape": [64], "dtype": "float32"}, {"name": "batch_normalization_109/beta", "shape": [64], "dtype": "float32"}, {"name": "batch_normalization_109/moving_mean", "shape": [64], "dtype": "float32"}, {"name": "batch_normalization_109/moving_variance", "shape": [64], "dtype": "float32"}, {"name": "batch_normalization_110/beta", "shape": [96], "dtype": "float32"}, {"name": "batch_normalization_110/moving_mean", "shape": [96], "dtype": "float32"}, {"name": "batch_normalization_110/moving_variance", "shape": [96], "dtype": "float32"}, {"name": "batch_normalization_111/beta", "shape": [96], "dtype": "float32"}, {"name": "batch_normalization_111/moving_mean", "shape": [96], "dtype": "float32"}, {"name": "batch_normalization_111/moving_variance", "shape": [96], "dtype": "float32"}, {"name": "batch_normalization_112/beta", "shape": [64], "dtype": "float32"}, {"name": "batch_normalization_112/moving_mean", "shape": [64], "dtype": "float32"}, {"name": "batch_normalization_112/moving_variance", "shape": [64], "dtype": "float32"}, {"name": "batch_normalization_113/beta", "shape": [64], "dtype": "float32"}, {"name": "batch_normalization_113/moving_mean", "shape": [64], "dtype": "float32"}, {"name": "batch_normalization_113/moving_variance", "shape": [64], "dtype": "float32"}, {"name": "batch_normalization_114/beta", "shape": [48], "dtype": "float32"}, {"name": "batch_normalization_114/moving_mean", "shape": [48], "dtype": "float32"}, {"name": "batch_normalization_114/moving_variance", "shape": [48], "dtype": "float32"}, {"name": "batch_normalization_115/beta", "shape": [64], "dtype": "float32"}, {"name": "batch_normalization_115/moving_mean", "shape": [64], "dtype": "float32"}, {"name": "batch_normalization_115/moving_variance", "shape": [64], "dtype": "float32"}, {"name": "batch_normalization_116/beta", "shape": [64], "dtype": "float32"}, {"name": "batch_normalization_116/moving_mean", "shape": [64], "dtype": "float32"}, {"name": "batch_normalization_116/moving_variance", "shape": [64], "dtype": "float32"}, {"name": "batch_normalization_117/beta", "shape": [96], "dtype": "float32"}, {"name": "batch_normalization_117/moving_mean", "shape": [96], "dtype": "float32"}, {"name": "batch_normalization_117/moving_variance", "shape": [96], "dtype": "float32"}, {"name": "batch_normalization_118/beta", "shape": [96], "dtype": "float32"}, {"name": "batch_normalization_118/moving_mean", "shape": [96], "dtype": "float32"}, {"name": "batch_normalization_118/moving_variance", "shape": [96], "dtype": "float32"}, {"name": "batch_normalization_119/beta", "shape": [64], "dtype": "float32"}, {"name": "batch_normalization_119/moving_mean", "shape": [64], "dtype": "float32"}, {"name": "batch_normalization_119/moving_variance", "shape": [64], "dtype": "float32"}, {"name": "batch_normalization_120/beta", "shape": [384], "dtype": "float32"}, {"name": "batch_normalization_120/moving_mean", "shape": [384], "dtype": "float32"}, {"name": "batch_normalization_120/moving_variance", "shape": [384], "dtype": "float32"}, {"name": "batch_normalization_121/beta", "shape": [64], "dtype": "float32"}, {"name": "batch_normalization_121/moving_mean", "shape": [64], "dtype": "float32"}, {"name": "batch_normalization_121/moving_variance", "shape": [64], "dtype": "float32"}, {"name": "batch_normalization_122/beta", "shape": [96], "dtype": "float32"}, {"name": "batch_normalization_122/moving_mean", "shape": [96], "dtype": "float32"}, {"name": "batch_normalization_122/moving_variance", "shape": [96], "dtype": "float32"}, {"name": "batch_normalization_123/beta", "shape": [96], "dtype": "float32"}, {"name": "batch_normalization_123/moving_mean", "shape": [96], "dtype": "float32"}, {"name": "batch_normalization_123/moving_variance", "shape": [96], "dtype": "float32"}, {"name": "batch_normalization_124/beta", "shape": [192], "dtype": "float32"}, {"name": "batch_normalization_124/moving_mean", "shape": [192], "dtype": "float32"}, {"name": "batch_normalization_124/moving_variance", "shape": [192], "dtype": "float32"}, {"name": "batch_normalization_125/beta", "shape": [128], "dtype": "float32"}, {"name": "batch_normalization_125/moving_mean", "shape": [128], "dtype": "float32"}, {"name": "batch_normalization_125/moving_variance", "shape": [128], "dtype": "float32"}, {"name": "batch_normalization_126/beta", "shape": [128], "dtype": "float32"}, {"name": "batch_normalization_126/moving_mean", "shape": [128], "dtype": "float32"}, {"name": "batch_normalization_126/moving_variance", "shape": [128], "dtype": "float32"}, {"name": "batch_normalization_127/beta", "shape": [192], "dtype": "float32"}, {"name": "batch_normalization_127/moving_mean", "shape": [192], "dtype": "float32"}, {"name": "batch_normalization_127/moving_variance", "shape": [192], "dtype": "float32"}, {"name": "batch_normalization_128/beta", "shape": [128], "dtype": "float32"}, {"name": "batch_normalization_128/moving_mean", "shape": [128], "dtype": "float32"}, {"name": "batch_normalization_128/moving_variance", "shape": [128], "dtype": "float32"}, {"name": "batch_normalization_129/beta", "shape": [128], "dtype": "float32"}, {"name": "batch_normalization_129/moving_mean", "shape": [128], "dtype": "float32"}, {"name": "batch_normalization_129/moving_variance", "shape": [128], "dtype": "float32"}, {"name": "batch_normalization_130/beta", "shape": [128], "dtype": "float32"}, {"name": "batch_normalization_130/moving_mean", "shape": [128], "dtype": "float32"}, {"name": "batch_normalization_130/moving_variance", "shape": [128], "dtype": "float32"}, {"name": "batch_normalization_131/beta", "shape": [128], "dtype": "float32"}, {"name": "batch_normalization_131/moving_mean", "shape": [128], "dtype": "float32"}, {"name": "batch_normalization_131/moving_variance", "shape": [128], "dtype": "float32"}, {"name": "batch_normalization_132/beta", "shape": [192], "dtype": "float32"}, {"name": "batch_normalization_132/moving_mean", "shape": [192], "dtype": "float32"}, {"name": "batch_normalization_132/moving_variance", "shape": [192], "dtype": "float32"}, {"name": "batch_normalization_133/beta", "shape": [192], "dtype": "float32"}, {"name": "batch_normalization_133/moving_mean", "shape": [192], "dtype": "float32"}, {"name": "batch_normalization_133/moving_variance", "shape": [192], "dtype": "float32"}, {"name": "batch_normalization_134/beta", "shape": [192], "dtype": "float32"}, {"name": "batch_normalization_134/moving_mean", "shape": [192], "dtype": "float32"}, {"name": "batch_normalization_134/moving_variance", "shape": [192], "dtype": "float32"}, {"name": "batch_normalization_135/beta", "shape": [160], "dtype": "float32"}, {"name": "batch_normalization_135/moving_mean", "shape": [160], "dtype": "float32"}, {"name": "batch_normalization_135/moving_variance", "shape": [160], "dtype": "float32"}, {"name": "batch_normalization_136/beta", "shape": [160], "dtype": "float32"}, {"name": "batch_normalization_136/moving_mean", "shape": [160], "dtype": "float32"}, {"name": "batch_normalization_136/moving_variance", "shape": [160], "dtype": "float32"}, {"name": "batch_normalization_137/beta", "shape": [192], "dtype": "float32"}, {"name": "batch_normalization_137/moving_mean", "shape": [192], "dtype": "float32"}, {"name": "batch_normalization_137/moving_variance", "shape": [192], "dtype": "float32"}, {"name": "batch_normalization_138/beta", "shape": [160], "dtype": "float32"}, {"name": "batch_normalization_138/moving_mean", "shape": [160], "dtype": "float32"}, {"name": "batch_normalization_138/moving_variance", "shape": [160], "dtype": "float32"}, {"name": "batch_normalization_139/beta", "shape": [160], "dtype": "float32"}, {"name": "batch_normalization_139/moving_mean", "shape": [160], "dtype": "float32"}, {"name": "batch_normalization_139/moving_variance", "shape": [160], "dtype": "float32"}, {"name": "batch_normalization_140/beta", "shape": [160], "dtype": "float32"}, {"name": "batch_normalization_140/moving_mean", "shape": [160], "dtype": "float32"}, {"name": "batch_normalization_140/moving_variance", "shape": [160], "dtype": "float32"}, {"name": "batch_normalization_141/beta", "shape": [160], "dtype": "float32"}, {"name": "batch_normalization_141/moving_mean", "shape": [160], "dtype": "float32"}, {"name": "batch_normalization_141/moving_variance", "shape": [160], "dtype": "float32"}, {"name": "batch_normalization_142/beta", "shape": [192], "dtype": "float32"}, {"name": "batch_normalization_142/moving_mean", "shape": [192], "dtype": "float32"}, {"name": "batch_normalization_142/moving_variance", "shape": [192], "dtype": "float32"}, {"name": "batch_normalization_143/beta", "shape": [192], "dtype": "float32"}, {"name": "batch_normalization_143/moving_mean", "shape": [192], "dtype": "float32"}, {"name": "batch_normalization_143/moving_variance", "shape": [192], "dtype": "float32"}, {"name": "batch_normalization_144/beta", "shape": [192], "dtype": "float32"}, {"name": "batch_normalization_144/moving_mean", "shape": [192], "dtype": "float32"}, {"name": "batch_normalization_144/moving_variance", "shape": [192], "dtype": "float32"}, {"name": "batch_normalization_145/beta", "shape": [160], "dtype": "float32"}, {"name": "batch_normalization_145/moving_mean", "shape": [160], "dtype": "float32"}, {"name": "batch_normalization_145/moving_variance", "shape": [160], "dtype": "float32"}, {"name": "batch_normalization_146/beta", "shape": [160], "dtype": "float32"}, {"name": "batch_normalization_146/moving_mean", "shape": [160], "dtype": "float32"}, {"name": "batch_normalization_146/moving_variance", "shape": [160], "dtype": "float32"}, {"name": "batch_normalization_147/beta", "shape": [192], "dtype": "float32"}, {"name": "batch_normalization_147/moving_mean", "shape": [192], "dtype": "float32"}, {"name": "batch_normalization_147/moving_variance", "shape": [192], "dtype": "float32"}, {"name": "batch_normalization_148/beta", "shape": [160], "dtype": "float32"}, {"name": "batch_normalization_148/moving_mean", "shape": [160], "dtype": "float32"}, {"name": "batch_normalization_148/moving_variance", "shape": [160], "dtype": "float32"}, {"name": "batch_normalization_149/beta", "shape": [160], "dtype": "float32"}, {"name": "batch_normalization_149/moving_mean", "shape": [160], "dtype": "float32"}, {"name": "batch_normalization_149/moving_variance", "shape": [160], "dtype": "float32"}, {"name": "batch_normalization_150/beta", "shape": [160], "dtype": "float32"}, {"name": "batch_normalization_150/moving_mean", "shape": [160], "dtype": "float32"}, {"name": "batch_normalization_150/moving_variance", "shape": [160], "dtype": "float32"}, {"name": "batch_normalization_151/beta", "shape": [160], "dtype": "float32"}, {"name": "batch_normalization_151/moving_mean", "shape": [160], "dtype": "float32"}, {"name": "batch_normalization_151/moving_variance", "shape": [160], "dtype": "float32"}, {"name": "batch_normalization_152/beta", "shape": [192], "dtype": "float32"}, {"name": "batch_normalization_152/moving_mean", "shape": [192], "dtype": "float32"}, {"name": "batch_normalization_152/moving_variance", "shape": [192], "dtype": "float32"}, {"name": "batch_normalization_153/beta", "shape": [192], "dtype": "float32"}, {"name": "batch_normalization_153/moving_mean", "shape": [192], "dtype": "float32"}, {"name": "batch_normalization_153/moving_variance", "shape": [192], "dtype": "float32"}, {"name": "batch_normalization_154/beta", "shape": [192], "dtype": "float32"}, {"name": "batch_normalization_154/moving_mean", "shape": [192], "dtype": "float32"}, {"name": "batch_normalization_154/moving_variance", "shape": [192], "dtype": "float32"}, {"name": "batch_normalization_155/beta", "shape": [192], "dtype": "float32"}, {"name": "batch_normalization_155/moving_mean", "shape": [192], "dtype": "float32"}, {"name": "batch_normalization_155/moving_variance", "shape": [192], "dtype": "float32"}, {"name": "batch_normalization_156/beta", "shape": [192], "dtype": "float32"}, {"name": "batch_normalization_156/moving_mean", "shape": [192], "dtype": "float32"}, {"name": "batch_normalization_156/moving_variance", "shape": [192], "dtype": "float32"}, {"name": "batch_normalization_157/beta", "shape": [192], "dtype": "float32"}, {"name": "batch_normalization_157/moving_mean", "shape": [192], "dtype": "float32"}, {"name": "batch_normalization_157/moving_variance", "shape": [192], "dtype": "float32"}, {"name": "batch_normalization_158/beta", "shape": [192], "dtype": "float32"}, {"name": "batch_normalization_158/moving_mean", "shape": [192], "dtype": "float32"}, {"name": "batch_normalization_158/moving_variance", "shape": [192], "dtype": "float32"}, {"name": "batch_normalization_159/beta", "shape": [192], "dtype": "float32"}, {"name": "batch_normalization_159/moving_mean", "shape": [192], "dtype": "float32"}, {"name": "batch_normalization_159/moving_variance", "shape": [192], "dtype": "float32"}, {"name": "batch_normalization_160/beta", "shape": [192], "dtype": "float32"}, {"name": "batch_normalization_160/moving_mean", "shape": [192], "dtype": "float32"}, {"name": "batch_normalization_160/moving_variance", "shape": [192], "dtype": "float32"}, {"name": "batch_normalization_161/beta", "shape": [192], "dtype": "float32"}, {"name": "batch_normalization_161/moving_mean", "shape": [192], "dtype": "float32"}, {"name": "batch_normalization_161/moving_variance", "shape": [192], "dtype": "float32"}, {"name": "batch_normalization_162/beta", "shape": [192], "dtype": "float32"}, {"name": "batch_normalization_162/moving_mean", "shape": [192], "dtype": "float32"}, {"name": "batch_normalization_162/moving_variance", "shape": [192], "dtype": "float32"}, {"name": "batch_normalization_163/beta", "shape": [192], "dtype": "float32"}, {"name": "batch_normalization_163/moving_mean", "shape": [192], "dtype": "float32"}, {"name": "batch_normalization_163/moving_variance", "shape": [192], "dtype": "float32"}, {"name": "batch_normalization_94/beta", "shape": [32], "dtype": "float32"}, {"name": "batch_normalization_94/moving_mean", "shape": [32], "dtype": "float32"}, {"name": "batch_normalization_94/moving_variance", "shape": [32], "dtype": "float32"}, {"name": "batch_normalization_95/beta", "shape": [32], "dtype": "float32"}, {"name": "batch_normalization_95/moving_mean", "shape": [32], "dtype": "float32"}, {"name": "batch_normalization_95/moving_variance", "shape": [32], "dtype": "float32"}, {"name": "batch_normalization_96/beta", "shape": [64], "dtype": "float32"}, {"name": "batch_normalization_96/moving_mean", "shape": [64], "dtype": "float32"}, {"name": "batch_normalization_96/moving_variance", "shape": [64], "dtype": "float32"}, {"name": "batch_normalization_97/beta", "shape": [80], "dtype": "float32"}, {"name": "batch_normalization_97/moving_mean", "shape": [80], "dtype": "float32"}, {"name": "batch_normalization_97/moving_variance", "shape": [80], "dtype": "float32"}, {"name": "batch_normalization_98/beta", "shape": [192], "dtype": "float32"}, {"name": "batch_normalization_98/moving_mean", "shape": [192], "dtype": "float32"}, {"name": "batch_normalization_98/moving_variance", "shape": [192], "dtype": "float32"}, {"name": "batch_normalization_99/beta", "shape": [64], "dtype": "float32"}, {"name": "batch_normalization_99/moving_mean", "shape": [64], "dtype": "float32"}, {"name": "batch_normalization_99/moving_variance", "shape": [64], "dtype": "float32"}, {"name": "conv2d_100/kernel", "shape": [1, 1, 192, 48], "dtype": "float32"}, {"name": "conv2d_101/kernel", "shape": [5, 5, 48, 64], "dtype": "float32"}, {"name": "conv2d_102/kernel", "shape": [1, 1, 192, 64], "dtype": "float32"}, {"name": "conv2d_103/kernel", "shape": [3, 3, 64, 96], "dtype": "float32"}, {"name": "conv2d_104/kernel", "shape": [3, 3, 96, 96], "dtype": "float32"}, {"name": "conv2d_105/kernel", "shape": [1, 1, 192, 32], "dtype": "float32"}, {"name": "conv2d_106/kernel", "shape": [1, 1, 256, 64], "dtype": "float32"}, {"name": "conv2d_107/kernel", "shape": [1, 1, 256, 48], "dtype": "float32"}, {"name": "conv2d_108/kernel", "shape": [5, 5, 48, 64], "dtype": "float32"}, {"name": "conv2d_109/kernel", "shape": [1, 1, 256, 64], "dtype": "float32"}, {"name": "conv2d_110/kernel", "shape": [3, 3, 64, 96], "dtype": "float32"}, {"name": "conv2d_111/kernel", "shape": [3, 3, 96, 96], "dtype": "float32"}, {"name": "conv2d_112/kernel", "shape": [1, 1, 256, 64], "dtype": "float32"}, {"name": "conv2d_113/kernel", "shape": [1, 1, 288, 64], "dtype": "float32"}, {"name": "conv2d_114/kernel", "shape": [1, 1, 288, 48], "dtype": "float32"}, {"name": "conv2d_115/kernel", "shape": [5, 5, 48, 64], "dtype": "float32"}, {"name": "conv2d_116/kernel", "shape": [1, 1, 288, 64], "dtype": "float32"}, {"name": "conv2d_117/kernel", "shape": [3, 3, 64, 96], "dtype": "float32"}, {"name": "conv2d_118/kernel", "shape": [3, 3, 96, 96], "dtype": "float32"}, {"name": "conv2d_119/kernel", "shape": [1, 1, 288, 64], "dtype": "float32"}, {"name": "conv2d_120/kernel", "shape": [3, 3, 288, 384], "dtype": "float32"}, {"name": "conv2d_121/kernel", "shape": [1, 1, 288, 64], "dtype": "float32"}, {"name": "conv2d_122/kernel", "shape": [3, 3, 64, 96], "dtype": "float32"}, {"name": "conv2d_123/kernel", "shape": [3, 3, 96, 96], "dtype": "float32"}, {"name": "conv2d_124/kernel", "shape": [1, 1, 768, 192], "dtype": "float32"}, {"name": "conv2d_125/kernel", "shape": [1, 1, 768, 128], "dtype": "float32"}, {"name": "conv2d_126/kernel", "shape": [1, 7, 128, 128], "dtype": "float32"}, {"name": "conv2d_127/kernel", "shape": [7, 1, 128, 192], "dtype": "float32"}, {"name": "conv2d_128/kernel", "shape": [1, 1, 768, 128], "dtype": "float32"}, {"name": "conv2d_129/kernel", "shape": [7, 1, 128, 128], "dtype": "float32"}, {"name": "conv2d_130/kernel", "shape": [1, 7, 128, 128], "dtype": "float32"}, {"name": "conv2d_131/kernel", "shape": [7, 1, 128, 128], "dtype": "float32"}, {"name": "conv2d_132/kernel", "shape": [1, 7, 128, 192], "dtype": "float32"}, {"name": "conv2d_133/kernel", "shape": [1, 1, 768, 192], "dtype": "float32"}, {"name": "conv2d_134/kernel", "shape": [1, 1, 768, 192], "dtype": "float32"}, {"name": "conv2d_135/kernel", "shape": [1, 1, 768, 160], "dtype": "float32"}, {"name": "conv2d_136/kernel", "shape": [1, 7, 160, 160], "dtype": "float32"}, {"name": "conv2d_137/kernel", "shape": [7, 1, 160, 192], "dtype": "float32"}, {"name": "conv2d_138/kernel", "shape": [1, 1, 768, 160], "dtype": "float32"}, {"name": "conv2d_139/kernel", "shape": [7, 1, 160, 160], "dtype": "float32"}, {"name": "conv2d_140/kernel", "shape": [1, 7, 160, 160], "dtype": "float32"}, {"name": "conv2d_141/kernel", "shape": [7, 1, 160, 160], "dtype": "float32"}, {"name": "conv2d_142/kernel", "shape": [1, 7, 160, 192], "dtype": "float32"}, {"name": "conv2d_143/kernel", "shape": [1, 1, 768, 192], "dtype": "float32"}, {"name": "conv2d_144/kernel", "shape": [1, 1, 768, 192], "dtype": "float32"}, {"name": "conv2d_145/kernel", "shape": [1, 1, 768, 160], "dtype": "float32"}, {"name": "conv2d_146/kernel", "shape": [1, 7, 160, 160], "dtype": "float32"}, {"name": "conv2d_147/kernel", "shape": [7, 1, 160, 192], "dtype": "float32"}, {"name": "conv2d_148/kernel", "shape": [1, 1, 768, 160], "dtype": "float32"}, {"name": "conv2d_149/kernel", "shape": [7, 1, 160, 160], "dtype": "float32"}, {"name": "conv2d_150/kernel", "shape": [1, 7, 160, 160], "dtype": "float32"}, {"name": "conv2d_151/kernel", "shape": [7, 1, 160, 160], "dtype": "float32"}, {"name": "conv2d_152/kernel", "shape": [1, 7, 160, 192], "dtype": "float32"}, {"name": "conv2d_153/kernel", "shape": [1, 1, 768, 192], "dtype": "float32"}, {"name": "conv2d_154/kernel", "shape": [1, 1, 768, 192], "dtype": "float32"}, {"name": "conv2d_155/kernel", "shape": [1, 1, 768, 192], "dtype": "float32"}, {"name": "conv2d_156/kernel", "shape": [1, 7, 192, 192], "dtype": "float32"}, {"name": "conv2d_157/kernel", "shape": [7, 1, 192, 192], "dtype": "float32"}, {"name": "conv2d_158/kernel", "shape": [1, 1, 768, 192], "dtype": "float32"}, {"name": "conv2d_159/kernel", "shape": [7, 1, 192, 192], "dtype": "float32"}, {"name": "conv2d_160/kernel", "shape": [1, 7, 192, 192], "dtype": "float32"}, {"name": "conv2d_161/kernel", "shape": [7, 1, 192, 192], "dtype": "float32"}, {"name": "conv2d_162/kernel", "shape": [1, 7, 192, 192], "dtype": "float32"}, {"name": "conv2d_163/kernel", "shape": [1, 1, 768, 192], "dtype": "float32"}, {"name": "conv2d_94/kernel", "shape": [3, 3, 3, 32], "dtype": "float32"}, {"name": "conv2d_95/kernel", "shape": [3, 3, 32, 32], "dtype": "float32"}, {"name": "conv2d_96/kernel", "shape": [3, 3, 32, 64], "dtype": "float32"}, {"name": "conv2d_97/kernel", "shape": [1, 1, 64, 80], "dtype": "float32"}, {"name": "conv2d_98/kernel", "shape": [3, 3, 80, 192], "dtype": "float32"}, {"name": "conv2d_99/kernel", "shape": [1, 1, 192, 64], "dtype": "float32"}, {"name": "dense_2/kernel", "shape": [221952, 32], "dtype": "float32"}, {"name": "dense_2/bias", "shape": [32], "dtype": "float32"}, {"name": "dense_3/kernel", "shape": [32, 1], "dtype": "float32"}, {"name": "dense_3/bias", "shape": [1], "dtype": "float32"}]}]}