{"format": "layers-model", "generatedBy": "keras v2.10.0", "convertedBy": "TensorFlow.js Converter v4.0.0", "modelTopology": {"keras_version": "2.10.0", "backend": "tensorflow", "model_config": {"class_name": "Functional", "config": {"name": "model_2", "layers": [{"class_name": "InputLayer", "config": {"batch_input_shape": [null, 300, 300, 3], "dtype": "float32", "sparse": false, "ragged": false, "name": "input_3"}, "name": "input_3", "inbound_nodes": []}, {"class_name": "Conv2D", "config": {"name": "conv2d_188", "trainable": false, "dtype": "float32", "filters": 32, "kernel_size": [3, 3], "strides": [2, 2], "padding": "valid", "data_format": "channels_last", "dilation_rate": [1, 1], "groups": 1, "activation": "linear", "use_bias": false, "kernel_initializer": {"class_name": "GlorotUniform", "config": {"seed": null}}, "bias_initializer": {"class_name": "Zeros", "config": {}}, "kernel_regularizer": null, "bias_regularizer": null, "activity_regularizer": null, "kernel_constraint": null, "bias_constraint": null}, "name": "conv2d_188", "inbound_nodes": [[["input_3", 0, 0, {}]]]}, {"class_name": "BatchNormalization", "config": {"name": "batch_normalization_188", "trainable": false, "dtype": "float32", "axis": [3], "momentum": 0.99, "epsilon": 0.001, "center": true, "scale": false, "beta_initializer": {"class_name": "Zeros", "config": {}}, "gamma_initializer": {"class_name": "Ones", "config": {}}, "moving_mean_initializer": {"class_name": "Zeros", "config": {}}, "moving_variance_initializer": {"class_name": "Ones", "config": {}}, "beta_regularizer": null, "gamma_regularizer": null, "beta_constraint": null, "gamma_constraint": null}, "name": "batch_normalization_188", "inbound_nodes": [[["conv2d_188", 0, 0, {}]]]}, {"class_name": "Activation", "config": {"name": "activation_188", "trainable": false, "dtype": "float32", "activation": "relu"}, "name": "activation_188", "inbound_nodes": [[["batch_normalization_188", 0, 0, {}]]]}, {"class_name": "Conv2D", "config": {"name": "conv2d_189", "trainable": false, "dtype": "float32", "filters": 32, "kernel_size": [3, 3], "strides": [1, 1], "padding": "valid", "data_format": "channels_last", "dilation_rate": [1, 1], "groups": 1, "activation": "linear", "use_bias": false, "kernel_initializer": {"class_name": "GlorotUniform", "config": {"seed": null}}, "bias_initializer": {"class_name": "Zeros", "config": {}}, "kernel_regularizer": null, "bias_regularizer": null, "activity_regularizer": null, "kernel_constraint": null, "bias_constraint": null}, "name": "conv2d_189", "inbound_nodes": [[["activation_188", 0, 0, {}]]]}, {"class_name": "BatchNormalization", "config": {"name": "batch_normalization_189", "trainable": false, "dtype": "float32", "axis": [3], "momentum": 0.99, "epsilon": 0.001, "center": true, "scale": false, "beta_initializer": {"class_name": "Zeros", "config": {}}, "gamma_initializer": {"class_name": "Ones", "config": {}}, "moving_mean_initializer": {"class_name": "Zeros", "config": {}}, "moving_variance_initializer": {"class_name": "Ones", "config": {}}, "beta_regularizer": null, "gamma_regularizer": null, "beta_constraint": null, "gamma_constraint": null}, "name": "batch_normalization_189", "inbound_nodes": [[["conv2d_189", 0, 0, {}]]]}, {"class_name": "Activation", "config": {"name": "activation_189", "trainable": false, "dtype": "float32", "activation": "relu"}, "name": "activation_189", "inbound_nodes": [[["batch_normalization_189", 0, 0, {}]]]}, {"class_name": "Conv2D", "config": {"name": "conv2d_190", "trainable": false, "dtype": "float32", "filters": 64, "kernel_size": [3, 3], "strides": [1, 1], "padding": "same", "data_format": "channels_last", "dilation_rate": [1, 1], "groups": 1, "activation": "linear", "use_bias": false, "kernel_initializer": {"class_name": "GlorotUniform", "config": {"seed": null}}, "bias_initializer": {"class_name": "Zeros", "config": {}}, "kernel_regularizer": null, "bias_regularizer": null, "activity_regularizer": null, "kernel_constraint": null, "bias_constraint": null}, "name": "conv2d_190", "inbound_nodes": [[["activation_189", 0, 0, {}]]]}, {"class_name": "BatchNormalization", "config": {"name": "batch_normalization_190", "trainable": false, "dtype": "float32", "axis": [3], "momentum": 0.99, "epsilon": 0.001, "center": true, "scale": false, "beta_initializer": {"class_name": "Zeros", "config": {}}, "gamma_initializer": {"class_name": "Ones", "config": {}}, "moving_mean_initializer": {"class_name": "Zeros", "config": {}}, "moving_variance_initializer": {"class_name": "Ones", "config": {}}, "beta_regularizer": null, "gamma_regularizer": null, "beta_constraint": null, "gamma_constraint": null}, "name": "batch_normalization_190", "inbound_nodes": [[["conv2d_190", 0, 0, {}]]]}, {"class_name": "Activation", "config": {"name": "activation_190", "trainable": false, "dtype": "float32", "activation": "relu"}, "name": "activation_190", "inbound_nodes": [[["batch_normalization_190", 0, 0, {}]]]}, {"class_name": "MaxPooling2D", "config": {"name": "max_pooling2d_8", "trainable": false, "dtype": "float32", "pool_size": [3, 3], "padding": "valid", "strides": [2, 2], "data_format": "channels_last"}, "name": "max_pooling2d_8", "inbound_nodes": [[["activation_190", 0, 0, {}]]]}, {"class_name": "Conv2D", "config": {"name": "conv2d_191", "trainable": false, "dtype": "float32", "filters": 80, "kernel_size": [1, 1], "strides": [1, 1], "padding": "valid", "data_format": "channels_last", "dilation_rate": [1, 1], "groups": 1, "activation": "linear", "use_bias": false, "kernel_initializer": {"class_name": "GlorotUniform", "config": {"seed": null}}, "bias_initializer": {"class_name": "Zeros", "config": {}}, "kernel_regularizer": null, "bias_regularizer": null, "activity_regularizer": null, "kernel_constraint": null, "bias_constraint": null}, "name": "conv2d_191", "inbound_nodes": [[["max_pooling2d_8", 0, 0, {}]]]}, {"class_name": "BatchNormalization", "config": {"name": "batch_normalization_191", "trainable": false, "dtype": "float32", "axis": [3], "momentum": 0.99, "epsilon": 0.001, "center": true, "scale": false, "beta_initializer": {"class_name": "Zeros", "config": {}}, "gamma_initializer": {"class_name": "Ones", "config": {}}, "moving_mean_initializer": {"class_name": "Zeros", "config": {}}, "moving_variance_initializer": {"class_name": "Ones", "config": {}}, "beta_regularizer": null, "gamma_regularizer": null, "beta_constraint": null, "gamma_constraint": null}, "name": "batch_normalization_191", "inbound_nodes": [[["conv2d_191", 0, 0, {}]]]}, {"class_name": "Activation", "config": {"name": "activation_191", "trainable": false, "dtype": "float32", "activation": "relu"}, "name": "activation_191", "inbound_nodes": [[["batch_normalization_191", 0, 0, {}]]]}, {"class_name": "Conv2D", "config": {"name": "conv2d_192", "trainable": false, "dtype": "float32", "filters": 192, "kernel_size": [3, 3], "strides": [1, 1], "padding": "valid", "data_format": "channels_last", "dilation_rate": [1, 1], "groups": 1, "activation": "linear", "use_bias": false, "kernel_initializer": {"class_name": "GlorotUniform", "config": {"seed": null}}, "bias_initializer": {"class_name": "Zeros", "config": {}}, "kernel_regularizer": null, "bias_regularizer": null, "activity_regularizer": null, "kernel_constraint": null, "bias_constraint": null}, "name": "conv2d_192", "inbound_nodes": [[["activation_191", 0, 0, {}]]]}, {"class_name": "BatchNormalization", "config": {"name": "batch_normalization_192", "trainable": false, "dtype": "float32", "axis": [3], "momentum": 0.99, "epsilon": 0.001, "center": true, "scale": false, "beta_initializer": {"class_name": "Zeros", "config": {}}, "gamma_initializer": {"class_name": "Ones", "config": {}}, "moving_mean_initializer": {"class_name": "Zeros", "config": {}}, "moving_variance_initializer": {"class_name": "Ones", "config": {}}, "beta_regularizer": null, "gamma_regularizer": null, "beta_constraint": null, "gamma_constraint": null}, "name": "batch_normalization_192", "inbound_nodes": [[["conv2d_192", 0, 0, {}]]]}, {"class_name": "Activation", "config": {"name": "activation_192", "trainable": false, "dtype": "float32", "activation": "relu"}, "name": "activation_192", "inbound_nodes": [[["batch_normalization_192", 0, 0, {}]]]}, {"class_name": "MaxPooling2D", "config": {"name": "max_pooling2d_9", "trainable": false, "dtype": "float32", "pool_size": [3, 3], "padding": "valid", "strides": [2, 2], "data_format": "channels_last"}, "name": "max_pooling2d_9", "inbound_nodes": [[["activation_192", 0, 0, {}]]]}, {"class_name": "Conv2D", "config": {"name": "conv2d_196", "trainable": false, "dtype": "float32", "filters": 64, "kernel_size": [1, 1], "strides": [1, 1], "padding": "same", "data_format": "channels_last", "dilation_rate": [1, 1], "groups": 1, "activation": "linear", "use_bias": false, "kernel_initializer": {"class_name": "GlorotUniform", "config": {"seed": null}}, "bias_initializer": {"class_name": "Zeros", "config": {}}, "kernel_regularizer": null, "bias_regularizer": null, "activity_regularizer": null, "kernel_constraint": null, "bias_constraint": null}, "name": "conv2d_196", "inbound_nodes": [[["max_pooling2d_9", 0, 0, {}]]]}, {"class_name": "BatchNormalization", "config": {"name": "batch_normalization_196", "trainable": false, "dtype": "float32", "axis": [3], "momentum": 0.99, "epsilon": 0.001, "center": true, "scale": false, "beta_initializer": {"class_name": "Zeros", "config": {}}, "gamma_initializer": {"class_name": "Ones", "config": {}}, "moving_mean_initializer": {"class_name": "Zeros", "config": {}}, "moving_variance_initializer": {"class_name": "Ones", "config": {}}, "beta_regularizer": null, "gamma_regularizer": null, "beta_constraint": null, "gamma_constraint": null}, "name": "batch_normalization_196", "inbound_nodes": [[["conv2d_196", 0, 0, {}]]]}, {"class_name": "Activation", "config": {"name": "activation_196", "trainable": false, "dtype": "float32", "activation": "relu"}, "name": "activation_196", "inbound_nodes": [[["batch_normalization_196", 0, 0, {}]]]}, {"class_name": "Conv2D", "config": {"name": "conv2d_194", "trainable": false, "dtype": "float32", "filters": 48, "kernel_size": [1, 1], "strides": [1, 1], "padding": "same", "data_format": "channels_last", "dilation_rate": [1, 1], "groups": 1, "activation": "linear", "use_bias": false, "kernel_initializer": {"class_name": "GlorotUniform", "config": {"seed": null}}, "bias_initializer": {"class_name": "Zeros", "config": {}}, "kernel_regularizer": null, "bias_regularizer": null, "activity_regularizer": null, "kernel_constraint": null, "bias_constraint": null}, "name": "conv2d_194", "inbound_nodes": [[["max_pooling2d_9", 0, 0, {}]]]}, {"class_name": "Conv2D", "config": {"name": "conv2d_197", "trainable": false, "dtype": "float32", "filters": 96, "kernel_size": [3, 3], "strides": [1, 1], "padding": "same", "data_format": "channels_last", "dilation_rate": [1, 1], "groups": 1, "activation": "linear", "use_bias": false, "kernel_initializer": {"class_name": "GlorotUniform", "config": {"seed": null}}, "bias_initializer": {"class_name": "Zeros", "config": {}}, "kernel_regularizer": null, "bias_regularizer": null, "activity_regularizer": null, "kernel_constraint": null, "bias_constraint": null}, "name": "conv2d_197", "inbound_nodes": [[["activation_196", 0, 0, {}]]]}, {"class_name": "BatchNormalization", "config": {"name": "batch_normalization_194", "trainable": false, "dtype": "float32", "axis": [3], "momentum": 0.99, "epsilon": 0.001, "center": true, "scale": false, "beta_initializer": {"class_name": "Zeros", "config": {}}, "gamma_initializer": {"class_name": "Ones", "config": {}}, "moving_mean_initializer": {"class_name": "Zeros", "config": {}}, "moving_variance_initializer": {"class_name": "Ones", "config": {}}, "beta_regularizer": null, "gamma_regularizer": null, "beta_constraint": null, "gamma_constraint": null}, "name": "batch_normalization_194", "inbound_nodes": [[["conv2d_194", 0, 0, {}]]]}, {"class_name": "BatchNormalization", "config": {"name": "batch_normalization_197", "trainable": false, "dtype": "float32", "axis": [3], "momentum": 0.99, "epsilon": 0.001, "center": true, "scale": false, "beta_initializer": {"class_name": "Zeros", "config": {}}, "gamma_initializer": {"class_name": "Ones", "config": {}}, "moving_mean_initializer": {"class_name": "Zeros", "config": {}}, "moving_variance_initializer": {"class_name": "Ones", "config": {}}, "beta_regularizer": null, "gamma_regularizer": null, "beta_constraint": null, "gamma_constraint": null}, "name": "batch_normalization_197", "inbound_nodes": [[["conv2d_197", 0, 0, {}]]]}, {"class_name": "Activation", "config": {"name": "activation_194", "trainable": false, "dtype": "float32", "activation": "relu"}, "name": "activation_194", "inbound_nodes": [[["batch_normalization_194", 0, 0, {}]]]}, {"class_name": "Activation", "config": {"name": "activation_197", "trainable": false, "dtype": "float32", "activation": "relu"}, "name": "activation_197", "inbound_nodes": [[["batch_normalization_197", 0, 0, {}]]]}, {"class_name": "AveragePooling2D", "config": {"name": "average_pooling2d_18", "trainable": false, "dtype": "float32", "pool_size": [3, 3], "padding": "same", "strides": [1, 1], "data_format": "channels_last"}, "name": "average_pooling2d_18", "inbound_nodes": [[["max_pooling2d_9", 0, 0, {}]]]}, {"class_name": "Conv2D", "config": {"name": "conv2d_193", "trainable": false, "dtype": "float32", "filters": 64, "kernel_size": [1, 1], "strides": [1, 1], "padding": "same", "data_format": "channels_last", "dilation_rate": [1, 1], "groups": 1, "activation": "linear", "use_bias": false, "kernel_initializer": {"class_name": "GlorotUniform", "config": {"seed": null}}, "bias_initializer": {"class_name": "Zeros", "config": {}}, "kernel_regularizer": null, "bias_regularizer": null, "activity_regularizer": null, "kernel_constraint": null, "bias_constraint": null}, "name": "conv2d_193", "inbound_nodes": [[["max_pooling2d_9", 0, 0, {}]]]}, {"class_name": "Conv2D", "config": {"name": "conv2d_195", "trainable": false, "dtype": "float32", "filters": 64, "kernel_size": [5, 5], "strides": [1, 1], "padding": "same", "data_format": "channels_last", "dilation_rate": [1, 1], "groups": 1, "activation": "linear", "use_bias": false, "kernel_initializer": {"class_name": "GlorotUniform", "config": {"seed": null}}, "bias_initializer": {"class_name": "Zeros", "config": {}}, "kernel_regularizer": null, "bias_regularizer": null, "activity_regularizer": null, "kernel_constraint": null, "bias_constraint": null}, "name": "conv2d_195", "inbound_nodes": [[["activation_194", 0, 0, {}]]]}, {"class_name": "Conv2D", "config": {"name": "conv2d_198", "trainable": false, "dtype": "float32", "filters": 96, "kernel_size": [3, 3], "strides": [1, 1], "padding": "same", "data_format": "channels_last", "dilation_rate": [1, 1], "groups": 1, "activation": "linear", "use_bias": false, "kernel_initializer": {"class_name": "GlorotUniform", "config": {"seed": null}}, "bias_initializer": {"class_name": "Zeros", "config": {}}, "kernel_regularizer": null, "bias_regularizer": null, "activity_regularizer": null, "kernel_constraint": null, "bias_constraint": null}, "name": "conv2d_198", "inbound_nodes": [[["activation_197", 0, 0, {}]]]}, {"class_name": "Conv2D", "config": {"name": "conv2d_199", "trainable": false, "dtype": "float32", "filters": 32, "kernel_size": [1, 1], "strides": [1, 1], "padding": "same", "data_format": "channels_last", "dilation_rate": [1, 1], "groups": 1, "activation": "linear", "use_bias": false, "kernel_initializer": {"class_name": "GlorotUniform", "config": {"seed": null}}, "bias_initializer": {"class_name": "Zeros", "config": {}}, "kernel_regularizer": null, "bias_regularizer": null, "activity_regularizer": null, "kernel_constraint": null, "bias_constraint": null}, "name": "conv2d_199", "inbound_nodes": [[["average_pooling2d_18", 0, 0, {}]]]}, {"class_name": "BatchNormalization", "config": {"name": "batch_normalization_193", "trainable": false, "dtype": "float32", "axis": [3], "momentum": 0.99, "epsilon": 0.001, "center": true, "scale": false, "beta_initializer": {"class_name": "Zeros", "config": {}}, "gamma_initializer": {"class_name": "Ones", "config": {}}, "moving_mean_initializer": {"class_name": "Zeros", "config": {}}, "moving_variance_initializer": {"class_name": "Ones", "config": {}}, "beta_regularizer": null, "gamma_regularizer": null, "beta_constraint": null, "gamma_constraint": null}, "name": "batch_normalization_193", "inbound_nodes": [[["conv2d_193", 0, 0, {}]]]}, {"class_name": "BatchNormalization", "config": {"name": "batch_normalization_195", "trainable": false, "dtype": "float32", "axis": [3], "momentum": 0.99, "epsilon": 0.001, "center": true, "scale": false, "beta_initializer": {"class_name": "Zeros", "config": {}}, "gamma_initializer": {"class_name": "Ones", "config": {}}, "moving_mean_initializer": {"class_name": "Zeros", "config": {}}, "moving_variance_initializer": {"class_name": "Ones", "config": {}}, "beta_regularizer": null, "gamma_regularizer": null, "beta_constraint": null, "gamma_constraint": null}, "name": "batch_normalization_195", "inbound_nodes": [[["conv2d_195", 0, 0, {}]]]}, {"class_name": "BatchNormalization", "config": {"name": "batch_normalization_198", "trainable": false, "dtype": "float32", "axis": [3], "momentum": 0.99, "epsilon": 0.001, "center": true, "scale": false, "beta_initializer": {"class_name": "Zeros", "config": {}}, "gamma_initializer": {"class_name": "Ones", "config": {}}, "moving_mean_initializer": {"class_name": "Zeros", "config": {}}, "moving_variance_initializer": {"class_name": "Ones", "config": {}}, "beta_regularizer": null, "gamma_regularizer": null, "beta_constraint": null, "gamma_constraint": null}, "name": "batch_normalization_198", "inbound_nodes": [[["conv2d_198", 0, 0, {}]]]}, {"class_name": "BatchNormalization", "config": {"name": "batch_normalization_199", "trainable": false, "dtype": "float32", "axis": [3], "momentum": 0.99, "epsilon": 0.001, "center": true, "scale": false, "beta_initializer": {"class_name": "Zeros", "config": {}}, "gamma_initializer": {"class_name": "Ones", "config": {}}, "moving_mean_initializer": {"class_name": "Zeros", "config": {}}, "moving_variance_initializer": {"class_name": "Ones", "config": {}}, "beta_regularizer": null, "gamma_regularizer": null, "beta_constraint": null, "gamma_constraint": null}, "name": "batch_normalization_199", "inbound_nodes": [[["conv2d_199", 0, 0, {}]]]}, {"class_name": "Activation", "config": {"name": "activation_193", "trainable": false, "dtype": "float32", "activation": "relu"}, "name": "activation_193", "inbound_nodes": [[["batch_normalization_193", 0, 0, {}]]]}, {"class_name": "Activation", "config": {"name": "activation_195", "trainable": false, "dtype": "float32", "activation": "relu"}, "name": "activation_195", "inbound_nodes": [[["batch_normalization_195", 0, 0, {}]]]}, {"class_name": "Activation", "config": {"name": "activation_198", "trainable": false, "dtype": "float32", "activation": "relu"}, "name": "activation_198", "inbound_nodes": [[["batch_normalization_198", 0, 0, {}]]]}, {"class_name": "Activation", "config": {"name": "activation_199", "trainable": false, "dtype": "float32", "activation": "relu"}, "name": "activation_199", "inbound_nodes": [[["batch_normalization_199", 0, 0, {}]]]}, {"class_name": "Concatenate", "config": {"name": "mixed0", "trainable": false, "dtype": "float32", "axis": 3}, "name": "mixed0", "inbound_nodes": [[["activation_193", 0, 0, {}], ["activation_195", 0, 0, {}], ["activation_198", 0, 0, {}], ["activation_199", 0, 0, {}]]]}, {"class_name": "Conv2D", "config": {"name": "conv2d_203", "trainable": false, "dtype": "float32", "filters": 64, "kernel_size": [1, 1], "strides": [1, 1], "padding": "same", "data_format": "channels_last", "dilation_rate": [1, 1], "groups": 1, "activation": "linear", "use_bias": false, "kernel_initializer": {"class_name": "GlorotUniform", "config": {"seed": null}}, "bias_initializer": {"class_name": "Zeros", "config": {}}, "kernel_regularizer": null, "bias_regularizer": null, "activity_regularizer": null, "kernel_constraint": null, "bias_constraint": null}, "name": "conv2d_203", "inbound_nodes": [[["mixed0", 0, 0, {}]]]}, {"class_name": "BatchNormalization", "config": {"name": "batch_normalization_203", "trainable": false, "dtype": "float32", "axis": [3], "momentum": 0.99, "epsilon": 0.001, "center": true, "scale": false, "beta_initializer": {"class_name": "Zeros", "config": {}}, "gamma_initializer": {"class_name": "Ones", "config": {}}, "moving_mean_initializer": {"class_name": "Zeros", "config": {}}, "moving_variance_initializer": {"class_name": "Ones", "config": {}}, "beta_regularizer": null, "gamma_regularizer": null, "beta_constraint": null, "gamma_constraint": null}, "name": "batch_normalization_203", "inbound_nodes": [[["conv2d_203", 0, 0, {}]]]}, {"class_name": "Activation", "config": {"name": "activation_203", "trainable": false, "dtype": "float32", "activation": "relu"}, "name": "activation_203", "inbound_nodes": [[["batch_normalization_203", 0, 0, {}]]]}, {"class_name": "Conv2D", "config": {"name": "conv2d_201", "trainable": false, "dtype": "float32", "filters": 48, "kernel_size": [1, 1], "strides": [1, 1], "padding": "same", "data_format": "channels_last", "dilation_rate": [1, 1], "groups": 1, "activation": "linear", "use_bias": false, "kernel_initializer": {"class_name": "GlorotUniform", "config": {"seed": null}}, "bias_initializer": {"class_name": "Zeros", "config": {}}, "kernel_regularizer": null, "bias_regularizer": null, "activity_regularizer": null, "kernel_constraint": null, "bias_constraint": null}, "name": "conv2d_201", "inbound_nodes": [[["mixed0", 0, 0, {}]]]}, {"class_name": "Conv2D", "config": {"name": "conv2d_204", "trainable": false, "dtype": "float32", "filters": 96, "kernel_size": [3, 3], "strides": [1, 1], "padding": "same", "data_format": "channels_last", "dilation_rate": [1, 1], "groups": 1, "activation": "linear", "use_bias": false, "kernel_initializer": {"class_name": "GlorotUniform", "config": {"seed": null}}, "bias_initializer": {"class_name": "Zeros", "config": {}}, "kernel_regularizer": null, "bias_regularizer": null, "activity_regularizer": null, "kernel_constraint": null, "bias_constraint": null}, "name": "conv2d_204", "inbound_nodes": [[["activation_203", 0, 0, {}]]]}, {"class_name": "BatchNormalization", "config": {"name": "batch_normalization_201", "trainable": false, "dtype": "float32", "axis": [3], "momentum": 0.99, "epsilon": 0.001, "center": true, "scale": false, "beta_initializer": {"class_name": "Zeros", "config": {}}, "gamma_initializer": {"class_name": "Ones", "config": {}}, "moving_mean_initializer": {"class_name": "Zeros", "config": {}}, "moving_variance_initializer": {"class_name": "Ones", "config": {}}, "beta_regularizer": null, "gamma_regularizer": null, "beta_constraint": null, "gamma_constraint": null}, "name": "batch_normalization_201", "inbound_nodes": [[["conv2d_201", 0, 0, {}]]]}, {"class_name": "BatchNormalization", "config": {"name": "batch_normalization_204", "trainable": false, "dtype": "float32", "axis": [3], "momentum": 0.99, "epsilon": 0.001, "center": true, "scale": false, "beta_initializer": {"class_name": "Zeros", "config": {}}, "gamma_initializer": {"class_name": "Ones", "config": {}}, "moving_mean_initializer": {"class_name": "Zeros", "config": {}}, "moving_variance_initializer": {"class_name": "Ones", "config": {}}, "beta_regularizer": null, "gamma_regularizer": null, "beta_constraint": null, "gamma_constraint": null}, "name": "batch_normalization_204", "inbound_nodes": [[["conv2d_204", 0, 0, {}]]]}, {"class_name": "Activation", "config": {"name": "activation_201", "trainable": false, "dtype": "float32", "activation": "relu"}, "name": "activation_201", "inbound_nodes": [[["batch_normalization_201", 0, 0, {}]]]}, {"class_name": "Activation", "config": {"name": "activation_204", "trainable": false, "dtype": "float32", "activation": "relu"}, "name": "activation_204", "inbound_nodes": [[["batch_normalization_204", 0, 0, {}]]]}, {"class_name": "AveragePooling2D", "config": {"name": "average_pooling2d_19", "trainable": false, "dtype": "float32", "pool_size": [3, 3], "padding": "same", "strides": [1, 1], "data_format": "channels_last"}, "name": "average_pooling2d_19", "inbound_nodes": [[["mixed0", 0, 0, {}]]]}, {"class_name": "Conv2D", "config": {"name": "conv2d_200", "trainable": false, "dtype": "float32", "filters": 64, "kernel_size": [1, 1], "strides": [1, 1], "padding": "same", "data_format": "channels_last", "dilation_rate": [1, 1], "groups": 1, "activation": "linear", "use_bias": false, "kernel_initializer": {"class_name": "GlorotUniform", "config": {"seed": null}}, "bias_initializer": {"class_name": "Zeros", "config": {}}, "kernel_regularizer": null, "bias_regularizer": null, "activity_regularizer": null, "kernel_constraint": null, "bias_constraint": null}, "name": "conv2d_200", "inbound_nodes": [[["mixed0", 0, 0, {}]]]}, {"class_name": "Conv2D", "config": {"name": "conv2d_202", "trainable": false, "dtype": "float32", "filters": 64, "kernel_size": [5, 5], "strides": [1, 1], "padding": "same", "data_format": "channels_last", "dilation_rate": [1, 1], "groups": 1, "activation": "linear", "use_bias": false, "kernel_initializer": {"class_name": "GlorotUniform", "config": {"seed": null}}, "bias_initializer": {"class_name": "Zeros", "config": {}}, "kernel_regularizer": null, "bias_regularizer": null, "activity_regularizer": null, "kernel_constraint": null, "bias_constraint": null}, "name": "conv2d_202", "inbound_nodes": [[["activation_201", 0, 0, {}]]]}, {"class_name": "Conv2D", "config": {"name": "conv2d_205", "trainable": false, "dtype": "float32", "filters": 96, "kernel_size": [3, 3], "strides": [1, 1], "padding": "same", "data_format": "channels_last", "dilation_rate": [1, 1], "groups": 1, "activation": "linear", "use_bias": false, "kernel_initializer": {"class_name": "GlorotUniform", "config": {"seed": null}}, "bias_initializer": {"class_name": "Zeros", "config": {}}, "kernel_regularizer": null, "bias_regularizer": null, "activity_regularizer": null, "kernel_constraint": null, "bias_constraint": null}, "name": "conv2d_205", "inbound_nodes": [[["activation_204", 0, 0, {}]]]}, {"class_name": "Conv2D", "config": {"name": "conv2d_206", "trainable": false, "dtype": "float32", "filters": 64, "kernel_size": [1, 1], "strides": [1, 1], "padding": "same", "data_format": "channels_last", "dilation_rate": [1, 1], "groups": 1, "activation": "linear", "use_bias": false, "kernel_initializer": {"class_name": "GlorotUniform", "config": {"seed": null}}, "bias_initializer": {"class_name": "Zeros", "config": {}}, "kernel_regularizer": null, "bias_regularizer": null, "activity_regularizer": null, "kernel_constraint": null, "bias_constraint": null}, "name": "conv2d_206", "inbound_nodes": [[["average_pooling2d_19", 0, 0, {}]]]}, {"class_name": "BatchNormalization", "config": {"name": "batch_normalization_200", "trainable": false, "dtype": "float32", "axis": [3], "momentum": 0.99, "epsilon": 0.001, "center": true, "scale": false, "beta_initializer": {"class_name": "Zeros", "config": {}}, "gamma_initializer": {"class_name": "Ones", "config": {}}, "moving_mean_initializer": {"class_name": "Zeros", "config": {}}, "moving_variance_initializer": {"class_name": "Ones", "config": {}}, "beta_regularizer": null, "gamma_regularizer": null, "beta_constraint": null, "gamma_constraint": null}, "name": "batch_normalization_200", "inbound_nodes": [[["conv2d_200", 0, 0, {}]]]}, {"class_name": "BatchNormalization", "config": {"name": "batch_normalization_202", "trainable": false, "dtype": "float32", "axis": [3], "momentum": 0.99, "epsilon": 0.001, "center": true, "scale": false, "beta_initializer": {"class_name": "Zeros", "config": {}}, "gamma_initializer": {"class_name": "Ones", "config": {}}, "moving_mean_initializer": {"class_name": "Zeros", "config": {}}, "moving_variance_initializer": {"class_name": "Ones", "config": {}}, "beta_regularizer": null, "gamma_regularizer": null, "beta_constraint": null, "gamma_constraint": null}, "name": "batch_normalization_202", "inbound_nodes": [[["conv2d_202", 0, 0, {}]]]}, {"class_name": "BatchNormalization", "config": {"name": "batch_normalization_205", "trainable": false, "dtype": "float32", "axis": [3], "momentum": 0.99, "epsilon": 0.001, "center": true, "scale": false, "beta_initializer": {"class_name": "Zeros", "config": {}}, "gamma_initializer": {"class_name": "Ones", "config": {}}, "moving_mean_initializer": {"class_name": "Zeros", "config": {}}, "moving_variance_initializer": {"class_name": "Ones", "config": {}}, "beta_regularizer": null, "gamma_regularizer": null, "beta_constraint": null, "gamma_constraint": null}, "name": "batch_normalization_205", "inbound_nodes": [[["conv2d_205", 0, 0, {}]]]}, {"class_name": "BatchNormalization", "config": {"name": "batch_normalization_206", "trainable": false, "dtype": "float32", "axis": [3], "momentum": 0.99, "epsilon": 0.001, "center": true, "scale": false, "beta_initializer": {"class_name": "Zeros", "config": {}}, "gamma_initializer": {"class_name": "Ones", "config": {}}, "moving_mean_initializer": {"class_name": "Zeros", "config": {}}, "moving_variance_initializer": {"class_name": "Ones", "config": {}}, "beta_regularizer": null, "gamma_regularizer": null, "beta_constraint": null, "gamma_constraint": null}, "name": "batch_normalization_206", "inbound_nodes": [[["conv2d_206", 0, 0, {}]]]}, {"class_name": "Activation", "config": {"name": "activation_200", "trainable": false, "dtype": "float32", "activation": "relu"}, "name": "activation_200", "inbound_nodes": [[["batch_normalization_200", 0, 0, {}]]]}, {"class_name": "Activation", "config": {"name": "activation_202", "trainable": false, "dtype": "float32", "activation": "relu"}, "name": "activation_202", "inbound_nodes": [[["batch_normalization_202", 0, 0, {}]]]}, {"class_name": "Activation", "config": {"name": "activation_205", "trainable": false, "dtype": "float32", "activation": "relu"}, "name": "activation_205", "inbound_nodes": [[["batch_normalization_205", 0, 0, {}]]]}, {"class_name": "Activation", "config": {"name": "activation_206", "trainable": false, "dtype": "float32", "activation": "relu"}, "name": "activation_206", "inbound_nodes": [[["batch_normalization_206", 0, 0, {}]]]}, {"class_name": "Concatenate", "config": {"name": "mixed1", "trainable": false, "dtype": "float32", "axis": 3}, "name": "mixed1", "inbound_nodes": [[["activation_200", 0, 0, {}], ["activation_202", 0, 0, {}], ["activation_205", 0, 0, {}], ["activation_206", 0, 0, {}]]]}, {"class_name": "Conv2D", "config": {"name": "conv2d_210", "trainable": false, "dtype": "float32", "filters": 64, "kernel_size": [1, 1], "strides": [1, 1], "padding": "same", "data_format": "channels_last", "dilation_rate": [1, 1], "groups": 1, "activation": "linear", "use_bias": false, "kernel_initializer": {"class_name": "GlorotUniform", "config": {"seed": null}}, "bias_initializer": {"class_name": "Zeros", "config": {}}, "kernel_regularizer": null, "bias_regularizer": null, "activity_regularizer": null, "kernel_constraint": null, "bias_constraint": null}, "name": "conv2d_210", "inbound_nodes": [[["mixed1", 0, 0, {}]]]}, {"class_name": "BatchNormalization", "config": {"name": "batch_normalization_210", "trainable": false, "dtype": "float32", "axis": [3], "momentum": 0.99, "epsilon": 0.001, "center": true, "scale": false, "beta_initializer": {"class_name": "Zeros", "config": {}}, "gamma_initializer": {"class_name": "Ones", "config": {}}, "moving_mean_initializer": {"class_name": "Zeros", "config": {}}, "moving_variance_initializer": {"class_name": "Ones", "config": {}}, "beta_regularizer": null, "gamma_regularizer": null, "beta_constraint": null, "gamma_constraint": null}, "name": "batch_normalization_210", "inbound_nodes": [[["conv2d_210", 0, 0, {}]]]}, {"class_name": "Activation", "config": {"name": "activation_210", "trainable": false, "dtype": "float32", "activation": "relu"}, "name": "activation_210", "inbound_nodes": [[["batch_normalization_210", 0, 0, {}]]]}, {"class_name": "Conv2D", "config": {"name": "conv2d_208", "trainable": false, "dtype": "float32", "filters": 48, "kernel_size": [1, 1], "strides": [1, 1], "padding": "same", "data_format": "channels_last", "dilation_rate": [1, 1], "groups": 1, "activation": "linear", "use_bias": false, "kernel_initializer": {"class_name": "GlorotUniform", "config": {"seed": null}}, "bias_initializer": {"class_name": "Zeros", "config": {}}, "kernel_regularizer": null, "bias_regularizer": null, "activity_regularizer": null, "kernel_constraint": null, "bias_constraint": null}, "name": "conv2d_208", "inbound_nodes": [[["mixed1", 0, 0, {}]]]}, {"class_name": "Conv2D", "config": {"name": "conv2d_211", "trainable": false, "dtype": "float32", "filters": 96, "kernel_size": [3, 3], "strides": [1, 1], "padding": "same", "data_format": "channels_last", "dilation_rate": [1, 1], "groups": 1, "activation": "linear", "use_bias": false, "kernel_initializer": {"class_name": "GlorotUniform", "config": {"seed": null}}, "bias_initializer": {"class_name": "Zeros", "config": {}}, "kernel_regularizer": null, "bias_regularizer": null, "activity_regularizer": null, "kernel_constraint": null, "bias_constraint": null}, "name": "conv2d_211", "inbound_nodes": [[["activation_210", 0, 0, {}]]]}, {"class_name": "BatchNormalization", "config": {"name": "batch_normalization_208", "trainable": false, "dtype": "float32", "axis": [3], "momentum": 0.99, "epsilon": 0.001, "center": true, "scale": false, "beta_initializer": {"class_name": "Zeros", "config": {}}, "gamma_initializer": {"class_name": "Ones", "config": {}}, "moving_mean_initializer": {"class_name": "Zeros", "config": {}}, "moving_variance_initializer": {"class_name": "Ones", "config": {}}, "beta_regularizer": null, "gamma_regularizer": null, "beta_constraint": null, "gamma_constraint": null}, "name": "batch_normalization_208", "inbound_nodes": [[["conv2d_208", 0, 0, {}]]]}, {"class_name": "BatchNormalization", "config": {"name": "batch_normalization_211", "trainable": false, "dtype": "float32", "axis": [3], "momentum": 0.99, "epsilon": 0.001, "center": true, "scale": false, "beta_initializer": {"class_name": "Zeros", "config": {}}, "gamma_initializer": {"class_name": "Ones", "config": {}}, "moving_mean_initializer": {"class_name": "Zeros", "config": {}}, "moving_variance_initializer": {"class_name": "Ones", "config": {}}, "beta_regularizer": null, "gamma_regularizer": null, "beta_constraint": null, "gamma_constraint": null}, "name": "batch_normalization_211", "inbound_nodes": [[["conv2d_211", 0, 0, {}]]]}, {"class_name": "Activation", "config": {"name": "activation_208", "trainable": false, "dtype": "float32", "activation": "relu"}, "name": "activation_208", "inbound_nodes": [[["batch_normalization_208", 0, 0, {}]]]}, {"class_name": "Activation", "config": {"name": "activation_211", "trainable": false, "dtype": "float32", "activation": "relu"}, "name": "activation_211", "inbound_nodes": [[["batch_normalization_211", 0, 0, {}]]]}, {"class_name": "AveragePooling2D", "config": {"name": "average_pooling2d_20", "trainable": false, "dtype": "float32", "pool_size": [3, 3], "padding": "same", "strides": [1, 1], "data_format": "channels_last"}, "name": "average_pooling2d_20", "inbound_nodes": [[["mixed1", 0, 0, {}]]]}, {"class_name": "Conv2D", "config": {"name": "conv2d_207", "trainable": false, "dtype": "float32", "filters": 64, "kernel_size": [1, 1], "strides": [1, 1], "padding": "same", "data_format": "channels_last", "dilation_rate": [1, 1], "groups": 1, "activation": "linear", "use_bias": false, "kernel_initializer": {"class_name": "GlorotUniform", "config": {"seed": null}}, "bias_initializer": {"class_name": "Zeros", "config": {}}, "kernel_regularizer": null, "bias_regularizer": null, "activity_regularizer": null, "kernel_constraint": null, "bias_constraint": null}, "name": "conv2d_207", "inbound_nodes": [[["mixed1", 0, 0, {}]]]}, {"class_name": "Conv2D", "config": {"name": "conv2d_209", "trainable": false, "dtype": "float32", "filters": 64, "kernel_size": [5, 5], "strides": [1, 1], "padding": "same", "data_format": "channels_last", "dilation_rate": [1, 1], "groups": 1, "activation": "linear", "use_bias": false, "kernel_initializer": {"class_name": "GlorotUniform", "config": {"seed": null}}, "bias_initializer": {"class_name": "Zeros", "config": {}}, "kernel_regularizer": null, "bias_regularizer": null, "activity_regularizer": null, "kernel_constraint": null, "bias_constraint": null}, "name": "conv2d_209", "inbound_nodes": [[["activation_208", 0, 0, {}]]]}, {"class_name": "Conv2D", "config": {"name": "conv2d_212", "trainable": false, "dtype": "float32", "filters": 96, "kernel_size": [3, 3], "strides": [1, 1], "padding": "same", "data_format": "channels_last", "dilation_rate": [1, 1], "groups": 1, "activation": "linear", "use_bias": false, "kernel_initializer": {"class_name": "GlorotUniform", "config": {"seed": null}}, "bias_initializer": {"class_name": "Zeros", "config": {}}, "kernel_regularizer": null, "bias_regularizer": null, "activity_regularizer": null, "kernel_constraint": null, "bias_constraint": null}, "name": "conv2d_212", "inbound_nodes": [[["activation_211", 0, 0, {}]]]}, {"class_name": "Conv2D", "config": {"name": "conv2d_213", "trainable": false, "dtype": "float32", "filters": 64, "kernel_size": [1, 1], "strides": [1, 1], "padding": "same", "data_format": "channels_last", "dilation_rate": [1, 1], "groups": 1, "activation": "linear", "use_bias": false, "kernel_initializer": {"class_name": "GlorotUniform", "config": {"seed": null}}, "bias_initializer": {"class_name": "Zeros", "config": {}}, "kernel_regularizer": null, "bias_regularizer": null, "activity_regularizer": null, "kernel_constraint": null, "bias_constraint": null}, "name": "conv2d_213", "inbound_nodes": [[["average_pooling2d_20", 0, 0, {}]]]}, {"class_name": "BatchNormalization", "config": {"name": "batch_normalization_207", "trainable": false, "dtype": "float32", "axis": [3], "momentum": 0.99, "epsilon": 0.001, "center": true, "scale": false, "beta_initializer": {"class_name": "Zeros", "config": {}}, "gamma_initializer": {"class_name": "Ones", "config": {}}, "moving_mean_initializer": {"class_name": "Zeros", "config": {}}, "moving_variance_initializer": {"class_name": "Ones", "config": {}}, "beta_regularizer": null, "gamma_regularizer": null, "beta_constraint": null, "gamma_constraint": null}, "name": "batch_normalization_207", "inbound_nodes": [[["conv2d_207", 0, 0, {}]]]}, {"class_name": "BatchNormalization", "config": {"name": "batch_normalization_209", "trainable": false, "dtype": "float32", "axis": [3], "momentum": 0.99, "epsilon": 0.001, "center": true, "scale": false, "beta_initializer": {"class_name": "Zeros", "config": {}}, "gamma_initializer": {"class_name": "Ones", "config": {}}, "moving_mean_initializer": {"class_name": "Zeros", "config": {}}, "moving_variance_initializer": {"class_name": "Ones", "config": {}}, "beta_regularizer": null, "gamma_regularizer": null, "beta_constraint": null, "gamma_constraint": null}, "name": "batch_normalization_209", "inbound_nodes": [[["conv2d_209", 0, 0, {}]]]}, {"class_name": "BatchNormalization", "config": {"name": "batch_normalization_212", "trainable": false, "dtype": "float32", "axis": [3], "momentum": 0.99, "epsilon": 0.001, "center": true, "scale": false, "beta_initializer": {"class_name": "Zeros", "config": {}}, "gamma_initializer": {"class_name": "Ones", "config": {}}, "moving_mean_initializer": {"class_name": "Zeros", "config": {}}, "moving_variance_initializer": {"class_name": "Ones", "config": {}}, "beta_regularizer": null, "gamma_regularizer": null, "beta_constraint": null, "gamma_constraint": null}, "name": "batch_normalization_212", "inbound_nodes": [[["conv2d_212", 0, 0, {}]]]}, {"class_name": "BatchNormalization", "config": {"name": "batch_normalization_213", "trainable": false, "dtype": "float32", "axis": [3], "momentum": 0.99, "epsilon": 0.001, "center": true, "scale": false, "beta_initializer": {"class_name": "Zeros", "config": {}}, "gamma_initializer": {"class_name": "Ones", "config": {}}, "moving_mean_initializer": {"class_name": "Zeros", "config": {}}, "moving_variance_initializer": {"class_name": "Ones", "config": {}}, "beta_regularizer": null, "gamma_regularizer": null, "beta_constraint": null, "gamma_constraint": null}, "name": "batch_normalization_213", "inbound_nodes": [[["conv2d_213", 0, 0, {}]]]}, {"class_name": "Activation", "config": {"name": "activation_207", "trainable": false, "dtype": "float32", "activation": "relu"}, "name": "activation_207", "inbound_nodes": [[["batch_normalization_207", 0, 0, {}]]]}, {"class_name": "Activation", "config": {"name": "activation_209", "trainable": false, "dtype": "float32", "activation": "relu"}, "name": "activation_209", "inbound_nodes": [[["batch_normalization_209", 0, 0, {}]]]}, {"class_name": "Activation", "config": {"name": "activation_212", "trainable": false, "dtype": "float32", "activation": "relu"}, "name": "activation_212", "inbound_nodes": [[["batch_normalization_212", 0, 0, {}]]]}, {"class_name": "Activation", "config": {"name": "activation_213", "trainable": false, "dtype": "float32", "activation": "relu"}, "name": "activation_213", "inbound_nodes": [[["batch_normalization_213", 0, 0, {}]]]}, {"class_name": "Concatenate", "config": {"name": "mixed2", "trainable": false, "dtype": "float32", "axis": 3}, "name": "mixed2", "inbound_nodes": [[["activation_207", 0, 0, {}], ["activation_209", 0, 0, {}], ["activation_212", 0, 0, {}], ["activation_213", 0, 0, {}]]]}, {"class_name": "Conv2D", "config": {"name": "conv2d_215", "trainable": false, "dtype": "float32", "filters": 64, "kernel_size": [1, 1], "strides": [1, 1], "padding": "same", "data_format": "channels_last", "dilation_rate": [1, 1], "groups": 1, "activation": "linear", "use_bias": false, "kernel_initializer": {"class_name": "GlorotUniform", "config": {"seed": null}}, "bias_initializer": {"class_name": "Zeros", "config": {}}, "kernel_regularizer": null, "bias_regularizer": null, "activity_regularizer": null, "kernel_constraint": null, "bias_constraint": null}, "name": "conv2d_215", "inbound_nodes": [[["mixed2", 0, 0, {}]]]}, {"class_name": "BatchNormalization", "config": {"name": "batch_normalization_215", "trainable": false, "dtype": "float32", "axis": [3], "momentum": 0.99, "epsilon": 0.001, "center": true, "scale": false, "beta_initializer": {"class_name": "Zeros", "config": {}}, "gamma_initializer": {"class_name": "Ones", "config": {}}, "moving_mean_initializer": {"class_name": "Zeros", "config": {}}, "moving_variance_initializer": {"class_name": "Ones", "config": {}}, "beta_regularizer": null, "gamma_regularizer": null, "beta_constraint": null, "gamma_constraint": null}, "name": "batch_normalization_215", "inbound_nodes": [[["conv2d_215", 0, 0, {}]]]}, {"class_name": "Activation", "config": {"name": "activation_215", "trainable": false, "dtype": "float32", "activation": "relu"}, "name": "activation_215", "inbound_nodes": [[["batch_normalization_215", 0, 0, {}]]]}, {"class_name": "Conv2D", "config": {"name": "conv2d_216", "trainable": false, "dtype": "float32", "filters": 96, "kernel_size": [3, 3], "strides": [1, 1], "padding": "same", "data_format": "channels_last", "dilation_rate": [1, 1], "groups": 1, "activation": "linear", "use_bias": false, "kernel_initializer": {"class_name": "GlorotUniform", "config": {"seed": null}}, "bias_initializer": {"class_name": "Zeros", "config": {}}, "kernel_regularizer": null, "bias_regularizer": null, "activity_regularizer": null, "kernel_constraint": null, "bias_constraint": null}, "name": "conv2d_216", "inbound_nodes": [[["activation_215", 0, 0, {}]]]}, {"class_name": "BatchNormalization", "config": {"name": "batch_normalization_216", "trainable": false, "dtype": "float32", "axis": [3], "momentum": 0.99, "epsilon": 0.001, "center": true, "scale": false, "beta_initializer": {"class_name": "Zeros", "config": {}}, "gamma_initializer": {"class_name": "Ones", "config": {}}, "moving_mean_initializer": {"class_name": "Zeros", "config": {}}, "moving_variance_initializer": {"class_name": "Ones", "config": {}}, "beta_regularizer": null, "gamma_regularizer": null, "beta_constraint": null, "gamma_constraint": null}, "name": "batch_normalization_216", "inbound_nodes": [[["conv2d_216", 0, 0, {}]]]}, {"class_name": "Activation", "config": {"name": "activation_216", "trainable": false, "dtype": "float32", "activation": "relu"}, "name": "activation_216", "inbound_nodes": [[["batch_normalization_216", 0, 0, {}]]]}, {"class_name": "Conv2D", "config": {"name": "conv2d_214", "trainable": false, "dtype": "float32", "filters": 384, "kernel_size": [3, 3], "strides": [2, 2], "padding": "valid", "data_format": "channels_last", "dilation_rate": [1, 1], "groups": 1, "activation": "linear", "use_bias": false, "kernel_initializer": {"class_name": "GlorotUniform", "config": {"seed": null}}, "bias_initializer": {"class_name": "Zeros", "config": {}}, "kernel_regularizer": null, "bias_regularizer": null, "activity_regularizer": null, "kernel_constraint": null, "bias_constraint": null}, "name": "conv2d_214", "inbound_nodes": [[["mixed2", 0, 0, {}]]]}, {"class_name": "Conv2D", "config": {"name": "conv2d_217", "trainable": false, "dtype": "float32", "filters": 96, "kernel_size": [3, 3], "strides": [2, 2], "padding": "valid", "data_format": "channels_last", "dilation_rate": [1, 1], "groups": 1, "activation": "linear", "use_bias": false, "kernel_initializer": {"class_name": "GlorotUniform", "config": {"seed": null}}, "bias_initializer": {"class_name": "Zeros", "config": {}}, "kernel_regularizer": null, "bias_regularizer": null, "activity_regularizer": null, "kernel_constraint": null, "bias_constraint": null}, "name": "conv2d_217", "inbound_nodes": [[["activation_216", 0, 0, {}]]]}, {"class_name": "BatchNormalization", "config": {"name": "batch_normalization_214", "trainable": false, "dtype": "float32", "axis": [3], "momentum": 0.99, "epsilon": 0.001, "center": true, "scale": false, "beta_initializer": {"class_name": "Zeros", "config": {}}, "gamma_initializer": {"class_name": "Ones", "config": {}}, "moving_mean_initializer": {"class_name": "Zeros", "config": {}}, "moving_variance_initializer": {"class_name": "Ones", "config": {}}, "beta_regularizer": null, "gamma_regularizer": null, "beta_constraint": null, "gamma_constraint": null}, "name": "batch_normalization_214", "inbound_nodes": [[["conv2d_214", 0, 0, {}]]]}, {"class_name": "BatchNormalization", "config": {"name": "batch_normalization_217", "trainable": false, "dtype": "float32", "axis": [3], "momentum": 0.99, "epsilon": 0.001, "center": true, "scale": false, "beta_initializer": {"class_name": "Zeros", "config": {}}, "gamma_initializer": {"class_name": "Ones", "config": {}}, "moving_mean_initializer": {"class_name": "Zeros", "config": {}}, "moving_variance_initializer": {"class_name": "Ones", "config": {}}, "beta_regularizer": null, "gamma_regularizer": null, "beta_constraint": null, "gamma_constraint": null}, "name": "batch_normalization_217", "inbound_nodes": [[["conv2d_217", 0, 0, {}]]]}, {"class_name": "Activation", "config": {"name": "activation_214", "trainable": false, "dtype": "float32", "activation": "relu"}, "name": "activation_214", "inbound_nodes": [[["batch_normalization_214", 0, 0, {}]]]}, {"class_name": "Activation", "config": {"name": "activation_217", "trainable": false, "dtype": "float32", "activation": "relu"}, "name": "activation_217", "inbound_nodes": [[["batch_normalization_217", 0, 0, {}]]]}, {"class_name": "MaxPooling2D", "config": {"name": "max_pooling2d_10", "trainable": false, "dtype": "float32", "pool_size": [3, 3], "padding": "valid", "strides": [2, 2], "data_format": "channels_last"}, "name": "max_pooling2d_10", "inbound_nodes": [[["mixed2", 0, 0, {}]]]}, {"class_name": "Concatenate", "config": {"name": "mixed3", "trainable": false, "dtype": "float32", "axis": 3}, "name": "mixed3", "inbound_nodes": [[["activation_214", 0, 0, {}], ["activation_217", 0, 0, {}], ["max_pooling2d_10", 0, 0, {}]]]}, {"class_name": "Conv2D", "config": {"name": "conv2d_222", "trainable": false, "dtype": "float32", "filters": 128, "kernel_size": [1, 1], "strides": [1, 1], "padding": "same", "data_format": "channels_last", "dilation_rate": [1, 1], "groups": 1, "activation": "linear", "use_bias": false, "kernel_initializer": {"class_name": "GlorotUniform", "config": {"seed": null}}, "bias_initializer": {"class_name": "Zeros", "config": {}}, "kernel_regularizer": null, "bias_regularizer": null, "activity_regularizer": null, "kernel_constraint": null, "bias_constraint": null}, "name": "conv2d_222", "inbound_nodes": [[["mixed3", 0, 0, {}]]]}, {"class_name": "BatchNormalization", "config": {"name": "batch_normalization_222", "trainable": false, "dtype": "float32", "axis": [3], "momentum": 0.99, "epsilon": 0.001, "center": true, "scale": false, "beta_initializer": {"class_name": "Zeros", "config": {}}, "gamma_initializer": {"class_name": "Ones", "config": {}}, "moving_mean_initializer": {"class_name": "Zeros", "config": {}}, "moving_variance_initializer": {"class_name": "Ones", "config": {}}, "beta_regularizer": null, "gamma_regularizer": null, "beta_constraint": null, "gamma_constraint": null}, "name": "batch_normalization_222", "inbound_nodes": [[["conv2d_222", 0, 0, {}]]]}, {"class_name": "Activation", "config": {"name": "activation_222", "trainable": false, "dtype": "float32", "activation": "relu"}, "name": "activation_222", "inbound_nodes": [[["batch_normalization_222", 0, 0, {}]]]}, {"class_name": "Conv2D", "config": {"name": "conv2d_223", "trainable": false, "dtype": "float32", "filters": 128, "kernel_size": [7, 1], "strides": [1, 1], "padding": "same", "data_format": "channels_last", "dilation_rate": [1, 1], "groups": 1, "activation": "linear", "use_bias": false, "kernel_initializer": {"class_name": "GlorotUniform", "config": {"seed": null}}, "bias_initializer": {"class_name": "Zeros", "config": {}}, "kernel_regularizer": null, "bias_regularizer": null, "activity_regularizer": null, "kernel_constraint": null, "bias_constraint": null}, "name": "conv2d_223", "inbound_nodes": [[["activation_222", 0, 0, {}]]]}, {"class_name": "BatchNormalization", "config": {"name": "batch_normalization_223", "trainable": false, "dtype": "float32", "axis": [3], "momentum": 0.99, "epsilon": 0.001, "center": true, "scale": false, "beta_initializer": {"class_name": "Zeros", "config": {}}, "gamma_initializer": {"class_name": "Ones", "config": {}}, "moving_mean_initializer": {"class_name": "Zeros", "config": {}}, "moving_variance_initializer": {"class_name": "Ones", "config": {}}, "beta_regularizer": null, "gamma_regularizer": null, "beta_constraint": null, "gamma_constraint": null}, "name": "batch_normalization_223", "inbound_nodes": [[["conv2d_223", 0, 0, {}]]]}, {"class_name": "Activation", "config": {"name": "activation_223", "trainable": false, "dtype": "float32", "activation": "relu"}, "name": "activation_223", "inbound_nodes": [[["batch_normalization_223", 0, 0, {}]]]}, {"class_name": "Conv2D", "config": {"name": "conv2d_219", "trainable": false, "dtype": "float32", "filters": 128, "kernel_size": [1, 1], "strides": [1, 1], "padding": "same", "data_format": "channels_last", "dilation_rate": [1, 1], "groups": 1, "activation": "linear", "use_bias": false, "kernel_initializer": {"class_name": "GlorotUniform", "config": {"seed": null}}, "bias_initializer": {"class_name": "Zeros", "config": {}}, "kernel_regularizer": null, "bias_regularizer": null, "activity_regularizer": null, "kernel_constraint": null, "bias_constraint": null}, "name": "conv2d_219", "inbound_nodes": [[["mixed3", 0, 0, {}]]]}, {"class_name": "Conv2D", "config": {"name": "conv2d_224", "trainable": false, "dtype": "float32", "filters": 128, "kernel_size": [1, 7], "strides": [1, 1], "padding": "same", "data_format": "channels_last", "dilation_rate": [1, 1], "groups": 1, "activation": "linear", "use_bias": false, "kernel_initializer": {"class_name": "GlorotUniform", "config": {"seed": null}}, "bias_initializer": {"class_name": "Zeros", "config": {}}, "kernel_regularizer": null, "bias_regularizer": null, "activity_regularizer": null, "kernel_constraint": null, "bias_constraint": null}, "name": "conv2d_224", "inbound_nodes": [[["activation_223", 0, 0, {}]]]}, {"class_name": "BatchNormalization", "config": {"name": "batch_normalization_219", "trainable": false, "dtype": "float32", "axis": [3], "momentum": 0.99, "epsilon": 0.001, "center": true, "scale": false, "beta_initializer": {"class_name": "Zeros", "config": {}}, "gamma_initializer": {"class_name": "Ones", "config": {}}, "moving_mean_initializer": {"class_name": "Zeros", "config": {}}, "moving_variance_initializer": {"class_name": "Ones", "config": {}}, "beta_regularizer": null, "gamma_regularizer": null, "beta_constraint": null, "gamma_constraint": null}, "name": "batch_normalization_219", "inbound_nodes": [[["conv2d_219", 0, 0, {}]]]}, {"class_name": "BatchNormalization", "config": {"name": "batch_normalization_224", "trainable": false, "dtype": "float32", "axis": [3], "momentum": 0.99, "epsilon": 0.001, "center": true, "scale": false, "beta_initializer": {"class_name": "Zeros", "config": {}}, "gamma_initializer": {"class_name": "Ones", "config": {}}, "moving_mean_initializer": {"class_name": "Zeros", "config": {}}, "moving_variance_initializer": {"class_name": "Ones", "config": {}}, "beta_regularizer": null, "gamma_regularizer": null, "beta_constraint": null, "gamma_constraint": null}, "name": "batch_normalization_224", "inbound_nodes": [[["conv2d_224", 0, 0, {}]]]}, {"class_name": "Activation", "config": {"name": "activation_219", "trainable": false, "dtype": "float32", "activation": "relu"}, "name": "activation_219", "inbound_nodes": [[["batch_normalization_219", 0, 0, {}]]]}, {"class_name": "Activation", "config": {"name": "activation_224", "trainable": false, "dtype": "float32", "activation": "relu"}, "name": "activation_224", "inbound_nodes": [[["batch_normalization_224", 0, 0, {}]]]}, {"class_name": "Conv2D", "config": {"name": "conv2d_220", "trainable": false, "dtype": "float32", "filters": 128, "kernel_size": [1, 7], "strides": [1, 1], "padding": "same", "data_format": "channels_last", "dilation_rate": [1, 1], "groups": 1, "activation": "linear", "use_bias": false, "kernel_initializer": {"class_name": "GlorotUniform", "config": {"seed": null}}, "bias_initializer": {"class_name": "Zeros", "config": {}}, "kernel_regularizer": null, "bias_regularizer": null, "activity_regularizer": null, "kernel_constraint": null, "bias_constraint": null}, "name": "conv2d_220", "inbound_nodes": [[["activation_219", 0, 0, {}]]]}, {"class_name": "Conv2D", "config": {"name": "conv2d_225", "trainable": false, "dtype": "float32", "filters": 128, "kernel_size": [7, 1], "strides": [1, 1], "padding": "same", "data_format": "channels_last", "dilation_rate": [1, 1], "groups": 1, "activation": "linear", "use_bias": false, "kernel_initializer": {"class_name": "GlorotUniform", "config": {"seed": null}}, "bias_initializer": {"class_name": "Zeros", "config": {}}, "kernel_regularizer": null, "bias_regularizer": null, "activity_regularizer": null, "kernel_constraint": null, "bias_constraint": null}, "name": "conv2d_225", "inbound_nodes": [[["activation_224", 0, 0, {}]]]}, {"class_name": "BatchNormalization", "config": {"name": "batch_normalization_220", "trainable": false, "dtype": "float32", "axis": [3], "momentum": 0.99, "epsilon": 0.001, "center": true, "scale": false, "beta_initializer": {"class_name": "Zeros", "config": {}}, "gamma_initializer": {"class_name": "Ones", "config": {}}, "moving_mean_initializer": {"class_name": "Zeros", "config": {}}, "moving_variance_initializer": {"class_name": "Ones", "config": {}}, "beta_regularizer": null, "gamma_regularizer": null, "beta_constraint": null, "gamma_constraint": null}, "name": "batch_normalization_220", "inbound_nodes": [[["conv2d_220", 0, 0, {}]]]}, {"class_name": "BatchNormalization", "config": {"name": "batch_normalization_225", "trainable": false, "dtype": "float32", "axis": [3], "momentum": 0.99, "epsilon": 0.001, "center": true, "scale": false, "beta_initializer": {"class_name": "Zeros", "config": {}}, "gamma_initializer": {"class_name": "Ones", "config": {}}, "moving_mean_initializer": {"class_name": "Zeros", "config": {}}, "moving_variance_initializer": {"class_name": "Ones", "config": {}}, "beta_regularizer": null, "gamma_regularizer": null, "beta_constraint": null, "gamma_constraint": null}, "name": "batch_normalization_225", "inbound_nodes": [[["conv2d_225", 0, 0, {}]]]}, {"class_name": "Activation", "config": {"name": "activation_220", "trainable": false, "dtype": "float32", "activation": "relu"}, "name": "activation_220", "inbound_nodes": [[["batch_normalization_220", 0, 0, {}]]]}, {"class_name": "Activation", "config": {"name": "activation_225", "trainable": false, "dtype": "float32", "activation": "relu"}, "name": "activation_225", "inbound_nodes": [[["batch_normalization_225", 0, 0, {}]]]}, {"class_name": "AveragePooling2D", "config": {"name": "average_pooling2d_21", "trainable": false, "dtype": "float32", "pool_size": [3, 3], "padding": "same", "strides": [1, 1], "data_format": "channels_last"}, "name": "average_pooling2d_21", "inbound_nodes": [[["mixed3", 0, 0, {}]]]}, {"class_name": "Conv2D", "config": {"name": "conv2d_218", "trainable": false, "dtype": "float32", "filters": 192, "kernel_size": [1, 1], "strides": [1, 1], "padding": "same", "data_format": "channels_last", "dilation_rate": [1, 1], "groups": 1, "activation": "linear", "use_bias": false, "kernel_initializer": {"class_name": "GlorotUniform", "config": {"seed": null}}, "bias_initializer": {"class_name": "Zeros", "config": {}}, "kernel_regularizer": null, "bias_regularizer": null, "activity_regularizer": null, "kernel_constraint": null, "bias_constraint": null}, "name": "conv2d_218", "inbound_nodes": [[["mixed3", 0, 0, {}]]]}, {"class_name": "Conv2D", "config": {"name": "conv2d_221", "trainable": false, "dtype": "float32", "filters": 192, "kernel_size": [7, 1], "strides": [1, 1], "padding": "same", "data_format": "channels_last", "dilation_rate": [1, 1], "groups": 1, "activation": "linear", "use_bias": false, "kernel_initializer": {"class_name": "GlorotUniform", "config": {"seed": null}}, "bias_initializer": {"class_name": "Zeros", "config": {}}, "kernel_regularizer": null, "bias_regularizer": null, "activity_regularizer": null, "kernel_constraint": null, "bias_constraint": null}, "name": "conv2d_221", "inbound_nodes": [[["activation_220", 0, 0, {}]]]}, {"class_name": "Conv2D", "config": {"name": "conv2d_226", "trainable": false, "dtype": "float32", "filters": 192, "kernel_size": [1, 7], "strides": [1, 1], "padding": "same", "data_format": "channels_last", "dilation_rate": [1, 1], "groups": 1, "activation": "linear", "use_bias": false, "kernel_initializer": {"class_name": "GlorotUniform", "config": {"seed": null}}, "bias_initializer": {"class_name": "Zeros", "config": {}}, "kernel_regularizer": null, "bias_regularizer": null, "activity_regularizer": null, "kernel_constraint": null, "bias_constraint": null}, "name": "conv2d_226", "inbound_nodes": [[["activation_225", 0, 0, {}]]]}, {"class_name": "Conv2D", "config": {"name": "conv2d_227", "trainable": false, "dtype": "float32", "filters": 192, "kernel_size": [1, 1], "strides": [1, 1], "padding": "same", "data_format": "channels_last", "dilation_rate": [1, 1], "groups": 1, "activation": "linear", "use_bias": false, "kernel_initializer": {"class_name": "GlorotUniform", "config": {"seed": null}}, "bias_initializer": {"class_name": "Zeros", "config": {}}, "kernel_regularizer": null, "bias_regularizer": null, "activity_regularizer": null, "kernel_constraint": null, "bias_constraint": null}, "name": "conv2d_227", "inbound_nodes": [[["average_pooling2d_21", 0, 0, {}]]]}, {"class_name": "BatchNormalization", "config": {"name": "batch_normalization_218", "trainable": false, "dtype": "float32", "axis": [3], "momentum": 0.99, "epsilon": 0.001, "center": true, "scale": false, "beta_initializer": {"class_name": "Zeros", "config": {}}, "gamma_initializer": {"class_name": "Ones", "config": {}}, "moving_mean_initializer": {"class_name": "Zeros", "config": {}}, "moving_variance_initializer": {"class_name": "Ones", "config": {}}, "beta_regularizer": null, "gamma_regularizer": null, "beta_constraint": null, "gamma_constraint": null}, "name": "batch_normalization_218", "inbound_nodes": [[["conv2d_218", 0, 0, {}]]]}, {"class_name": "BatchNormalization", "config": {"name": "batch_normalization_221", "trainable": false, "dtype": "float32", "axis": [3], "momentum": 0.99, "epsilon": 0.001, "center": true, "scale": false, "beta_initializer": {"class_name": "Zeros", "config": {}}, "gamma_initializer": {"class_name": "Ones", "config": {}}, "moving_mean_initializer": {"class_name": "Zeros", "config": {}}, "moving_variance_initializer": {"class_name": "Ones", "config": {}}, "beta_regularizer": null, "gamma_regularizer": null, "beta_constraint": null, "gamma_constraint": null}, "name": "batch_normalization_221", "inbound_nodes": [[["conv2d_221", 0, 0, {}]]]}, {"class_name": "BatchNormalization", "config": {"name": "batch_normalization_226", "trainable": false, "dtype": "float32", "axis": [3], "momentum": 0.99, "epsilon": 0.001, "center": true, "scale": false, "beta_initializer": {"class_name": "Zeros", "config": {}}, "gamma_initializer": {"class_name": "Ones", "config": {}}, "moving_mean_initializer": {"class_name": "Zeros", "config": {}}, "moving_variance_initializer": {"class_name": "Ones", "config": {}}, "beta_regularizer": null, "gamma_regularizer": null, "beta_constraint": null, "gamma_constraint": null}, "name": "batch_normalization_226", "inbound_nodes": [[["conv2d_226", 0, 0, {}]]]}, {"class_name": "BatchNormalization", "config": {"name": "batch_normalization_227", "trainable": false, "dtype": "float32", "axis": [3], "momentum": 0.99, "epsilon": 0.001, "center": true, "scale": false, "beta_initializer": {"class_name": "Zeros", "config": {}}, "gamma_initializer": {"class_name": "Ones", "config": {}}, "moving_mean_initializer": {"class_name": "Zeros", "config": {}}, "moving_variance_initializer": {"class_name": "Ones", "config": {}}, "beta_regularizer": null, "gamma_regularizer": null, "beta_constraint": null, "gamma_constraint": null}, "name": "batch_normalization_227", "inbound_nodes": [[["conv2d_227", 0, 0, {}]]]}, {"class_name": "Activation", "config": {"name": "activation_218", "trainable": false, "dtype": "float32", "activation": "relu"}, "name": "activation_218", "inbound_nodes": [[["batch_normalization_218", 0, 0, {}]]]}, {"class_name": "Activation", "config": {"name": "activation_221", "trainable": false, "dtype": "float32", "activation": "relu"}, "name": "activation_221", "inbound_nodes": [[["batch_normalization_221", 0, 0, {}]]]}, {"class_name": "Activation", "config": {"name": "activation_226", "trainable": false, "dtype": "float32", "activation": "relu"}, "name": "activation_226", "inbound_nodes": [[["batch_normalization_226", 0, 0, {}]]]}, {"class_name": "Activation", "config": {"name": "activation_227", "trainable": false, "dtype": "float32", "activation": "relu"}, "name": "activation_227", "inbound_nodes": [[["batch_normalization_227", 0, 0, {}]]]}, {"class_name": "Concatenate", "config": {"name": "mixed4", "trainable": false, "dtype": "float32", "axis": 3}, "name": "mixed4", "inbound_nodes": [[["activation_218", 0, 0, {}], ["activation_221", 0, 0, {}], ["activation_226", 0, 0, {}], ["activation_227", 0, 0, {}]]]}, {"class_name": "Conv2D", "config": {"name": "conv2d_232", "trainable": false, "dtype": "float32", "filters": 160, "kernel_size": [1, 1], "strides": [1, 1], "padding": "same", "data_format": "channels_last", "dilation_rate": [1, 1], "groups": 1, "activation": "linear", "use_bias": false, "kernel_initializer": {"class_name": "GlorotUniform", "config": {"seed": null}}, "bias_initializer": {"class_name": "Zeros", "config": {}}, "kernel_regularizer": null, "bias_regularizer": null, "activity_regularizer": null, "kernel_constraint": null, "bias_constraint": null}, "name": "conv2d_232", "inbound_nodes": [[["mixed4", 0, 0, {}]]]}, {"class_name": "BatchNormalization", "config": {"name": "batch_normalization_232", "trainable": false, "dtype": "float32", "axis": [3], "momentum": 0.99, "epsilon": 0.001, "center": true, "scale": false, "beta_initializer": {"class_name": "Zeros", "config": {}}, "gamma_initializer": {"class_name": "Ones", "config": {}}, "moving_mean_initializer": {"class_name": "Zeros", "config": {}}, "moving_variance_initializer": {"class_name": "Ones", "config": {}}, "beta_regularizer": null, "gamma_regularizer": null, "beta_constraint": null, "gamma_constraint": null}, "name": "batch_normalization_232", "inbound_nodes": [[["conv2d_232", 0, 0, {}]]]}, {"class_name": "Activation", "config": {"name": "activation_232", "trainable": false, "dtype": "float32", "activation": "relu"}, "name": "activation_232", "inbound_nodes": [[["batch_normalization_232", 0, 0, {}]]]}, {"class_name": "Conv2D", "config": {"name": "conv2d_233", "trainable": false, "dtype": "float32", "filters": 160, "kernel_size": [7, 1], "strides": [1, 1], "padding": "same", "data_format": "channels_last", "dilation_rate": [1, 1], "groups": 1, "activation": "linear", "use_bias": false, "kernel_initializer": {"class_name": "GlorotUniform", "config": {"seed": null}}, "bias_initializer": {"class_name": "Zeros", "config": {}}, "kernel_regularizer": null, "bias_regularizer": null, "activity_regularizer": null, "kernel_constraint": null, "bias_constraint": null}, "name": "conv2d_233", "inbound_nodes": [[["activation_232", 0, 0, {}]]]}, {"class_name": "BatchNormalization", "config": {"name": "batch_normalization_233", "trainable": false, "dtype": "float32", "axis": [3], "momentum": 0.99, "epsilon": 0.001, "center": true, "scale": false, "beta_initializer": {"class_name": "Zeros", "config": {}}, "gamma_initializer": {"class_name": "Ones", "config": {}}, "moving_mean_initializer": {"class_name": "Zeros", "config": {}}, "moving_variance_initializer": {"class_name": "Ones", "config": {}}, "beta_regularizer": null, "gamma_regularizer": null, "beta_constraint": null, "gamma_constraint": null}, "name": "batch_normalization_233", "inbound_nodes": [[["conv2d_233", 0, 0, {}]]]}, {"class_name": "Activation", "config": {"name": "activation_233", "trainable": false, "dtype": "float32", "activation": "relu"}, "name": "activation_233", "inbound_nodes": [[["batch_normalization_233", 0, 0, {}]]]}, {"class_name": "Conv2D", "config": {"name": "conv2d_229", "trainable": false, "dtype": "float32", "filters": 160, "kernel_size": [1, 1], "strides": [1, 1], "padding": "same", "data_format": "channels_last", "dilation_rate": [1, 1], "groups": 1, "activation": "linear", "use_bias": false, "kernel_initializer": {"class_name": "GlorotUniform", "config": {"seed": null}}, "bias_initializer": {"class_name": "Zeros", "config": {}}, "kernel_regularizer": null, "bias_regularizer": null, "activity_regularizer": null, "kernel_constraint": null, "bias_constraint": null}, "name": "conv2d_229", "inbound_nodes": [[["mixed4", 0, 0, {}]]]}, {"class_name": "Conv2D", "config": {"name": "conv2d_234", "trainable": false, "dtype": "float32", "filters": 160, "kernel_size": [1, 7], "strides": [1, 1], "padding": "same", "data_format": "channels_last", "dilation_rate": [1, 1], "groups": 1, "activation": "linear", "use_bias": false, "kernel_initializer": {"class_name": "GlorotUniform", "config": {"seed": null}}, "bias_initializer": {"class_name": "Zeros", "config": {}}, "kernel_regularizer": null, "bias_regularizer": null, "activity_regularizer": null, "kernel_constraint": null, "bias_constraint": null}, "name": "conv2d_234", "inbound_nodes": [[["activation_233", 0, 0, {}]]]}, {"class_name": "BatchNormalization", "config": {"name": "batch_normalization_229", "trainable": false, "dtype": "float32", "axis": [3], "momentum": 0.99, "epsilon": 0.001, "center": true, "scale": false, "beta_initializer": {"class_name": "Zeros", "config": {}}, "gamma_initializer": {"class_name": "Ones", "config": {}}, "moving_mean_initializer": {"class_name": "Zeros", "config": {}}, "moving_variance_initializer": {"class_name": "Ones", "config": {}}, "beta_regularizer": null, "gamma_regularizer": null, "beta_constraint": null, "gamma_constraint": null}, "name": "batch_normalization_229", "inbound_nodes": [[["conv2d_229", 0, 0, {}]]]}, {"class_name": "BatchNormalization", "config": {"name": "batch_normalization_234", "trainable": false, "dtype": "float32", "axis": [3], "momentum": 0.99, "epsilon": 0.001, "center": true, "scale": false, "beta_initializer": {"class_name": "Zeros", "config": {}}, "gamma_initializer": {"class_name": "Ones", "config": {}}, "moving_mean_initializer": {"class_name": "Zeros", "config": {}}, "moving_variance_initializer": {"class_name": "Ones", "config": {}}, "beta_regularizer": null, "gamma_regularizer": null, "beta_constraint": null, "gamma_constraint": null}, "name": "batch_normalization_234", "inbound_nodes": [[["conv2d_234", 0, 0, {}]]]}, {"class_name": "Activation", "config": {"name": "activation_229", "trainable": false, "dtype": "float32", "activation": "relu"}, "name": "activation_229", "inbound_nodes": [[["batch_normalization_229", 0, 0, {}]]]}, {"class_name": "Activation", "config": {"name": "activation_234", "trainable": false, "dtype": "float32", "activation": "relu"}, "name": "activation_234", "inbound_nodes": [[["batch_normalization_234", 0, 0, {}]]]}, {"class_name": "Conv2D", "config": {"name": "conv2d_230", "trainable": false, "dtype": "float32", "filters": 160, "kernel_size": [1, 7], "strides": [1, 1], "padding": "same", "data_format": "channels_last", "dilation_rate": [1, 1], "groups": 1, "activation": "linear", "use_bias": false, "kernel_initializer": {"class_name": "GlorotUniform", "config": {"seed": null}}, "bias_initializer": {"class_name": "Zeros", "config": {}}, "kernel_regularizer": null, "bias_regularizer": null, "activity_regularizer": null, "kernel_constraint": null, "bias_constraint": null}, "name": "conv2d_230", "inbound_nodes": [[["activation_229", 0, 0, {}]]]}, {"class_name": "Conv2D", "config": {"name": "conv2d_235", "trainable": false, "dtype": "float32", "filters": 160, "kernel_size": [7, 1], "strides": [1, 1], "padding": "same", "data_format": "channels_last", "dilation_rate": [1, 1], "groups": 1, "activation": "linear", "use_bias": false, "kernel_initializer": {"class_name": "GlorotUniform", "config": {"seed": null}}, "bias_initializer": {"class_name": "Zeros", "config": {}}, "kernel_regularizer": null, "bias_regularizer": null, "activity_regularizer": null, "kernel_constraint": null, "bias_constraint": null}, "name": "conv2d_235", "inbound_nodes": [[["activation_234", 0, 0, {}]]]}, {"class_name": "BatchNormalization", "config": {"name": "batch_normalization_230", "trainable": false, "dtype": "float32", "axis": [3], "momentum": 0.99, "epsilon": 0.001, "center": true, "scale": false, "beta_initializer": {"class_name": "Zeros", "config": {}}, "gamma_initializer": {"class_name": "Ones", "config": {}}, "moving_mean_initializer": {"class_name": "Zeros", "config": {}}, "moving_variance_initializer": {"class_name": "Ones", "config": {}}, "beta_regularizer": null, "gamma_regularizer": null, "beta_constraint": null, "gamma_constraint": null}, "name": "batch_normalization_230", "inbound_nodes": [[["conv2d_230", 0, 0, {}]]]}, {"class_name": "BatchNormalization", "config": {"name": "batch_normalization_235", "trainable": false, "dtype": "float32", "axis": [3], "momentum": 0.99, "epsilon": 0.001, "center": true, "scale": false, "beta_initializer": {"class_name": "Zeros", "config": {}}, "gamma_initializer": {"class_name": "Ones", "config": {}}, "moving_mean_initializer": {"class_name": "Zeros", "config": {}}, "moving_variance_initializer": {"class_name": "Ones", "config": {}}, "beta_regularizer": null, "gamma_regularizer": null, "beta_constraint": null, "gamma_constraint": null}, "name": "batch_normalization_235", "inbound_nodes": [[["conv2d_235", 0, 0, {}]]]}, {"class_name": "Activation", "config": {"name": "activation_230", "trainable": false, "dtype": "float32", "activation": "relu"}, "name": "activation_230", "inbound_nodes": [[["batch_normalization_230", 0, 0, {}]]]}, {"class_name": "Activation", "config": {"name": "activation_235", "trainable": false, "dtype": "float32", "activation": "relu"}, "name": "activation_235", "inbound_nodes": [[["batch_normalization_235", 0, 0, {}]]]}, {"class_name": "AveragePooling2D", "config": {"name": "average_pooling2d_22", "trainable": false, "dtype": "float32", "pool_size": [3, 3], "padding": "same", "strides": [1, 1], "data_format": "channels_last"}, "name": "average_pooling2d_22", "inbound_nodes": [[["mixed4", 0, 0, {}]]]}, {"class_name": "Conv2D", "config": {"name": "conv2d_228", "trainable": false, "dtype": "float32", "filters": 192, "kernel_size": [1, 1], "strides": [1, 1], "padding": "same", "data_format": "channels_last", "dilation_rate": [1, 1], "groups": 1, "activation": "linear", "use_bias": false, "kernel_initializer": {"class_name": "GlorotUniform", "config": {"seed": null}}, "bias_initializer": {"class_name": "Zeros", "config": {}}, "kernel_regularizer": null, "bias_regularizer": null, "activity_regularizer": null, "kernel_constraint": null, "bias_constraint": null}, "name": "conv2d_228", "inbound_nodes": [[["mixed4", 0, 0, {}]]]}, {"class_name": "Conv2D", "config": {"name": "conv2d_231", "trainable": false, "dtype": "float32", "filters": 192, "kernel_size": [7, 1], "strides": [1, 1], "padding": "same", "data_format": "channels_last", "dilation_rate": [1, 1], "groups": 1, "activation": "linear", "use_bias": false, "kernel_initializer": {"class_name": "GlorotUniform", "config": {"seed": null}}, "bias_initializer": {"class_name": "Zeros", "config": {}}, "kernel_regularizer": null, "bias_regularizer": null, "activity_regularizer": null, "kernel_constraint": null, "bias_constraint": null}, "name": "conv2d_231", "inbound_nodes": [[["activation_230", 0, 0, {}]]]}, {"class_name": "Conv2D", "config": {"name": "conv2d_236", "trainable": false, "dtype": "float32", "filters": 192, "kernel_size": [1, 7], "strides": [1, 1], "padding": "same", "data_format": "channels_last", "dilation_rate": [1, 1], "groups": 1, "activation": "linear", "use_bias": false, "kernel_initializer": {"class_name": "GlorotUniform", "config": {"seed": null}}, "bias_initializer": {"class_name": "Zeros", "config": {}}, "kernel_regularizer": null, "bias_regularizer": null, "activity_regularizer": null, "kernel_constraint": null, "bias_constraint": null}, "name": "conv2d_236", "inbound_nodes": [[["activation_235", 0, 0, {}]]]}, {"class_name": "Conv2D", "config": {"name": "conv2d_237", "trainable": false, "dtype": "float32", "filters": 192, "kernel_size": [1, 1], "strides": [1, 1], "padding": "same", "data_format": "channels_last", "dilation_rate": [1, 1], "groups": 1, "activation": "linear", "use_bias": false, "kernel_initializer": {"class_name": "GlorotUniform", "config": {"seed": null}}, "bias_initializer": {"class_name": "Zeros", "config": {}}, "kernel_regularizer": null, "bias_regularizer": null, "activity_regularizer": null, "kernel_constraint": null, "bias_constraint": null}, "name": "conv2d_237", "inbound_nodes": [[["average_pooling2d_22", 0, 0, {}]]]}, {"class_name": "BatchNormalization", "config": {"name": "batch_normalization_228", "trainable": false, "dtype": "float32", "axis": [3], "momentum": 0.99, "epsilon": 0.001, "center": true, "scale": false, "beta_initializer": {"class_name": "Zeros", "config": {}}, "gamma_initializer": {"class_name": "Ones", "config": {}}, "moving_mean_initializer": {"class_name": "Zeros", "config": {}}, "moving_variance_initializer": {"class_name": "Ones", "config": {}}, "beta_regularizer": null, "gamma_regularizer": null, "beta_constraint": null, "gamma_constraint": null}, "name": "batch_normalization_228", "inbound_nodes": [[["conv2d_228", 0, 0, {}]]]}, {"class_name": "BatchNormalization", "config": {"name": "batch_normalization_231", "trainable": false, "dtype": "float32", "axis": [3], "momentum": 0.99, "epsilon": 0.001, "center": true, "scale": false, "beta_initializer": {"class_name": "Zeros", "config": {}}, "gamma_initializer": {"class_name": "Ones", "config": {}}, "moving_mean_initializer": {"class_name": "Zeros", "config": {}}, "moving_variance_initializer": {"class_name": "Ones", "config": {}}, "beta_regularizer": null, "gamma_regularizer": null, "beta_constraint": null, "gamma_constraint": null}, "name": "batch_normalization_231", "inbound_nodes": [[["conv2d_231", 0, 0, {}]]]}, {"class_name": "BatchNormalization", "config": {"name": "batch_normalization_236", "trainable": false, "dtype": "float32", "axis": [3], "momentum": 0.99, "epsilon": 0.001, "center": true, "scale": false, "beta_initializer": {"class_name": "Zeros", "config": {}}, "gamma_initializer": {"class_name": "Ones", "config": {}}, "moving_mean_initializer": {"class_name": "Zeros", "config": {}}, "moving_variance_initializer": {"class_name": "Ones", "config": {}}, "beta_regularizer": null, "gamma_regularizer": null, "beta_constraint": null, "gamma_constraint": null}, "name": "batch_normalization_236", "inbound_nodes": [[["conv2d_236", 0, 0, {}]]]}, {"class_name": "BatchNormalization", "config": {"name": "batch_normalization_237", "trainable": false, "dtype": "float32", "axis": [3], "momentum": 0.99, "epsilon": 0.001, "center": true, "scale": false, "beta_initializer": {"class_name": "Zeros", "config": {}}, "gamma_initializer": {"class_name": "Ones", "config": {}}, "moving_mean_initializer": {"class_name": "Zeros", "config": {}}, "moving_variance_initializer": {"class_name": "Ones", "config": {}}, "beta_regularizer": null, "gamma_regularizer": null, "beta_constraint": null, "gamma_constraint": null}, "name": "batch_normalization_237", "inbound_nodes": [[["conv2d_237", 0, 0, {}]]]}, {"class_name": "Activation", "config": {"name": "activation_228", "trainable": false, "dtype": "float32", "activation": "relu"}, "name": "activation_228", "inbound_nodes": [[["batch_normalization_228", 0, 0, {}]]]}, {"class_name": "Activation", "config": {"name": "activation_231", "trainable": false, "dtype": "float32", "activation": "relu"}, "name": "activation_231", "inbound_nodes": [[["batch_normalization_231", 0, 0, {}]]]}, {"class_name": "Activation", "config": {"name": "activation_236", "trainable": false, "dtype": "float32", "activation": "relu"}, "name": "activation_236", "inbound_nodes": [[["batch_normalization_236", 0, 0, {}]]]}, {"class_name": "Activation", "config": {"name": "activation_237", "trainable": false, "dtype": "float32", "activation": "relu"}, "name": "activation_237", "inbound_nodes": [[["batch_normalization_237", 0, 0, {}]]]}, {"class_name": "Concatenate", "config": {"name": "mixed5", "trainable": false, "dtype": "float32", "axis": 3}, "name": "mixed5", "inbound_nodes": [[["activation_228", 0, 0, {}], ["activation_231", 0, 0, {}], ["activation_236", 0, 0, {}], ["activation_237", 0, 0, {}]]]}, {"class_name": "Conv2D", "config": {"name": "conv2d_242", "trainable": false, "dtype": "float32", "filters": 160, "kernel_size": [1, 1], "strides": [1, 1], "padding": "same", "data_format": "channels_last", "dilation_rate": [1, 1], "groups": 1, "activation": "linear", "use_bias": false, "kernel_initializer": {"class_name": "GlorotUniform", "config": {"seed": null}}, "bias_initializer": {"class_name": "Zeros", "config": {}}, "kernel_regularizer": null, "bias_regularizer": null, "activity_regularizer": null, "kernel_constraint": null, "bias_constraint": null}, "name": "conv2d_242", "inbound_nodes": [[["mixed5", 0, 0, {}]]]}, {"class_name": "BatchNormalization", "config": {"name": "batch_normalization_242", "trainable": false, "dtype": "float32", "axis": [3], "momentum": 0.99, "epsilon": 0.001, "center": true, "scale": false, "beta_initializer": {"class_name": "Zeros", "config": {}}, "gamma_initializer": {"class_name": "Ones", "config": {}}, "moving_mean_initializer": {"class_name": "Zeros", "config": {}}, "moving_variance_initializer": {"class_name": "Ones", "config": {}}, "beta_regularizer": null, "gamma_regularizer": null, "beta_constraint": null, "gamma_constraint": null}, "name": "batch_normalization_242", "inbound_nodes": [[["conv2d_242", 0, 0, {}]]]}, {"class_name": "Activation", "config": {"name": "activation_242", "trainable": false, "dtype": "float32", "activation": "relu"}, "name": "activation_242", "inbound_nodes": [[["batch_normalization_242", 0, 0, {}]]]}, {"class_name": "Conv2D", "config": {"name": "conv2d_243", "trainable": false, "dtype": "float32", "filters": 160, "kernel_size": [7, 1], "strides": [1, 1], "padding": "same", "data_format": "channels_last", "dilation_rate": [1, 1], "groups": 1, "activation": "linear", "use_bias": false, "kernel_initializer": {"class_name": "GlorotUniform", "config": {"seed": null}}, "bias_initializer": {"class_name": "Zeros", "config": {}}, "kernel_regularizer": null, "bias_regularizer": null, "activity_regularizer": null, "kernel_constraint": null, "bias_constraint": null}, "name": "conv2d_243", "inbound_nodes": [[["activation_242", 0, 0, {}]]]}, {"class_name": "BatchNormalization", "config": {"name": "batch_normalization_243", "trainable": false, "dtype": "float32", "axis": [3], "momentum": 0.99, "epsilon": 0.001, "center": true, "scale": false, "beta_initializer": {"class_name": "Zeros", "config": {}}, "gamma_initializer": {"class_name": "Ones", "config": {}}, "moving_mean_initializer": {"class_name": "Zeros", "config": {}}, "moving_variance_initializer": {"class_name": "Ones", "config": {}}, "beta_regularizer": null, "gamma_regularizer": null, "beta_constraint": null, "gamma_constraint": null}, "name": "batch_normalization_243", "inbound_nodes": [[["conv2d_243", 0, 0, {}]]]}, {"class_name": "Activation", "config": {"name": "activation_243", "trainable": false, "dtype": "float32", "activation": "relu"}, "name": "activation_243", "inbound_nodes": [[["batch_normalization_243", 0, 0, {}]]]}, {"class_name": "Conv2D", "config": {"name": "conv2d_239", "trainable": false, "dtype": "float32", "filters": 160, "kernel_size": [1, 1], "strides": [1, 1], "padding": "same", "data_format": "channels_last", "dilation_rate": [1, 1], "groups": 1, "activation": "linear", "use_bias": false, "kernel_initializer": {"class_name": "GlorotUniform", "config": {"seed": null}}, "bias_initializer": {"class_name": "Zeros", "config": {}}, "kernel_regularizer": null, "bias_regularizer": null, "activity_regularizer": null, "kernel_constraint": null, "bias_constraint": null}, "name": "conv2d_239", "inbound_nodes": [[["mixed5", 0, 0, {}]]]}, {"class_name": "Conv2D", "config": {"name": "conv2d_244", "trainable": false, "dtype": "float32", "filters": 160, "kernel_size": [1, 7], "strides": [1, 1], "padding": "same", "data_format": "channels_last", "dilation_rate": [1, 1], "groups": 1, "activation": "linear", "use_bias": false, "kernel_initializer": {"class_name": "GlorotUniform", "config": {"seed": null}}, "bias_initializer": {"class_name": "Zeros", "config": {}}, "kernel_regularizer": null, "bias_regularizer": null, "activity_regularizer": null, "kernel_constraint": null, "bias_constraint": null}, "name": "conv2d_244", "inbound_nodes": [[["activation_243", 0, 0, {}]]]}, {"class_name": "BatchNormalization", "config": {"name": "batch_normalization_239", "trainable": false, "dtype": "float32", "axis": [3], "momentum": 0.99, "epsilon": 0.001, "center": true, "scale": false, "beta_initializer": {"class_name": "Zeros", "config": {}}, "gamma_initializer": {"class_name": "Ones", "config": {}}, "moving_mean_initializer": {"class_name": "Zeros", "config": {}}, "moving_variance_initializer": {"class_name": "Ones", "config": {}}, "beta_regularizer": null, "gamma_regularizer": null, "beta_constraint": null, "gamma_constraint": null}, "name": "batch_normalization_239", "inbound_nodes": [[["conv2d_239", 0, 0, {}]]]}, {"class_name": "BatchNormalization", "config": {"name": "batch_normalization_244", "trainable": false, "dtype": "float32", "axis": [3], "momentum": 0.99, "epsilon": 0.001, "center": true, "scale": false, "beta_initializer": {"class_name": "Zeros", "config": {}}, "gamma_initializer": {"class_name": "Ones", "config": {}}, "moving_mean_initializer": {"class_name": "Zeros", "config": {}}, "moving_variance_initializer": {"class_name": "Ones", "config": {}}, "beta_regularizer": null, "gamma_regularizer": null, "beta_constraint": null, "gamma_constraint": null}, "name": "batch_normalization_244", "inbound_nodes": [[["conv2d_244", 0, 0, {}]]]}, {"class_name": "Activation", "config": {"name": "activation_239", "trainable": false, "dtype": "float32", "activation": "relu"}, "name": "activation_239", "inbound_nodes": [[["batch_normalization_239", 0, 0, {}]]]}, {"class_name": "Activation", "config": {"name": "activation_244", "trainable": false, "dtype": "float32", "activation": "relu"}, "name": "activation_244", "inbound_nodes": [[["batch_normalization_244", 0, 0, {}]]]}, {"class_name": "Conv2D", "config": {"name": "conv2d_240", "trainable": false, "dtype": "float32", "filters": 160, "kernel_size": [1, 7], "strides": [1, 1], "padding": "same", "data_format": "channels_last", "dilation_rate": [1, 1], "groups": 1, "activation": "linear", "use_bias": false, "kernel_initializer": {"class_name": "GlorotUniform", "config": {"seed": null}}, "bias_initializer": {"class_name": "Zeros", "config": {}}, "kernel_regularizer": null, "bias_regularizer": null, "activity_regularizer": null, "kernel_constraint": null, "bias_constraint": null}, "name": "conv2d_240", "inbound_nodes": [[["activation_239", 0, 0, {}]]]}, {"class_name": "Conv2D", "config": {"name": "conv2d_245", "trainable": false, "dtype": "float32", "filters": 160, "kernel_size": [7, 1], "strides": [1, 1], "padding": "same", "data_format": "channels_last", "dilation_rate": [1, 1], "groups": 1, "activation": "linear", "use_bias": false, "kernel_initializer": {"class_name": "GlorotUniform", "config": {"seed": null}}, "bias_initializer": {"class_name": "Zeros", "config": {}}, "kernel_regularizer": null, "bias_regularizer": null, "activity_regularizer": null, "kernel_constraint": null, "bias_constraint": null}, "name": "conv2d_245", "inbound_nodes": [[["activation_244", 0, 0, {}]]]}, {"class_name": "BatchNormalization", "config": {"name": "batch_normalization_240", "trainable": false, "dtype": "float32", "axis": [3], "momentum": 0.99, "epsilon": 0.001, "center": true, "scale": false, "beta_initializer": {"class_name": "Zeros", "config": {}}, "gamma_initializer": {"class_name": "Ones", "config": {}}, "moving_mean_initializer": {"class_name": "Zeros", "config": {}}, "moving_variance_initializer": {"class_name": "Ones", "config": {}}, "beta_regularizer": null, "gamma_regularizer": null, "beta_constraint": null, "gamma_constraint": null}, "name": "batch_normalization_240", "inbound_nodes": [[["conv2d_240", 0, 0, {}]]]}, {"class_name": "BatchNormalization", "config": {"name": "batch_normalization_245", "trainable": false, "dtype": "float32", "axis": [3], "momentum": 0.99, "epsilon": 0.001, "center": true, "scale": false, "beta_initializer": {"class_name": "Zeros", "config": {}}, "gamma_initializer": {"class_name": "Ones", "config": {}}, "moving_mean_initializer": {"class_name": "Zeros", "config": {}}, "moving_variance_initializer": {"class_name": "Ones", "config": {}}, "beta_regularizer": null, "gamma_regularizer": null, "beta_constraint": null, "gamma_constraint": null}, "name": "batch_normalization_245", "inbound_nodes": [[["conv2d_245", 0, 0, {}]]]}, {"class_name": "Activation", "config": {"name": "activation_240", "trainable": false, "dtype": "float32", "activation": "relu"}, "name": "activation_240", "inbound_nodes": [[["batch_normalization_240", 0, 0, {}]]]}, {"class_name": "Activation", "config": {"name": "activation_245", "trainable": false, "dtype": "float32", "activation": "relu"}, "name": "activation_245", "inbound_nodes": [[["batch_normalization_245", 0, 0, {}]]]}, {"class_name": "AveragePooling2D", "config": {"name": "average_pooling2d_23", "trainable": false, "dtype": "float32", "pool_size": [3, 3], "padding": "same", "strides": [1, 1], "data_format": "channels_last"}, "name": "average_pooling2d_23", "inbound_nodes": [[["mixed5", 0, 0, {}]]]}, {"class_name": "Conv2D", "config": {"name": "conv2d_238", "trainable": false, "dtype": "float32", "filters": 192, "kernel_size": [1, 1], "strides": [1, 1], "padding": "same", "data_format": "channels_last", "dilation_rate": [1, 1], "groups": 1, "activation": "linear", "use_bias": false, "kernel_initializer": {"class_name": "GlorotUniform", "config": {"seed": null}}, "bias_initializer": {"class_name": "Zeros", "config": {}}, "kernel_regularizer": null, "bias_regularizer": null, "activity_regularizer": null, "kernel_constraint": null, "bias_constraint": null}, "name": "conv2d_238", "inbound_nodes": [[["mixed5", 0, 0, {}]]]}, {"class_name": "Conv2D", "config": {"name": "conv2d_241", "trainable": false, "dtype": "float32", "filters": 192, "kernel_size": [7, 1], "strides": [1, 1], "padding": "same", "data_format": "channels_last", "dilation_rate": [1, 1], "groups": 1, "activation": "linear", "use_bias": false, "kernel_initializer": {"class_name": "GlorotUniform", "config": {"seed": null}}, "bias_initializer": {"class_name": "Zeros", "config": {}}, "kernel_regularizer": null, "bias_regularizer": null, "activity_regularizer": null, "kernel_constraint": null, "bias_constraint": null}, "name": "conv2d_241", "inbound_nodes": [[["activation_240", 0, 0, {}]]]}, {"class_name": "Conv2D", "config": {"name": "conv2d_246", "trainable": false, "dtype": "float32", "filters": 192, "kernel_size": [1, 7], "strides": [1, 1], "padding": "same", "data_format": "channels_last", "dilation_rate": [1, 1], "groups": 1, "activation": "linear", "use_bias": false, "kernel_initializer": {"class_name": "GlorotUniform", "config": {"seed": null}}, "bias_initializer": {"class_name": "Zeros", "config": {}}, "kernel_regularizer": null, "bias_regularizer": null, "activity_regularizer": null, "kernel_constraint": null, "bias_constraint": null}, "name": "conv2d_246", "inbound_nodes": [[["activation_245", 0, 0, {}]]]}, {"class_name": "Conv2D", "config": {"name": "conv2d_247", "trainable": false, "dtype": "float32", "filters": 192, "kernel_size": [1, 1], "strides": [1, 1], "padding": "same", "data_format": "channels_last", "dilation_rate": [1, 1], "groups": 1, "activation": "linear", "use_bias": false, "kernel_initializer": {"class_name": "GlorotUniform", "config": {"seed": null}}, "bias_initializer": {"class_name": "Zeros", "config": {}}, "kernel_regularizer": null, "bias_regularizer": null, "activity_regularizer": null, "kernel_constraint": null, "bias_constraint": null}, "name": "conv2d_247", "inbound_nodes": [[["average_pooling2d_23", 0, 0, {}]]]}, {"class_name": "BatchNormalization", "config": {"name": "batch_normalization_238", "trainable": false, "dtype": "float32", "axis": [3], "momentum": 0.99, "epsilon": 0.001, "center": true, "scale": false, "beta_initializer": {"class_name": "Zeros", "config": {}}, "gamma_initializer": {"class_name": "Ones", "config": {}}, "moving_mean_initializer": {"class_name": "Zeros", "config": {}}, "moving_variance_initializer": {"class_name": "Ones", "config": {}}, "beta_regularizer": null, "gamma_regularizer": null, "beta_constraint": null, "gamma_constraint": null}, "name": "batch_normalization_238", "inbound_nodes": [[["conv2d_238", 0, 0, {}]]]}, {"class_name": "BatchNormalization", "config": {"name": "batch_normalization_241", "trainable": false, "dtype": "float32", "axis": [3], "momentum": 0.99, "epsilon": 0.001, "center": true, "scale": false, "beta_initializer": {"class_name": "Zeros", "config": {}}, "gamma_initializer": {"class_name": "Ones", "config": {}}, "moving_mean_initializer": {"class_name": "Zeros", "config": {}}, "moving_variance_initializer": {"class_name": "Ones", "config": {}}, "beta_regularizer": null, "gamma_regularizer": null, "beta_constraint": null, "gamma_constraint": null}, "name": "batch_normalization_241", "inbound_nodes": [[["conv2d_241", 0, 0, {}]]]}, {"class_name": "BatchNormalization", "config": {"name": "batch_normalization_246", "trainable": false, "dtype": "float32", "axis": [3], "momentum": 0.99, "epsilon": 0.001, "center": true, "scale": false, "beta_initializer": {"class_name": "Zeros", "config": {}}, "gamma_initializer": {"class_name": "Ones", "config": {}}, "moving_mean_initializer": {"class_name": "Zeros", "config": {}}, "moving_variance_initializer": {"class_name": "Ones", "config": {}}, "beta_regularizer": null, "gamma_regularizer": null, "beta_constraint": null, "gamma_constraint": null}, "name": "batch_normalization_246", "inbound_nodes": [[["conv2d_246", 0, 0, {}]]]}, {"class_name": "BatchNormalization", "config": {"name": "batch_normalization_247", "trainable": false, "dtype": "float32", "axis": [3], "momentum": 0.99, "epsilon": 0.001, "center": true, "scale": false, "beta_initializer": {"class_name": "Zeros", "config": {}}, "gamma_initializer": {"class_name": "Ones", "config": {}}, "moving_mean_initializer": {"class_name": "Zeros", "config": {}}, "moving_variance_initializer": {"class_name": "Ones", "config": {}}, "beta_regularizer": null, "gamma_regularizer": null, "beta_constraint": null, "gamma_constraint": null}, "name": "batch_normalization_247", "inbound_nodes": [[["conv2d_247", 0, 0, {}]]]}, {"class_name": "Activation", "config": {"name": "activation_238", "trainable": false, "dtype": "float32", "activation": "relu"}, "name": "activation_238", "inbound_nodes": [[["batch_normalization_238", 0, 0, {}]]]}, {"class_name": "Activation", "config": {"name": "activation_241", "trainable": false, "dtype": "float32", "activation": "relu"}, "name": "activation_241", "inbound_nodes": [[["batch_normalization_241", 0, 0, {}]]]}, {"class_name": "Activation", "config": {"name": "activation_246", "trainable": false, "dtype": "float32", "activation": "relu"}, "name": "activation_246", "inbound_nodes": [[["batch_normalization_246", 0, 0, {}]]]}, {"class_name": "Activation", "config": {"name": "activation_247", "trainable": false, "dtype": "float32", "activation": "relu"}, "name": "activation_247", "inbound_nodes": [[["batch_normalization_247", 0, 0, {}]]]}, {"class_name": "Concatenate", "config": {"name": "mixed6", "trainable": false, "dtype": "float32", "axis": 3}, "name": "mixed6", "inbound_nodes": [[["activation_238", 0, 0, {}], ["activation_241", 0, 0, {}], ["activation_246", 0, 0, {}], ["activation_247", 0, 0, {}]]]}, {"class_name": "Conv2D", "config": {"name": "conv2d_252", "trainable": false, "dtype": "float32", "filters": 192, "kernel_size": [1, 1], "strides": [1, 1], "padding": "same", "data_format": "channels_last", "dilation_rate": [1, 1], "groups": 1, "activation": "linear", "use_bias": false, "kernel_initializer": {"class_name": "GlorotUniform", "config": {"seed": null}}, "bias_initializer": {"class_name": "Zeros", "config": {}}, "kernel_regularizer": null, "bias_regularizer": null, "activity_regularizer": null, "kernel_constraint": null, "bias_constraint": null}, "name": "conv2d_252", "inbound_nodes": [[["mixed6", 0, 0, {}]]]}, {"class_name": "BatchNormalization", "config": {"name": "batch_normalization_252", "trainable": false, "dtype": "float32", "axis": [3], "momentum": 0.99, "epsilon": 0.001, "center": true, "scale": false, "beta_initializer": {"class_name": "Zeros", "config": {}}, "gamma_initializer": {"class_name": "Ones", "config": {}}, "moving_mean_initializer": {"class_name": "Zeros", "config": {}}, "moving_variance_initializer": {"class_name": "Ones", "config": {}}, "beta_regularizer": null, "gamma_regularizer": null, "beta_constraint": null, "gamma_constraint": null}, "name": "batch_normalization_252", "inbound_nodes": [[["conv2d_252", 0, 0, {}]]]}, {"class_name": "Activation", "config": {"name": "activation_252", "trainable": false, "dtype": "float32", "activation": "relu"}, "name": "activation_252", "inbound_nodes": [[["batch_normalization_252", 0, 0, {}]]]}, {"class_name": "Conv2D", "config": {"name": "conv2d_253", "trainable": false, "dtype": "float32", "filters": 192, "kernel_size": [7, 1], "strides": [1, 1], "padding": "same", "data_format": "channels_last", "dilation_rate": [1, 1], "groups": 1, "activation": "linear", "use_bias": false, "kernel_initializer": {"class_name": "GlorotUniform", "config": {"seed": null}}, "bias_initializer": {"class_name": "Zeros", "config": {}}, "kernel_regularizer": null, "bias_regularizer": null, "activity_regularizer": null, "kernel_constraint": null, "bias_constraint": null}, "name": "conv2d_253", "inbound_nodes": [[["activation_252", 0, 0, {}]]]}, {"class_name": "BatchNormalization", "config": {"name": "batch_normalization_253", "trainable": false, "dtype": "float32", "axis": [3], "momentum": 0.99, "epsilon": 0.001, "center": true, "scale": false, "beta_initializer": {"class_name": "Zeros", "config": {}}, "gamma_initializer": {"class_name": "Ones", "config": {}}, "moving_mean_initializer": {"class_name": "Zeros", "config": {}}, "moving_variance_initializer": {"class_name": "Ones", "config": {}}, "beta_regularizer": null, "gamma_regularizer": null, "beta_constraint": null, "gamma_constraint": null}, "name": "batch_normalization_253", "inbound_nodes": [[["conv2d_253", 0, 0, {}]]]}, {"class_name": "Activation", "config": {"name": "activation_253", "trainable": false, "dtype": "float32", "activation": "relu"}, "name": "activation_253", "inbound_nodes": [[["batch_normalization_253", 0, 0, {}]]]}, {"class_name": "Conv2D", "config": {"name": "conv2d_249", "trainable": false, "dtype": "float32", "filters": 192, "kernel_size": [1, 1], "strides": [1, 1], "padding": "same", "data_format": "channels_last", "dilation_rate": [1, 1], "groups": 1, "activation": "linear", "use_bias": false, "kernel_initializer": {"class_name": "GlorotUniform", "config": {"seed": null}}, "bias_initializer": {"class_name": "Zeros", "config": {}}, "kernel_regularizer": null, "bias_regularizer": null, "activity_regularizer": null, "kernel_constraint": null, "bias_constraint": null}, "name": "conv2d_249", "inbound_nodes": [[["mixed6", 0, 0, {}]]]}, {"class_name": "Conv2D", "config": {"name": "conv2d_254", "trainable": false, "dtype": "float32", "filters": 192, "kernel_size": [1, 7], "strides": [1, 1], "padding": "same", "data_format": "channels_last", "dilation_rate": [1, 1], "groups": 1, "activation": "linear", "use_bias": false, "kernel_initializer": {"class_name": "GlorotUniform", "config": {"seed": null}}, "bias_initializer": {"class_name": "Zeros", "config": {}}, "kernel_regularizer": null, "bias_regularizer": null, "activity_regularizer": null, "kernel_constraint": null, "bias_constraint": null}, "name": "conv2d_254", "inbound_nodes": [[["activation_253", 0, 0, {}]]]}, {"class_name": "BatchNormalization", "config": {"name": "batch_normalization_249", "trainable": false, "dtype": "float32", "axis": [3], "momentum": 0.99, "epsilon": 0.001, "center": true, "scale": false, "beta_initializer": {"class_name": "Zeros", "config": {}}, "gamma_initializer": {"class_name": "Ones", "config": {}}, "moving_mean_initializer": {"class_name": "Zeros", "config": {}}, "moving_variance_initializer": {"class_name": "Ones", "config": {}}, "beta_regularizer": null, "gamma_regularizer": null, "beta_constraint": null, "gamma_constraint": null}, "name": "batch_normalization_249", "inbound_nodes": [[["conv2d_249", 0, 0, {}]]]}, {"class_name": "BatchNormalization", "config": {"name": "batch_normalization_254", "trainable": false, "dtype": "float32", "axis": [3], "momentum": 0.99, "epsilon": 0.001, "center": true, "scale": false, "beta_initializer": {"class_name": "Zeros", "config": {}}, "gamma_initializer": {"class_name": "Ones", "config": {}}, "moving_mean_initializer": {"class_name": "Zeros", "config": {}}, "moving_variance_initializer": {"class_name": "Ones", "config": {}}, "beta_regularizer": null, "gamma_regularizer": null, "beta_constraint": null, "gamma_constraint": null}, "name": "batch_normalization_254", "inbound_nodes": [[["conv2d_254", 0, 0, {}]]]}, {"class_name": "Activation", "config": {"name": "activation_249", "trainable": false, "dtype": "float32", "activation": "relu"}, "name": "activation_249", "inbound_nodes": [[["batch_normalization_249", 0, 0, {}]]]}, {"class_name": "Activation", "config": {"name": "activation_254", "trainable": false, "dtype": "float32", "activation": "relu"}, "name": "activation_254", "inbound_nodes": [[["batch_normalization_254", 0, 0, {}]]]}, {"class_name": "Conv2D", "config": {"name": "conv2d_250", "trainable": false, "dtype": "float32", "filters": 192, "kernel_size": [1, 7], "strides": [1, 1], "padding": "same", "data_format": "channels_last", "dilation_rate": [1, 1], "groups": 1, "activation": "linear", "use_bias": false, "kernel_initializer": {"class_name": "GlorotUniform", "config": {"seed": null}}, "bias_initializer": {"class_name": "Zeros", "config": {}}, "kernel_regularizer": null, "bias_regularizer": null, "activity_regularizer": null, "kernel_constraint": null, "bias_constraint": null}, "name": "conv2d_250", "inbound_nodes": [[["activation_249", 0, 0, {}]]]}, {"class_name": "Conv2D", "config": {"name": "conv2d_255", "trainable": false, "dtype": "float32", "filters": 192, "kernel_size": [7, 1], "strides": [1, 1], "padding": "same", "data_format": "channels_last", "dilation_rate": [1, 1], "groups": 1, "activation": "linear", "use_bias": false, "kernel_initializer": {"class_name": "GlorotUniform", "config": {"seed": null}}, "bias_initializer": {"class_name": "Zeros", "config": {}}, "kernel_regularizer": null, "bias_regularizer": null, "activity_regularizer": null, "kernel_constraint": null, "bias_constraint": null}, "name": "conv2d_255", "inbound_nodes": [[["activation_254", 0, 0, {}]]]}, {"class_name": "BatchNormalization", "config": {"name": "batch_normalization_250", "trainable": false, "dtype": "float32", "axis": [3], "momentum": 0.99, "epsilon": 0.001, "center": true, "scale": false, "beta_initializer": {"class_name": "Zeros", "config": {}}, "gamma_initializer": {"class_name": "Ones", "config": {}}, "moving_mean_initializer": {"class_name": "Zeros", "config": {}}, "moving_variance_initializer": {"class_name": "Ones", "config": {}}, "beta_regularizer": null, "gamma_regularizer": null, "beta_constraint": null, "gamma_constraint": null}, "name": "batch_normalization_250", "inbound_nodes": [[["conv2d_250", 0, 0, {}]]]}, {"class_name": "BatchNormalization", "config": {"name": "batch_normalization_255", "trainable": false, "dtype": "float32", "axis": [3], "momentum": 0.99, "epsilon": 0.001, "center": true, "scale": false, "beta_initializer": {"class_name": "Zeros", "config": {}}, "gamma_initializer": {"class_name": "Ones", "config": {}}, "moving_mean_initializer": {"class_name": "Zeros", "config": {}}, "moving_variance_initializer": {"class_name": "Ones", "config": {}}, "beta_regularizer": null, "gamma_regularizer": null, "beta_constraint": null, "gamma_constraint": null}, "name": "batch_normalization_255", "inbound_nodes": [[["conv2d_255", 0, 0, {}]]]}, {"class_name": "Activation", "config": {"name": "activation_250", "trainable": false, "dtype": "float32", "activation": "relu"}, "name": "activation_250", "inbound_nodes": [[["batch_normalization_250", 0, 0, {}]]]}, {"class_name": "Activation", "config": {"name": "activation_255", "trainable": false, "dtype": "float32", "activation": "relu"}, "name": "activation_255", "inbound_nodes": [[["batch_normalization_255", 0, 0, {}]]]}, {"class_name": "AveragePooling2D", "config": {"name": "average_pooling2d_24", "trainable": false, "dtype": "float32", "pool_size": [3, 3], "padding": "same", "strides": [1, 1], "data_format": "channels_last"}, "name": "average_pooling2d_24", "inbound_nodes": [[["mixed6", 0, 0, {}]]]}, {"class_name": "Conv2D", "config": {"name": "conv2d_248", "trainable": false, "dtype": "float32", "filters": 192, "kernel_size": [1, 1], "strides": [1, 1], "padding": "same", "data_format": "channels_last", "dilation_rate": [1, 1], "groups": 1, "activation": "linear", "use_bias": false, "kernel_initializer": {"class_name": "GlorotUniform", "config": {"seed": null}}, "bias_initializer": {"class_name": "Zeros", "config": {}}, "kernel_regularizer": null, "bias_regularizer": null, "activity_regularizer": null, "kernel_constraint": null, "bias_constraint": null}, "name": "conv2d_248", "inbound_nodes": [[["mixed6", 0, 0, {}]]]}, {"class_name": "Conv2D", "config": {"name": "conv2d_251", "trainable": false, "dtype": "float32", "filters": 192, "kernel_size": [7, 1], "strides": [1, 1], "padding": "same", "data_format": "channels_last", "dilation_rate": [1, 1], "groups": 1, "activation": "linear", "use_bias": false, "kernel_initializer": {"class_name": "GlorotUniform", "config": {"seed": null}}, "bias_initializer": {"class_name": "Zeros", "config": {}}, "kernel_regularizer": null, "bias_regularizer": null, "activity_regularizer": null, "kernel_constraint": null, "bias_constraint": null}, "name": "conv2d_251", "inbound_nodes": [[["activation_250", 0, 0, {}]]]}, {"class_name": "Conv2D", "config": {"name": "conv2d_256", "trainable": false, "dtype": "float32", "filters": 192, "kernel_size": [1, 7], "strides": [1, 1], "padding": "same", "data_format": "channels_last", "dilation_rate": [1, 1], "groups": 1, "activation": "linear", "use_bias": false, "kernel_initializer": {"class_name": "GlorotUniform", "config": {"seed": null}}, "bias_initializer": {"class_name": "Zeros", "config": {}}, "kernel_regularizer": null, "bias_regularizer": null, "activity_regularizer": null, "kernel_constraint": null, "bias_constraint": null}, "name": "conv2d_256", "inbound_nodes": [[["activation_255", 0, 0, {}]]]}, {"class_name": "Conv2D", "config": {"name": "conv2d_257", "trainable": false, "dtype": "float32", "filters": 192, "kernel_size": [1, 1], "strides": [1, 1], "padding": "same", "data_format": "channels_last", "dilation_rate": [1, 1], "groups": 1, "activation": "linear", "use_bias": false, "kernel_initializer": {"class_name": "GlorotUniform", "config": {"seed": null}}, "bias_initializer": {"class_name": "Zeros", "config": {}}, "kernel_regularizer": null, "bias_regularizer": null, "activity_regularizer": null, "kernel_constraint": null, "bias_constraint": null}, "name": "conv2d_257", "inbound_nodes": [[["average_pooling2d_24", 0, 0, {}]]]}, {"class_name": "BatchNormalization", "config": {"name": "batch_normalization_248", "trainable": false, "dtype": "float32", "axis": [3], "momentum": 0.99, "epsilon": 0.001, "center": true, "scale": false, "beta_initializer": {"class_name": "Zeros", "config": {}}, "gamma_initializer": {"class_name": "Ones", "config": {}}, "moving_mean_initializer": {"class_name": "Zeros", "config": {}}, "moving_variance_initializer": {"class_name": "Ones", "config": {}}, "beta_regularizer": null, "gamma_regularizer": null, "beta_constraint": null, "gamma_constraint": null}, "name": "batch_normalization_248", "inbound_nodes": [[["conv2d_248", 0, 0, {}]]]}, {"class_name": "BatchNormalization", "config": {"name": "batch_normalization_251", "trainable": false, "dtype": "float32", "axis": [3], "momentum": 0.99, "epsilon": 0.001, "center": true, "scale": false, "beta_initializer": {"class_name": "Zeros", "config": {}}, "gamma_initializer": {"class_name": "Ones", "config": {}}, "moving_mean_initializer": {"class_name": "Zeros", "config": {}}, "moving_variance_initializer": {"class_name": "Ones", "config": {}}, "beta_regularizer": null, "gamma_regularizer": null, "beta_constraint": null, "gamma_constraint": null}, "name": "batch_normalization_251", "inbound_nodes": [[["conv2d_251", 0, 0, {}]]]}, {"class_name": "BatchNormalization", "config": {"name": "batch_normalization_256", "trainable": false, "dtype": "float32", "axis": [3], "momentum": 0.99, "epsilon": 0.001, "center": true, "scale": false, "beta_initializer": {"class_name": "Zeros", "config": {}}, "gamma_initializer": {"class_name": "Ones", "config": {}}, "moving_mean_initializer": {"class_name": "Zeros", "config": {}}, "moving_variance_initializer": {"class_name": "Ones", "config": {}}, "beta_regularizer": null, "gamma_regularizer": null, "beta_constraint": null, "gamma_constraint": null}, "name": "batch_normalization_256", "inbound_nodes": [[["conv2d_256", 0, 0, {}]]]}, {"class_name": "BatchNormalization", "config": {"name": "batch_normalization_257", "trainable": false, "dtype": "float32", "axis": [3], "momentum": 0.99, "epsilon": 0.001, "center": true, "scale": false, "beta_initializer": {"class_name": "Zeros", "config": {}}, "gamma_initializer": {"class_name": "Ones", "config": {}}, "moving_mean_initializer": {"class_name": "Zeros", "config": {}}, "moving_variance_initializer": {"class_name": "Ones", "config": {}}, "beta_regularizer": null, "gamma_regularizer": null, "beta_constraint": null, "gamma_constraint": null}, "name": "batch_normalization_257", "inbound_nodes": [[["conv2d_257", 0, 0, {}]]]}, {"class_name": "Activation", "config": {"name": "activation_248", "trainable": false, "dtype": "float32", "activation": "relu"}, "name": "activation_248", "inbound_nodes": [[["batch_normalization_248", 0, 0, {}]]]}, {"class_name": "Activation", "config": {"name": "activation_251", "trainable": false, "dtype": "float32", "activation": "relu"}, "name": "activation_251", "inbound_nodes": [[["batch_normalization_251", 0, 0, {}]]]}, {"class_name": "Activation", "config": {"name": "activation_256", "trainable": false, "dtype": "float32", "activation": "relu"}, "name": "activation_256", "inbound_nodes": [[["batch_normalization_256", 0, 0, {}]]]}, {"class_name": "Activation", "config": {"name": "activation_257", "trainable": false, "dtype": "float32", "activation": "relu"}, "name": "activation_257", "inbound_nodes": [[["batch_normalization_257", 0, 0, {}]]]}, {"class_name": "Concatenate", "config": {"name": "mixed7", "trainable": false, "dtype": "float32", "axis": 3}, "name": "mixed7", "inbound_nodes": [[["activation_248", 0, 0, {}], ["activation_251", 0, 0, {}], ["activation_256", 0, 0, {}], ["activation_257", 0, 0, {}]]]}, {"class_name": "Flatten", "config": {"name": "flatten_2", "trainable": true, "dtype": "float32", "data_format": "channels_last"}, "name": "flatten_2", "inbound_nodes": [[["mixed7", 0, 0, {}]]]}, {"class_name": "Dense", "config": {"name": "dense_4", "trainable": true, "dtype": "float32", "units": 32, "activation": "relu", "use_bias": true, "kernel_initializer": {"class_name": "GlorotUniform", "config": {"seed": null}}, "bias_initializer": {"class_name": "Zeros", "config": {}}, "kernel_regularizer": null, "bias_regularizer": null, "activity_regularizer": null, "kernel_constraint": null, "bias_constraint": null}, "name": "dense_4", "inbound_nodes": [[["flatten_2", 0, 0, {}]]]}, {"class_name": "Dropout", "config": {"name": "dropout_2", "trainable": true, "dtype": "float32", "rate": 0.2, "noise_shape": null, "seed": null}, "name": "dropout_2", "inbound_nodes": [[["dense_4", 0, 0, {}]]]}, {"class_name": "Dense", "config": {"name": "dense_5", "trainable": true, "dtype": "float32", "units": 1, "activation": "sigmoid", "use_bias": true, "kernel_initializer": {"class_name": "GlorotUniform", "config": {"seed": null}}, "bias_initializer": {"class_name": "Zeros", "config": {}}, "kernel_regularizer": null, "bias_regularizer": null, "activity_regularizer": null, "kernel_constraint": null, "bias_constraint": null}, "name": "dense_5", "inbound_nodes": [[["dropout_2", 0, 0, {}]]]}], "input_layers": [["input_3", 0, 0]], "output_layers": [["dense_5", 0, 0]]}}, "training_config": {"loss": "binary_crossentropy", "metrics": [[{"class_name": "MeanMetricWrapper", "config": {"name": "accuracy", "dtype": "float32", "fn": "binary_accuracy"}}]], "weighted_metrics": null, "loss_weights": null, "optimizer_config": {"class_name": "RMSprop", "config": {"name": "RMSprop", "learning_rate": 0.0010000000474974513, "decay": 0.0, "rho": 0.8999999761581421, "momentum": 0.0, "epsilon": 1e-07, "centered": false}}}}, "weightsManifest": [{"paths": ["group1-shard1of16.bin", "group1-shard2of16.bin", "group1-shard3of16.bin", "group1-shard4of16.bin", "group1-shard5of16.bin", "group1-shard6of16.bin", "group1-shard7of16.bin", "group1-shard8of16.bin", "group1-shard9of16.bin", "group1-shard10of16.bin", "group1-shard11of16.bin", "group1-shard12of16.bin", "group1-shard13of16.bin", "group1-shard14of16.bin", "group1-shard15of16.bin", "group1-shard16of16.bin"], "weights": [{"name": "batch_normalization_188/beta", "shape": [32], "dtype": "float32"}, {"name": "batch_normalization_188/moving_mean", "shape": [32], "dtype": "float32"}, {"name": "batch_normalization_188/moving_variance", "shape": [32], "dtype": "float32"}, {"name": "batch_normalization_189/beta", "shape": [32], "dtype": "float32"}, {"name": "batch_normalization_189/moving_mean", "shape": [32], "dtype": "float32"}, {"name": "batch_normalization_189/moving_variance", "shape": [32], "dtype": "float32"}, {"name": "batch_normalization_190/beta", "shape": [64], "dtype": "float32"}, {"name": "batch_normalization_190/moving_mean", "shape": [64], "dtype": "float32"}, {"name": "batch_normalization_190/moving_variance", "shape": [64], "dtype": "float32"}, {"name": "batch_normalization_191/beta", "shape": [80], "dtype": "float32"}, {"name": "batch_normalization_191/moving_mean", "shape": [80], "dtype": "float32"}, {"name": "batch_normalization_191/moving_variance", "shape": [80], "dtype": "float32"}, {"name": "batch_normalization_192/beta", "shape": [192], "dtype": "float32"}, {"name": "batch_normalization_192/moving_mean", "shape": [192], "dtype": "float32"}, {"name": "batch_normalization_192/moving_variance", "shape": [192], "dtype": "float32"}, {"name": "batch_normalization_193/beta", "shape": [64], "dtype": "float32"}, {"name": "batch_normalization_193/moving_mean", "shape": [64], "dtype": "float32"}, {"name": "batch_normalization_193/moving_variance", "shape": [64], "dtype": "float32"}, {"name": "batch_normalization_194/beta", "shape": [48], "dtype": "float32"}, {"name": "batch_normalization_194/moving_mean", "shape": [48], "dtype": "float32"}, {"name": "batch_normalization_194/moving_variance", "shape": [48], "dtype": "float32"}, {"name": "batch_normalization_195/beta", "shape": [64], "dtype": "float32"}, {"name": "batch_normalization_195/moving_mean", "shape": [64], "dtype": "float32"}, {"name": "batch_normalization_195/moving_variance", "shape": [64], "dtype": "float32"}, {"name": "batch_normalization_196/beta", "shape": [64], "dtype": "float32"}, {"name": "batch_normalization_196/moving_mean", "shape": [64], "dtype": "float32"}, {"name": "batch_normalization_196/moving_variance", "shape": [64], "dtype": "float32"}, {"name": "batch_normalization_197/beta", "shape": [96], "dtype": "float32"}, {"name": "batch_normalization_197/moving_mean", "shape": [96], "dtype": "float32"}, {"name": "batch_normalization_197/moving_variance", "shape": [96], "dtype": "float32"}, {"name": "batch_normalization_198/beta", "shape": [96], "dtype": "float32"}, {"name": "batch_normalization_198/moving_mean", "shape": [96], "dtype": "float32"}, {"name": "batch_normalization_198/moving_variance", "shape": [96], "dtype": "float32"}, {"name": "batch_normalization_199/beta", "shape": [32], "dtype": "float32"}, {"name": "batch_normalization_199/moving_mean", "shape": [32], "dtype": "float32"}, {"name": "batch_normalization_199/moving_variance", "shape": [32], "dtype": "float32"}, {"name": "batch_normalization_200/beta", "shape": [64], "dtype": "float32"}, {"name": "batch_normalization_200/moving_mean", "shape": [64], "dtype": "float32"}, {"name": "batch_normalization_200/moving_variance", "shape": [64], "dtype": "float32"}, {"name": "batch_normalization_201/beta", "shape": [48], "dtype": "float32"}, {"name": "batch_normalization_201/moving_mean", "shape": [48], "dtype": "float32"}, {"name": "batch_normalization_201/moving_variance", "shape": [48], "dtype": "float32"}, {"name": "batch_normalization_202/beta", "shape": [64], "dtype": "float32"}, {"name": "batch_normalization_202/moving_mean", "shape": [64], "dtype": "float32"}, {"name": "batch_normalization_202/moving_variance", "shape": [64], "dtype": "float32"}, {"name": "batch_normalization_203/beta", "shape": [64], "dtype": "float32"}, {"name": "batch_normalization_203/moving_mean", "shape": [64], "dtype": "float32"}, {"name": "batch_normalization_203/moving_variance", "shape": [64], "dtype": "float32"}, {"name": "batch_normalization_204/beta", "shape": [96], "dtype": "float32"}, {"name": "batch_normalization_204/moving_mean", "shape": [96], "dtype": "float32"}, {"name": "batch_normalization_204/moving_variance", "shape": [96], "dtype": "float32"}, {"name": "batch_normalization_205/beta", "shape": [96], "dtype": "float32"}, {"name": "batch_normalization_205/moving_mean", "shape": [96], "dtype": "float32"}, {"name": "batch_normalization_205/moving_variance", "shape": [96], "dtype": "float32"}, {"name": "batch_normalization_206/beta", "shape": [64], "dtype": "float32"}, {"name": "batch_normalization_206/moving_mean", "shape": [64], "dtype": "float32"}, {"name": "batch_normalization_206/moving_variance", "shape": [64], "dtype": "float32"}, {"name": "batch_normalization_207/beta", "shape": [64], "dtype": "float32"}, {"name": "batch_normalization_207/moving_mean", "shape": [64], "dtype": "float32"}, {"name": "batch_normalization_207/moving_variance", "shape": [64], "dtype": "float32"}, {"name": "batch_normalization_208/beta", "shape": [48], "dtype": "float32"}, {"name": "batch_normalization_208/moving_mean", "shape": [48], "dtype": "float32"}, {"name": "batch_normalization_208/moving_variance", "shape": [48], "dtype": "float32"}, {"name": "batch_normalization_209/beta", "shape": [64], "dtype": "float32"}, {"name": "batch_normalization_209/moving_mean", "shape": [64], "dtype": "float32"}, {"name": "batch_normalization_209/moving_variance", "shape": [64], "dtype": "float32"}, {"name": "batch_normalization_210/beta", "shape": [64], "dtype": "float32"}, {"name": "batch_normalization_210/moving_mean", "shape": [64], "dtype": "float32"}, {"name": "batch_normalization_210/moving_variance", "shape": [64], "dtype": "float32"}, {"name": "batch_normalization_211/beta", "shape": [96], "dtype": "float32"}, {"name": "batch_normalization_211/moving_mean", "shape": [96], "dtype": "float32"}, {"name": "batch_normalization_211/moving_variance", "shape": [96], "dtype": "float32"}, {"name": "batch_normalization_212/beta", "shape": [96], "dtype": "float32"}, {"name": "batch_normalization_212/moving_mean", "shape": [96], "dtype": "float32"}, {"name": "batch_normalization_212/moving_variance", "shape": [96], "dtype": "float32"}, {"name": "batch_normalization_213/beta", "shape": [64], "dtype": "float32"}, {"name": "batch_normalization_213/moving_mean", "shape": [64], "dtype": "float32"}, {"name": "batch_normalization_213/moving_variance", "shape": [64], "dtype": "float32"}, {"name": "batch_normalization_214/beta", "shape": [384], "dtype": "float32"}, {"name": "batch_normalization_214/moving_mean", "shape": [384], "dtype": "float32"}, {"name": "batch_normalization_214/moving_variance", "shape": [384], "dtype": "float32"}, {"name": "batch_normalization_215/beta", "shape": [64], "dtype": "float32"}, {"name": "batch_normalization_215/moving_mean", "shape": [64], "dtype": "float32"}, {"name": "batch_normalization_215/moving_variance", "shape": [64], "dtype": "float32"}, {"name": "batch_normalization_216/beta", "shape": [96], "dtype": "float32"}, {"name": "batch_normalization_216/moving_mean", "shape": [96], "dtype": "float32"}, {"name": "batch_normalization_216/moving_variance", "shape": [96], "dtype": "float32"}, {"name": "batch_normalization_217/beta", "shape": [96], "dtype": "float32"}, {"name": "batch_normalization_217/moving_mean", "shape": [96], "dtype": "float32"}, {"name": "batch_normalization_217/moving_variance", "shape": [96], "dtype": "float32"}, {"name": "batch_normalization_218/beta", "shape": [192], "dtype": "float32"}, {"name": "batch_normalization_218/moving_mean", "shape": [192], "dtype": "float32"}, {"name": "batch_normalization_218/moving_variance", "shape": [192], "dtype": "float32"}, {"name": "batch_normalization_219/beta", "shape": [128], "dtype": "float32"}, {"name": "batch_normalization_219/moving_mean", "shape": [128], "dtype": "float32"}, {"name": "batch_normalization_219/moving_variance", "shape": [128], "dtype": "float32"}, {"name": "batch_normalization_220/beta", "shape": [128], "dtype": "float32"}, {"name": "batch_normalization_220/moving_mean", "shape": [128], "dtype": "float32"}, {"name": "batch_normalization_220/moving_variance", "shape": [128], "dtype": "float32"}, {"name": "batch_normalization_221/beta", "shape": [192], "dtype": "float32"}, {"name": "batch_normalization_221/moving_mean", "shape": [192], "dtype": "float32"}, {"name": "batch_normalization_221/moving_variance", "shape": [192], "dtype": "float32"}, {"name": "batch_normalization_222/beta", "shape": [128], "dtype": "float32"}, {"name": "batch_normalization_222/moving_mean", "shape": [128], "dtype": "float32"}, {"name": "batch_normalization_222/moving_variance", "shape": [128], "dtype": "float32"}, {"name": "batch_normalization_223/beta", "shape": [128], "dtype": "float32"}, {"name": "batch_normalization_223/moving_mean", "shape": [128], "dtype": "float32"}, {"name": "batch_normalization_223/moving_variance", "shape": [128], "dtype": "float32"}, {"name": "batch_normalization_224/beta", "shape": [128], "dtype": "float32"}, {"name": "batch_normalization_224/moving_mean", "shape": [128], "dtype": "float32"}, {"name": "batch_normalization_224/moving_variance", "shape": [128], "dtype": "float32"}, {"name": "batch_normalization_225/beta", "shape": [128], "dtype": "float32"}, {"name": "batch_normalization_225/moving_mean", "shape": [128], "dtype": "float32"}, {"name": "batch_normalization_225/moving_variance", "shape": [128], "dtype": "float32"}, {"name": "batch_normalization_226/beta", "shape": [192], "dtype": "float32"}, {"name": "batch_normalization_226/moving_mean", "shape": [192], "dtype": "float32"}, {"name": "batch_normalization_226/moving_variance", "shape": [192], "dtype": "float32"}, {"name": "batch_normalization_227/beta", "shape": [192], "dtype": "float32"}, {"name": "batch_normalization_227/moving_mean", "shape": [192], "dtype": "float32"}, {"name": "batch_normalization_227/moving_variance", "shape": [192], "dtype": "float32"}, {"name": "batch_normalization_228/beta", "shape": [192], "dtype": "float32"}, {"name": "batch_normalization_228/moving_mean", "shape": [192], "dtype": "float32"}, {"name": "batch_normalization_228/moving_variance", "shape": [192], "dtype": "float32"}, {"name": "batch_normalization_229/beta", "shape": [160], "dtype": "float32"}, {"name": "batch_normalization_229/moving_mean", "shape": [160], "dtype": "float32"}, {"name": "batch_normalization_229/moving_variance", "shape": [160], "dtype": "float32"}, {"name": "batch_normalization_230/beta", "shape": [160], "dtype": "float32"}, {"name": "batch_normalization_230/moving_mean", "shape": [160], "dtype": "float32"}, {"name": "batch_normalization_230/moving_variance", "shape": [160], "dtype": "float32"}, {"name": "batch_normalization_231/beta", "shape": [192], "dtype": "float32"}, {"name": "batch_normalization_231/moving_mean", "shape": [192], "dtype": "float32"}, {"name": "batch_normalization_231/moving_variance", "shape": [192], "dtype": "float32"}, {"name": "batch_normalization_232/beta", "shape": [160], "dtype": "float32"}, {"name": "batch_normalization_232/moving_mean", "shape": [160], "dtype": "float32"}, {"name": "batch_normalization_232/moving_variance", "shape": [160], "dtype": "float32"}, {"name": "batch_normalization_233/beta", "shape": [160], "dtype": "float32"}, {"name": "batch_normalization_233/moving_mean", "shape": [160], "dtype": "float32"}, {"name": "batch_normalization_233/moving_variance", "shape": [160], "dtype": "float32"}, {"name": "batch_normalization_234/beta", "shape": [160], "dtype": "float32"}, {"name": "batch_normalization_234/moving_mean", "shape": [160], "dtype": "float32"}, {"name": "batch_normalization_234/moving_variance", "shape": [160], "dtype": "float32"}, {"name": "batch_normalization_235/beta", "shape": [160], "dtype": "float32"}, {"name": "batch_normalization_235/moving_mean", "shape": [160], "dtype": "float32"}, {"name": "batch_normalization_235/moving_variance", "shape": [160], "dtype": "float32"}, {"name": "batch_normalization_236/beta", "shape": [192], "dtype": "float32"}, {"name": "batch_normalization_236/moving_mean", "shape": [192], "dtype": "float32"}, {"name": "batch_normalization_236/moving_variance", "shape": [192], "dtype": "float32"}, {"name": "batch_normalization_237/beta", "shape": [192], "dtype": "float32"}, {"name": "batch_normalization_237/moving_mean", "shape": [192], "dtype": "float32"}, {"name": "batch_normalization_237/moving_variance", "shape": [192], "dtype": "float32"}, {"name": "batch_normalization_238/beta", "shape": [192], "dtype": "float32"}, {"name": "batch_normalization_238/moving_mean", "shape": [192], "dtype": "float32"}, {"name": "batch_normalization_238/moving_variance", "shape": [192], "dtype": "float32"}, {"name": "batch_normalization_239/beta", "shape": [160], "dtype": "float32"}, {"name": "batch_normalization_239/moving_mean", "shape": [160], "dtype": "float32"}, {"name": "batch_normalization_239/moving_variance", "shape": [160], "dtype": "float32"}, {"name": "batch_normalization_240/beta", "shape": [160], "dtype": "float32"}, {"name": "batch_normalization_240/moving_mean", "shape": [160], "dtype": "float32"}, {"name": "batch_normalization_240/moving_variance", "shape": [160], "dtype": "float32"}, {"name": "batch_normalization_241/beta", "shape": [192], "dtype": "float32"}, {"name": "batch_normalization_241/moving_mean", "shape": [192], "dtype": "float32"}, {"name": "batch_normalization_241/moving_variance", "shape": [192], "dtype": "float32"}, {"name": "batch_normalization_242/beta", "shape": [160], "dtype": "float32"}, {"name": "batch_normalization_242/moving_mean", "shape": [160], "dtype": "float32"}, {"name": "batch_normalization_242/moving_variance", "shape": [160], "dtype": "float32"}, {"name": "batch_normalization_243/beta", "shape": [160], "dtype": "float32"}, {"name": "batch_normalization_243/moving_mean", "shape": [160], "dtype": "float32"}, {"name": "batch_normalization_243/moving_variance", "shape": [160], "dtype": "float32"}, {"name": "batch_normalization_244/beta", "shape": [160], "dtype": "float32"}, {"name": "batch_normalization_244/moving_mean", "shape": [160], "dtype": "float32"}, {"name": "batch_normalization_244/moving_variance", "shape": [160], "dtype": "float32"}, {"name": "batch_normalization_245/beta", "shape": [160], "dtype": "float32"}, {"name": "batch_normalization_245/moving_mean", "shape": [160], "dtype": "float32"}, {"name": "batch_normalization_245/moving_variance", "shape": [160], "dtype": "float32"}, {"name": "batch_normalization_246/beta", "shape": [192], "dtype": "float32"}, {"name": "batch_normalization_246/moving_mean", "shape": [192], "dtype": "float32"}, {"name": "batch_normalization_246/moving_variance", "shape": [192], "dtype": "float32"}, {"name": "batch_normalization_247/beta", "shape": [192], "dtype": "float32"}, {"name": "batch_normalization_247/moving_mean", "shape": [192], "dtype": "float32"}, {"name": "batch_normalization_247/moving_variance", "shape": [192], "dtype": "float32"}, {"name": "batch_normalization_248/beta", "shape": [192], "dtype": "float32"}, {"name": "batch_normalization_248/moving_mean", "shape": [192], "dtype": "float32"}, {"name": "batch_normalization_248/moving_variance", "shape": [192], "dtype": "float32"}, {"name": "batch_normalization_249/beta", "shape": [192], "dtype": "float32"}, {"name": "batch_normalization_249/moving_mean", "shape": [192], "dtype": "float32"}, {"name": "batch_normalization_249/moving_variance", "shape": [192], "dtype": "float32"}, {"name": "batch_normalization_250/beta", "shape": [192], "dtype": "float32"}, {"name": "batch_normalization_250/moving_mean", "shape": [192], "dtype": "float32"}, {"name": "batch_normalization_250/moving_variance", "shape": [192], "dtype": "float32"}, {"name": "batch_normalization_251/beta", "shape": [192], "dtype": "float32"}, {"name": "batch_normalization_251/moving_mean", "shape": [192], "dtype": "float32"}, {"name": "batch_normalization_251/moving_variance", "shape": [192], "dtype": "float32"}, {"name": "batch_normalization_252/beta", "shape": [192], "dtype": "float32"}, {"name": "batch_normalization_252/moving_mean", "shape": [192], "dtype": "float32"}, {"name": "batch_normalization_252/moving_variance", "shape": [192], "dtype": "float32"}, {"name": "batch_normalization_253/beta", "shape": [192], "dtype": "float32"}, {"name": "batch_normalization_253/moving_mean", "shape": [192], "dtype": "float32"}, {"name": "batch_normalization_253/moving_variance", "shape": [192], "dtype": "float32"}, {"name": "batch_normalization_254/beta", "shape": [192], "dtype": "float32"}, {"name": "batch_normalization_254/moving_mean", "shape": [192], "dtype": "float32"}, {"name": "batch_normalization_254/moving_variance", "shape": [192], "dtype": "float32"}, {"name": "batch_normalization_255/beta", "shape": [192], "dtype": "float32"}, {"name": "batch_normalization_255/moving_mean", "shape": [192], "dtype": "float32"}, {"name": "batch_normalization_255/moving_variance", "shape": [192], "dtype": "float32"}, {"name": "batch_normalization_256/beta", "shape": [192], "dtype": "float32"}, {"name": "batch_normalization_256/moving_mean", "shape": [192], "dtype": "float32"}, {"name": "batch_normalization_256/moving_variance", "shape": [192], "dtype": "float32"}, {"name": "batch_normalization_257/beta", "shape": [192], "dtype": "float32"}, {"name": "batch_normalization_257/moving_mean", "shape": [192], "dtype": "float32"}, {"name": "batch_normalization_257/moving_variance", "shape": [192], "dtype": "float32"}, {"name": "conv2d_188/kernel", "shape": [3, 3, 3, 32], "dtype": "float32"}, {"name": "conv2d_189/kernel", "shape": [3, 3, 32, 32], "dtype": "float32"}, {"name": "conv2d_190/kernel", "shape": [3, 3, 32, 64], "dtype": "float32"}, {"name": "conv2d_191/kernel", "shape": [1, 1, 64, 80], "dtype": "float32"}, {"name": "conv2d_192/kernel", "shape": [3, 3, 80, 192], "dtype": "float32"}, {"name": "conv2d_193/kernel", "shape": [1, 1, 192, 64], "dtype": "float32"}, {"name": "conv2d_194/kernel", "shape": [1, 1, 192, 48], "dtype": "float32"}, {"name": "conv2d_195/kernel", "shape": [5, 5, 48, 64], "dtype": "float32"}, {"name": "conv2d_196/kernel", "shape": [1, 1, 192, 64], "dtype": "float32"}, {"name": "conv2d_197/kernel", "shape": [3, 3, 64, 96], "dtype": "float32"}, {"name": "conv2d_198/kernel", "shape": [3, 3, 96, 96], "dtype": "float32"}, {"name": "conv2d_199/kernel", "shape": [1, 1, 192, 32], "dtype": "float32"}, {"name": "conv2d_200/kernel", "shape": [1, 1, 256, 64], "dtype": "float32"}, {"name": "conv2d_201/kernel", "shape": [1, 1, 256, 48], "dtype": "float32"}, {"name": "conv2d_202/kernel", "shape": [5, 5, 48, 64], "dtype": "float32"}, {"name": "conv2d_203/kernel", "shape": [1, 1, 256, 64], "dtype": "float32"}, {"name": "conv2d_204/kernel", "shape": [3, 3, 64, 96], "dtype": "float32"}, {"name": "conv2d_205/kernel", "shape": [3, 3, 96, 96], "dtype": "float32"}, {"name": "conv2d_206/kernel", "shape": [1, 1, 256, 64], "dtype": "float32"}, {"name": "conv2d_207/kernel", "shape": [1, 1, 288, 64], "dtype": "float32"}, {"name": "conv2d_208/kernel", "shape": [1, 1, 288, 48], "dtype": "float32"}, {"name": "conv2d_209/kernel", "shape": [5, 5, 48, 64], "dtype": "float32"}, {"name": "conv2d_210/kernel", "shape": [1, 1, 288, 64], "dtype": "float32"}, {"name": "conv2d_211/kernel", "shape": [3, 3, 64, 96], "dtype": "float32"}, {"name": "conv2d_212/kernel", "shape": [3, 3, 96, 96], "dtype": "float32"}, {"name": "conv2d_213/kernel", "shape": [1, 1, 288, 64], "dtype": "float32"}, {"name": "conv2d_214/kernel", "shape": [3, 3, 288, 384], "dtype": "float32"}, {"name": "conv2d_215/kernel", "shape": [1, 1, 288, 64], "dtype": "float32"}, {"name": "conv2d_216/kernel", "shape": [3, 3, 64, 96], "dtype": "float32"}, {"name": "conv2d_217/kernel", "shape": [3, 3, 96, 96], "dtype": "float32"}, {"name": "conv2d_218/kernel", "shape": [1, 1, 768, 192], "dtype": "float32"}, {"name": "conv2d_219/kernel", "shape": [1, 1, 768, 128], "dtype": "float32"}, {"name": "conv2d_220/kernel", "shape": [1, 7, 128, 128], "dtype": "float32"}, {"name": "conv2d_221/kernel", "shape": [7, 1, 128, 192], "dtype": "float32"}, {"name": "conv2d_222/kernel", "shape": [1, 1, 768, 128], "dtype": "float32"}, {"name": "conv2d_223/kernel", "shape": [7, 1, 128, 128], "dtype": "float32"}, {"name": "conv2d_224/kernel", "shape": [1, 7, 128, 128], "dtype": "float32"}, {"name": "conv2d_225/kernel", "shape": [7, 1, 128, 128], "dtype": "float32"}, {"name": "conv2d_226/kernel", "shape": [1, 7, 128, 192], "dtype": "float32"}, {"name": "conv2d_227/kernel", "shape": [1, 1, 768, 192], "dtype": "float32"}, {"name": "conv2d_228/kernel", "shape": [1, 1, 768, 192], "dtype": "float32"}, {"name": "conv2d_229/kernel", "shape": [1, 1, 768, 160], "dtype": "float32"}, {"name": "conv2d_230/kernel", "shape": [1, 7, 160, 160], "dtype": "float32"}, {"name": "conv2d_231/kernel", "shape": [7, 1, 160, 192], "dtype": "float32"}, {"name": "conv2d_232/kernel", "shape": [1, 1, 768, 160], "dtype": "float32"}, {"name": "conv2d_233/kernel", "shape": [7, 1, 160, 160], "dtype": "float32"}, {"name": "conv2d_234/kernel", "shape": [1, 7, 160, 160], "dtype": "float32"}, {"name": "conv2d_235/kernel", "shape": [7, 1, 160, 160], "dtype": "float32"}, {"name": "conv2d_236/kernel", "shape": [1, 7, 160, 192], "dtype": "float32"}, {"name": "conv2d_237/kernel", "shape": [1, 1, 768, 192], "dtype": "float32"}, {"name": "conv2d_238/kernel", "shape": [1, 1, 768, 192], "dtype": "float32"}, {"name": "conv2d_239/kernel", "shape": [1, 1, 768, 160], "dtype": "float32"}, {"name": "conv2d_240/kernel", "shape": [1, 7, 160, 160], "dtype": "float32"}, {"name": "conv2d_241/kernel", "shape": [7, 1, 160, 192], "dtype": "float32"}, {"name": "conv2d_242/kernel", "shape": [1, 1, 768, 160], "dtype": "float32"}, {"name": "conv2d_243/kernel", "shape": [7, 1, 160, 160], "dtype": "float32"}, {"name": "conv2d_244/kernel", "shape": [1, 7, 160, 160], "dtype": "float32"}, {"name": "conv2d_245/kernel", "shape": [7, 1, 160, 160], "dtype": "float32"}, {"name": "conv2d_246/kernel", "shape": [1, 7, 160, 192], "dtype": "float32"}, {"name": "conv2d_247/kernel", "shape": [1, 1, 768, 192], "dtype": "float32"}, {"name": "conv2d_248/kernel", "shape": [1, 1, 768, 192], "dtype": "float32"}, {"name": "conv2d_249/kernel", "shape": [1, 1, 768, 192], "dtype": "float32"}, {"name": "conv2d_250/kernel", "shape": [1, 7, 192, 192], "dtype": "float32"}, {"name": "conv2d_251/kernel", "shape": [7, 1, 192, 192], "dtype": "float32"}, {"name": "conv2d_252/kernel", "shape": [1, 1, 768, 192], "dtype": "float32"}, {"name": "conv2d_253/kernel", "shape": [7, 1, 192, 192], "dtype": "float32"}, {"name": "conv2d_254/kernel", "shape": [1, 7, 192, 192], "dtype": "float32"}, {"name": "conv2d_255/kernel", "shape": [7, 1, 192, 192], "dtype": "float32"}, {"name": "conv2d_256/kernel", "shape": [1, 7, 192, 192], "dtype": "float32"}, {"name": "conv2d_257/kernel", "shape": [1, 1, 768, 192], "dtype": "float32"}, {"name": "dense_4/kernel", "shape": [221952, 32], "dtype": "float32"}, {"name": "dense_4/bias", "shape": [32], "dtype": "float32"}, {"name": "dense_5/kernel", "shape": [32, 1], "dtype": "float32"}, {"name": "dense_5/bias", "shape": [1], "dtype": "float32"}]}]}